<?xml version="1.0"?>
<net name="main_graph" version="11">
	<layers>
		<layer id="0" name="input" type="Parameter" version="opset1">
			<data shape="1,3,600,800" element_type="f32" />
			<output>
				<port id="0" precision="FP32" names="input">
					<dim>1</dim>
					<dim>3</dim>
					<dim>600</dim>
					<dim>800</dim>
					<rt_info>
						<attribute name="layout" version="0" layout="[N,C,H,W]" />
					</rt_info>
				</port>
			</output>
		</layer>
		<layer id="1" name="Constant_32946_compressed" type="Const" version="opset1">
			<data element_type="f16" shape="1, 1, 1, 4" offset="0" size="8" />
			<output>
				<port id="0" precision="FP16">
					<dim>1</dim>
					<dim>1</dim>
					<dim>1</dim>
					<dim>4</dim>
				</port>
			</output>
		</layer>
		<layer id="2" name="Constant_32946" type="Convert" version="opset1">
			<data destination_type="f32" />
			<rt_info>
				<attribute name="decompression" version="0" />
			</rt_info>
			<input>
				<port id="0" precision="FP16">
					<dim>1</dim>
					<dim>1</dim>
					<dim>1</dim>
					<dim>4</dim>
				</port>
			</input>
			<output>
				<port id="1" precision="FP32">
					<dim>1</dim>
					<dim>1</dim>
					<dim>1</dim>
					<dim>4</dim>
				</port>
			</output>
		</layer>
		<layer id="3" name="Constant_32945_compressed" type="Const" version="opset1">
			<data element_type="f16" shape="1, 1, 1, 256" offset="8" size="512" />
			<output>
				<port id="0" precision="FP16">
					<dim>1</dim>
					<dim>1</dim>
					<dim>1</dim>
					<dim>256</dim>
				</port>
			</output>
		</layer>
		<layer id="4" name="Constant_32945" type="Convert" version="opset1">
			<data destination_type="f32" />
			<rt_info>
				<attribute name="decompression" version="0" />
			</rt_info>
			<input>
				<port id="0" precision="FP16">
					<dim>1</dim>
					<dim>1</dim>
					<dim>1</dim>
					<dim>256</dim>
				</port>
			</input>
			<output>
				<port id="1" precision="FP32">
					<dim>1</dim>
					<dim>1</dim>
					<dim>1</dim>
					<dim>256</dim>
				</port>
			</output>
		</layer>
		<layer id="5" name="Constant_32944_compressed" type="Const" version="opset1">
			<data element_type="f16" shape="1, 1, 1, 256" offset="520" size="512" />
			<output>
				<port id="0" precision="FP16">
					<dim>1</dim>
					<dim>1</dim>
					<dim>1</dim>
					<dim>256</dim>
				</port>
			</output>
		</layer>
		<layer id="6" name="Constant_32944" type="Convert" version="opset1">
			<data destination_type="f32" />
			<rt_info>
				<attribute name="decompression" version="0" />
			</rt_info>
			<input>
				<port id="0" precision="FP16">
					<dim>1</dim>
					<dim>1</dim>
					<dim>1</dim>
					<dim>256</dim>
				</port>
			</input>
			<output>
				<port id="1" precision="FP32">
					<dim>1</dim>
					<dim>1</dim>
					<dim>1</dim>
					<dim>256</dim>
				</port>
			</output>
		</layer>
		<layer id="7" name="Constant_1088_compressed" type="Const" version="opset1">
			<data element_type="f16" shape="" offset="1032" size="2" />
			<output>
				<port id="0" precision="FP16" />
			</output>
		</layer>
		<layer id="8" name="Constant_1088" type="Convert" version="opset1">
			<data destination_type="f32" />
			<rt_info>
				<attribute name="decompression" version="0" />
			</rt_info>
			<input>
				<port id="0" precision="FP16" />
			</input>
			<output>
				<port id="1" precision="FP32" />
			</output>
		</layer>
		<layer id="9" name="/transformer/Expand_compressed" type="Const" version="opset1">
			<data element_type="f16" shape="100, 1, 256" offset="1034" size="51200" />
			<output>
				<port id="0" precision="FP16">
					<dim>100</dim>
					<dim>1</dim>
					<dim>256</dim>
				</port>
			</output>
		</layer>
		<layer id="10" name="/transformer/Expand" type="Convert" version="opset1">
			<data destination_type="f32" />
			<rt_info>
				<attribute name="decompression" version="0" />
			</rt_info>
			<input>
				<port id="0" precision="FP16">
					<dim>100</dim>
					<dim>1</dim>
					<dim>256</dim>
				</port>
			</input>
			<output>
				<port id="1" precision="FP32" names="/transformer/Expand_output_0,/transformer/Tile_output_0">
					<dim>100</dim>
					<dim>1</dim>
					<dim>256</dim>
				</port>
			</output>
		</layer>
		<layer id="11" name="/transformer/Shape_4" type="ShapeOf" version="opset3">
			<data output_type="i64" />
			<input>
				<port id="0" precision="FP32">
					<dim>100</dim>
					<dim>1</dim>
					<dim>256</dim>
				</port>
			</input>
			<output>
				<port id="1" precision="I64" names="/transformer/Shape_4_output_0">
					<dim>3</dim>
				</port>
			</output>
		</layer>
		<layer id="12" name="/transformer/ConstantOfShape_1" type="Broadcast" version="opset3">
			<data mode="numpy" />
			<input>
				<port id="0" precision="FP32" />
				<port id="1" precision="I64">
					<dim>3</dim>
				</port>
			</input>
			<output>
				<port id="2" precision="FP32" names="/transformer/ConstantOfShape_1_output_0">
					<dim>100</dim>
					<dim>1</dim>
					<dim>256</dim>
				</port>
			</output>
		</layer>
		<layer id="13" name="Constant_32752_compressed" type="Const" version="opset1">
			<data element_type="f16" shape="1, 1, 256" offset="52234" size="512" />
			<output>
				<port id="0" precision="FP16">
					<dim>1</dim>
					<dim>1</dim>
					<dim>256</dim>
				</port>
			</output>
		</layer>
		<layer id="14" name="Constant_32752" type="Convert" version="opset1">
			<data destination_type="f32" />
			<rt_info>
				<attribute name="decompression" version="0" />
			</rt_info>
			<input>
				<port id="0" precision="FP16">
					<dim>1</dim>
					<dim>1</dim>
					<dim>256</dim>
				</port>
			</input>
			<output>
				<port id="1" precision="FP32">
					<dim>1</dim>
					<dim>1</dim>
					<dim>256</dim>
				</port>
			</output>
		</layer>
		<layer id="15" name="/transformer/decoder/layers.0/Add" type="Add" version="opset1">
			<data auto_broadcast="numpy" />
			<input>
				<port id="0" precision="FP32">
					<dim>100</dim>
					<dim>1</dim>
					<dim>256</dim>
				</port>
				<port id="1" precision="FP32">
					<dim>100</dim>
					<dim>1</dim>
					<dim>256</dim>
				</port>
			</input>
			<output>
				<port id="2" precision="FP32" names="/transformer/decoder/layers.0/Add_output_0">
					<dim>100</dim>
					<dim>1</dim>
					<dim>256</dim>
				</port>
			</output>
		</layer>
		<layer id="16" name="Transpose_30702_compressed" type="Const" version="opset1">
			<data element_type="f16" shape="256, 256" offset="52746" size="131072" />
			<output>
				<port id="0" precision="FP16">
					<dim>256</dim>
					<dim>256</dim>
				</port>
			</output>
		</layer>
		<layer id="17" name="Transpose_30702" type="Convert" version="opset1">
			<data destination_type="f32" />
			<rt_info>
				<attribute name="decompression" version="0" />
			</rt_info>
			<input>
				<port id="0" precision="FP16">
					<dim>256</dim>
					<dim>256</dim>
				</port>
			</input>
			<output>
				<port id="1" precision="FP32">
					<dim>256</dim>
					<dim>256</dim>
				</port>
			</output>
		</layer>
		<layer id="18" name="/transformer/decoder/layers.0/self_attn/MatMul" type="MatMul" version="opset1">
			<data transpose_a="false" transpose_b="true" />
			<input>
				<port id="0" precision="FP32">
					<dim>100</dim>
					<dim>1</dim>
					<dim>256</dim>
				</port>
				<port id="1" precision="FP32">
					<dim>256</dim>
					<dim>256</dim>
				</port>
			</input>
			<output>
				<port id="2" precision="FP32" names="/transformer/decoder/layers.0/self_attn/MatMul_output_0">
					<dim>100</dim>
					<dim>1</dim>
					<dim>256</dim>
				</port>
			</output>
		</layer>
		<layer id="19" name="/transformer/decoder/layers.0/self_attn/Add" type="Add" version="opset1">
			<data auto_broadcast="numpy" />
			<input>
				<port id="0" precision="FP32">
					<dim>1</dim>
					<dim>1</dim>
					<dim>256</dim>
				</port>
				<port id="1" precision="FP32">
					<dim>100</dim>
					<dim>1</dim>
					<dim>256</dim>
				</port>
			</input>
			<output>
				<port id="2" precision="FP32" names="/transformer/decoder/layers.0/self_attn/Add_output_0">
					<dim>100</dim>
					<dim>1</dim>
					<dim>256</dim>
				</port>
			</output>
		</layer>
		<layer id="20" name="Constant_34849" type="Const" version="opset1">
			<data element_type="i64" shape="3" offset="183818" size="24" />
			<rt_info>
				<attribute name="precise" version="0" />
			</rt_info>
			<output>
				<port id="0" precision="I64">
					<dim>3</dim>
				</port>
			</output>
		</layer>
		<layer id="21" name="/transformer/decoder/layers.0/self_attn/Reshape" type="Reshape" version="opset1">
			<data special_zero="true" />
			<input>
				<port id="0" precision="FP32">
					<dim>100</dim>
					<dim>1</dim>
					<dim>256</dim>
				</port>
				<port id="1" precision="I64">
					<dim>3</dim>
				</port>
			</input>
			<output>
				<port id="2" precision="FP32" names="/transformer/decoder/layers.0/self_attn/Reshape_output_0">
					<dim>100</dim>
					<dim>8</dim>
					<dim>32</dim>
				</port>
			</output>
		</layer>
		<layer id="22" name="Constant_3073" type="Const" version="opset1">
			<data element_type="i64" shape="3" offset="183842" size="24" />
			<output>
				<port id="0" precision="I64">
					<dim>3</dim>
				</port>
			</output>
		</layer>
		<layer id="23" name="/transformer/decoder/layers.0/self_attn/Transpose" type="Transpose" version="opset1">
			<input>
				<port id="0" precision="FP32">
					<dim>100</dim>
					<dim>8</dim>
					<dim>32</dim>
				</port>
				<port id="1" precision="I64">
					<dim>3</dim>
				</port>
			</input>
			<output>
				<port id="2" precision="FP32" names="/transformer/decoder/layers.0/self_attn/Transpose_output_0">
					<dim>8</dim>
					<dim>100</dim>
					<dim>32</dim>
				</port>
			</output>
		</layer>
		<layer id="24" name="Constant_32753_compressed" type="Const" version="opset1">
			<data element_type="f16" shape="1, 1, 1" offset="183866" size="2" />
			<output>
				<port id="0" precision="FP16">
					<dim>1</dim>
					<dim>1</dim>
					<dim>1</dim>
				</port>
			</output>
		</layer>
		<layer id="25" name="Constant_32753" type="Convert" version="opset1">
			<data destination_type="f32" />
			<rt_info>
				<attribute name="decompression" version="0" />
			</rt_info>
			<input>
				<port id="0" precision="FP16">
					<dim>1</dim>
					<dim>1</dim>
					<dim>1</dim>
				</port>
			</input>
			<output>
				<port id="1" precision="FP32">
					<dim>1</dim>
					<dim>1</dim>
					<dim>1</dim>
				</port>
			</output>
		</layer>
		<layer id="26" name="/transformer/decoder/layers.0/self_attn/Mul_1" type="Multiply" version="opset1">
			<data auto_broadcast="numpy" />
			<input>
				<port id="0" precision="FP32">
					<dim>8</dim>
					<dim>100</dim>
					<dim>32</dim>
				</port>
				<port id="1" precision="FP32">
					<dim>1</dim>
					<dim>1</dim>
					<dim>1</dim>
				</port>
			</input>
			<output>
				<port id="2" precision="FP32" names="/transformer/decoder/layers.0/self_attn/Mul_1_output_0">
					<dim>8</dim>
					<dim>100</dim>
					<dim>32</dim>
				</port>
			</output>
		</layer>
		<layer id="27" name="Constant_32754_compressed" type="Const" version="opset1">
			<data element_type="f16" shape="1, 1, 256" offset="183868" size="512" />
			<output>
				<port id="0" precision="FP16">
					<dim>1</dim>
					<dim>1</dim>
					<dim>256</dim>
				</port>
			</output>
		</layer>
		<layer id="28" name="Constant_32754" type="Convert" version="opset1">
			<data destination_type="f32" />
			<rt_info>
				<attribute name="decompression" version="0" />
			</rt_info>
			<input>
				<port id="0" precision="FP16">
					<dim>1</dim>
					<dim>1</dim>
					<dim>256</dim>
				</port>
			</input>
			<output>
				<port id="1" precision="FP32">
					<dim>1</dim>
					<dim>1</dim>
					<dim>256</dim>
				</port>
			</output>
		</layer>
		<layer id="29" name="Transpose_30713_compressed" type="Const" version="opset1">
			<data element_type="f16" shape="256, 256" offset="184380" size="131072" />
			<output>
				<port id="0" precision="FP16">
					<dim>256</dim>
					<dim>256</dim>
				</port>
			</output>
		</layer>
		<layer id="30" name="Transpose_30713" type="Convert" version="opset1">
			<data destination_type="f32" />
			<rt_info>
				<attribute name="decompression" version="0" />
			</rt_info>
			<input>
				<port id="0" precision="FP16">
					<dim>256</dim>
					<dim>256</dim>
				</port>
			</input>
			<output>
				<port id="1" precision="FP32">
					<dim>256</dim>
					<dim>256</dim>
				</port>
			</output>
		</layer>
		<layer id="31" name="/transformer/decoder/layers.0/self_attn/MatMul_1" type="MatMul" version="opset1">
			<data transpose_a="false" transpose_b="true" />
			<input>
				<port id="0" precision="FP32">
					<dim>100</dim>
					<dim>1</dim>
					<dim>256</dim>
				</port>
				<port id="1" precision="FP32">
					<dim>256</dim>
					<dim>256</dim>
				</port>
			</input>
			<output>
				<port id="2" precision="FP32" names="/transformer/decoder/layers.0/self_attn/MatMul_1_output_0">
					<dim>100</dim>
					<dim>1</dim>
					<dim>256</dim>
				</port>
			</output>
		</layer>
		<layer id="32" name="/transformer/decoder/layers.0/self_attn/Add_1" type="Add" version="opset1">
			<data auto_broadcast="numpy" />
			<input>
				<port id="0" precision="FP32">
					<dim>1</dim>
					<dim>1</dim>
					<dim>256</dim>
				</port>
				<port id="1" precision="FP32">
					<dim>100</dim>
					<dim>1</dim>
					<dim>256</dim>
				</port>
			</input>
			<output>
				<port id="2" precision="FP32" names="/transformer/decoder/layers.0/self_attn/Add_1_output_0">
					<dim>100</dim>
					<dim>1</dim>
					<dim>256</dim>
				</port>
			</output>
		</layer>
		<layer id="33" name="Constant_34850" type="Const" version="opset1">
			<data element_type="i64" shape="3" offset="183818" size="24" />
			<rt_info>
				<attribute name="precise" version="0" />
			</rt_info>
			<output>
				<port id="0" precision="I64">
					<dim>3</dim>
				</port>
			</output>
		</layer>
		<layer id="34" name="/transformer/decoder/layers.0/self_attn/Reshape_1" type="Reshape" version="opset1">
			<data special_zero="true" />
			<input>
				<port id="0" precision="FP32">
					<dim>100</dim>
					<dim>1</dim>
					<dim>256</dim>
				</port>
				<port id="1" precision="I64">
					<dim>3</dim>
				</port>
			</input>
			<output>
				<port id="2" precision="FP32" names="/transformer/decoder/layers.0/self_attn/Reshape_1_output_0">
					<dim>100</dim>
					<dim>8</dim>
					<dim>32</dim>
				</port>
			</output>
		</layer>
		<layer id="35" name="Constant_3195" type="Const" version="opset1">
			<data element_type="i64" shape="3" offset="315452" size="24" />
			<output>
				<port id="0" precision="I64">
					<dim>3</dim>
				</port>
			</output>
		</layer>
		<layer id="36" name="/transformer/decoder/layers.0/self_attn/Transpose_2" type="Transpose" version="opset1">
			<input>
				<port id="0" precision="FP32">
					<dim>100</dim>
					<dim>8</dim>
					<dim>32</dim>
				</port>
				<port id="1" precision="I64">
					<dim>3</dim>
				</port>
			</input>
			<output>
				<port id="2" precision="FP32" names="/transformer/decoder/layers.0/self_attn/Transpose_2_output_0">
					<dim>8</dim>
					<dim>32</dim>
					<dim>100</dim>
				</port>
			</output>
		</layer>
		<layer id="37" name="/transformer/decoder/layers.0/self_attn/MatMul_3" type="MatMul" version="opset1">
			<data transpose_a="false" transpose_b="false" />
			<input>
				<port id="0" precision="FP32">
					<dim>8</dim>
					<dim>100</dim>
					<dim>32</dim>
				</port>
				<port id="1" precision="FP32">
					<dim>8</dim>
					<dim>32</dim>
					<dim>100</dim>
				</port>
			</input>
			<output>
				<port id="2" precision="FP32" names="/transformer/decoder/layers.0/self_attn/MatMul_3_output_0">
					<dim>8</dim>
					<dim>100</dim>
					<dim>100</dim>
				</port>
			</output>
		</layer>
		<layer id="38" name="/transformer/decoder/layers.0/self_attn/Softmax" type="SoftMax" version="opset8">
			<data axis="2" />
			<input>
				<port id="0" precision="FP32">
					<dim>8</dim>
					<dim>100</dim>
					<dim>100</dim>
				</port>
			</input>
			<output>
				<port id="1" precision="FP32" names="/transformer/decoder/layers.0/self_attn/Softmax_output_0">
					<dim>8</dim>
					<dim>100</dim>
					<dim>100</dim>
				</port>
			</output>
		</layer>
		<layer id="39" name="Constant_32755_compressed" type="Const" version="opset1">
			<data element_type="f16" shape="1, 1, 256" offset="315476" size="512" />
			<output>
				<port id="0" precision="FP16">
					<dim>1</dim>
					<dim>1</dim>
					<dim>256</dim>
				</port>
			</output>
		</layer>
		<layer id="40" name="Constant_32755" type="Convert" version="opset1">
			<data destination_type="f32" />
			<rt_info>
				<attribute name="decompression" version="0" />
			</rt_info>
			<input>
				<port id="0" precision="FP16">
					<dim>1</dim>
					<dim>1</dim>
					<dim>256</dim>
				</port>
			</input>
			<output>
				<port id="1" precision="FP32">
					<dim>1</dim>
					<dim>1</dim>
					<dim>256</dim>
				</port>
			</output>
		</layer>
		<layer id="41" name="Transpose_30720_compressed" type="Const" version="opset1">
			<data element_type="f16" shape="256, 256" offset="315988" size="131072" />
			<output>
				<port id="0" precision="FP16">
					<dim>256</dim>
					<dim>256</dim>
				</port>
			</output>
		</layer>
		<layer id="42" name="Transpose_30720" type="Convert" version="opset1">
			<data destination_type="f32" />
			<rt_info>
				<attribute name="decompression" version="0" />
			</rt_info>
			<input>
				<port id="0" precision="FP16">
					<dim>256</dim>
					<dim>256</dim>
				</port>
			</input>
			<output>
				<port id="1" precision="FP32">
					<dim>256</dim>
					<dim>256</dim>
				</port>
			</output>
		</layer>
		<layer id="43" name="/transformer/decoder/layers.0/self_attn/MatMul_2" type="MatMul" version="opset1">
			<data transpose_a="false" transpose_b="true" />
			<input>
				<port id="0" precision="FP32">
					<dim>100</dim>
					<dim>1</dim>
					<dim>256</dim>
				</port>
				<port id="1" precision="FP32">
					<dim>256</dim>
					<dim>256</dim>
				</port>
			</input>
			<output>
				<port id="2" precision="FP32" names="/transformer/decoder/layers.0/self_attn/MatMul_2_output_0">
					<dim>100</dim>
					<dim>1</dim>
					<dim>256</dim>
				</port>
			</output>
		</layer>
		<layer id="44" name="/transformer/decoder/layers.0/self_attn/Add_2" type="Add" version="opset1">
			<data auto_broadcast="numpy" />
			<input>
				<port id="0" precision="FP32">
					<dim>1</dim>
					<dim>1</dim>
					<dim>256</dim>
				</port>
				<port id="1" precision="FP32">
					<dim>100</dim>
					<dim>1</dim>
					<dim>256</dim>
				</port>
			</input>
			<output>
				<port id="2" precision="FP32" names="/transformer/decoder/layers.0/self_attn/Add_2_output_0">
					<dim>100</dim>
					<dim>1</dim>
					<dim>256</dim>
				</port>
			</output>
		</layer>
		<layer id="45" name="Constant_34851" type="Const" version="opset1">
			<data element_type="i64" shape="3" offset="183818" size="24" />
			<rt_info>
				<attribute name="precise" version="0" />
			</rt_info>
			<output>
				<port id="0" precision="I64">
					<dim>3</dim>
				</port>
			</output>
		</layer>
		<layer id="46" name="/transformer/decoder/layers.0/self_attn/Reshape_2" type="Reshape" version="opset1">
			<data special_zero="true" />
			<input>
				<port id="0" precision="FP32">
					<dim>100</dim>
					<dim>1</dim>
					<dim>256</dim>
				</port>
				<port id="1" precision="I64">
					<dim>3</dim>
				</port>
			</input>
			<output>
				<port id="2" precision="FP32" names="/transformer/decoder/layers.0/self_attn/Reshape_2_output_0">
					<dim>100</dim>
					<dim>8</dim>
					<dim>32</dim>
				</port>
			</output>
		</layer>
		<layer id="47" name="Constant_3191" type="Const" version="opset1">
			<data element_type="i64" shape="3" offset="183842" size="24" />
			<output>
				<port id="0" precision="I64">
					<dim>3</dim>
				</port>
			</output>
		</layer>
		<layer id="48" name="/transformer/decoder/layers.0/self_attn/Transpose_1" type="Transpose" version="opset1">
			<input>
				<port id="0" precision="FP32">
					<dim>100</dim>
					<dim>8</dim>
					<dim>32</dim>
				</port>
				<port id="1" precision="I64">
					<dim>3</dim>
				</port>
			</input>
			<output>
				<port id="2" precision="FP32" names="/transformer/decoder/layers.0/self_attn/Transpose_1_output_0">
					<dim>8</dim>
					<dim>100</dim>
					<dim>32</dim>
				</port>
			</output>
		</layer>
		<layer id="49" name="/transformer/decoder/layers.0/self_attn/MatMul_4" type="MatMul" version="opset1">
			<data transpose_a="false" transpose_b="false" />
			<input>
				<port id="0" precision="FP32">
					<dim>8</dim>
					<dim>100</dim>
					<dim>100</dim>
				</port>
				<port id="1" precision="FP32">
					<dim>8</dim>
					<dim>100</dim>
					<dim>32</dim>
				</port>
			</input>
			<output>
				<port id="2" precision="FP32" names="/transformer/decoder/layers.0/self_attn/MatMul_4_output_0">
					<dim>8</dim>
					<dim>100</dim>
					<dim>32</dim>
				</port>
			</output>
		</layer>
		<layer id="50" name="Constant_3200" type="Const" version="opset1">
			<data element_type="i64" shape="3" offset="183842" size="24" />
			<output>
				<port id="0" precision="I64">
					<dim>3</dim>
				</port>
			</output>
		</layer>
		<layer id="51" name="/transformer/decoder/layers.0/self_attn/Transpose_3" type="Transpose" version="opset1">
			<input>
				<port id="0" precision="FP32">
					<dim>8</dim>
					<dim>100</dim>
					<dim>32</dim>
				</port>
				<port id="1" precision="I64">
					<dim>3</dim>
				</port>
			</input>
			<output>
				<port id="2" precision="FP32" names="/transformer/decoder/layers.0/self_attn/Transpose_3_output_0">
					<dim>100</dim>
					<dim>8</dim>
					<dim>32</dim>
				</port>
			</output>
		</layer>
		<layer id="52" name="Constant_162901" type="Const" version="opset1">
			<data element_type="i64" shape="1" offset="447060" size="8" />
			<output>
				<port id="0" precision="I64">
					<dim>1</dim>
				</port>
			</output>
		</layer>
		<layer id="53" name="transformer.decoder.layers.0.self_attn.out_proj.weight_compressed" type="Const" version="opset1">
			<data element_type="f16" shape="256, 256" offset="447068" size="131072" />
			<output>
				<port id="0" precision="FP16">
					<dim>256</dim>
					<dim>256</dim>
				</port>
			</output>
		</layer>
		<layer id="54" name="transformer.decoder.layers.0.self_attn.out_proj.weight" type="Convert" version="opset1">
			<data destination_type="f32" />
			<rt_info>
				<attribute name="decompression" version="0" />
			</rt_info>
			<input>
				<port id="0" precision="FP16">
					<dim>256</dim>
					<dim>256</dim>
				</port>
			</input>
			<output>
				<port id="1" precision="FP32" names="transformer.decoder.layers.0.self_attn.out_proj.weight">
					<dim>256</dim>
					<dim>256</dim>
				</port>
			</output>
		</layer>
		<layer id="55" name="ShapeOf_162897" type="ShapeOf" version="opset3">
			<data output_type="i64" />
			<input>
				<port id="0" precision="FP32">
					<dim>256</dim>
					<dim>256</dim>
				</port>
			</input>
			<output>
				<port id="1" precision="I64">
					<dim>2</dim>
				</port>
			</output>
		</layer>
		<layer id="56" name="Constant_162898" type="Const" version="opset1">
			<data element_type="i64" shape="1" offset="447060" size="8" />
			<output>
				<port id="0" precision="I64">
					<dim>1</dim>
				</port>
			</output>
		</layer>
		<layer id="57" name="Constant_162899" type="Const" version="opset1">
			<data element_type="i64" shape="" offset="578140" size="8" />
			<output>
				<port id="0" precision="I64" />
			</output>
		</layer>
		<layer id="58" name="Gather_162900" type="Gather" version="opset8">
			<data batch_dims="0" />
			<input>
				<port id="0" precision="I64">
					<dim>2</dim>
				</port>
				<port id="1" precision="I64">
					<dim>1</dim>
				</port>
				<port id="2" precision="I64" />
			</input>
			<output>
				<port id="3" precision="I64">
					<dim>1</dim>
				</port>
			</output>
		</layer>
		<layer id="59" name="Concat_162902" type="Concat" version="opset1">
			<data axis="0" />
			<input>
				<port id="0" precision="I64">
					<dim>1</dim>
				</port>
				<port id="1" precision="I64">
					<dim>1</dim>
				</port>
			</input>
			<output>
				<port id="2" precision="I64">
					<dim>2</dim>
				</port>
			</output>
		</layer>
		<layer id="60" name="/transformer/decoder/layers.0/self_attn/Reshape_3" type="Reshape" version="opset1">
			<data special_zero="true" />
			<input>
				<port id="0" precision="FP32">
					<dim>100</dim>
					<dim>8</dim>
					<dim>32</dim>
				</port>
				<port id="1" precision="I64">
					<dim>2</dim>
				</port>
			</input>
			<output>
				<port id="2" precision="FP32" names="/transformer/decoder/layers.0/self_attn/Reshape_3_output_0">
					<dim>100</dim>
					<dim>256</dim>
				</port>
			</output>
		</layer>
		<layer id="61" name="/transformer/decoder/layers.0/self_attn/Gemm/WithoutBiases" type="MatMul" version="opset1">
			<data transpose_a="false" transpose_b="true" />
			<input>
				<port id="0" precision="FP32">
					<dim>100</dim>
					<dim>256</dim>
				</port>
				<port id="1" precision="FP32">
					<dim>256</dim>
					<dim>256</dim>
				</port>
			</input>
			<output>
				<port id="2" precision="FP32">
					<dim>100</dim>
					<dim>256</dim>
				</port>
			</output>
		</layer>
		<layer id="62" name="Constant_32756_compressed" type="Const" version="opset1">
			<data element_type="f16" shape="1, 256" offset="578148" size="512" />
			<output>
				<port id="0" precision="FP16">
					<dim>1</dim>
					<dim>256</dim>
				</port>
			</output>
		</layer>
		<layer id="63" name="Constant_32756" type="Convert" version="opset1">
			<data destination_type="f32" />
			<rt_info>
				<attribute name="decompression" version="0" />
			</rt_info>
			<input>
				<port id="0" precision="FP16">
					<dim>1</dim>
					<dim>256</dim>
				</port>
			</input>
			<output>
				<port id="1" precision="FP32">
					<dim>1</dim>
					<dim>256</dim>
				</port>
			</output>
		</layer>
		<layer id="64" name="/transformer/decoder/layers.0/self_attn/Gemm" type="Add" version="opset1">
			<data auto_broadcast="numpy" />
			<input>
				<port id="0" precision="FP32">
					<dim>100</dim>
					<dim>256</dim>
				</port>
				<port id="1" precision="FP32">
					<dim>1</dim>
					<dim>256</dim>
				</port>
			</input>
			<output>
				<port id="2" precision="FP32" names="/transformer/decoder/layers.0/self_attn/Gemm_output_0">
					<dim>100</dim>
					<dim>256</dim>
				</port>
			</output>
		</layer>
		<layer id="65" name="Constant_34852" type="Const" version="opset1">
			<data element_type="i64" shape="3" offset="578660" size="24" />
			<rt_info>
				<attribute name="precise" version="0" />
			</rt_info>
			<output>
				<port id="0" precision="I64">
					<dim>3</dim>
				</port>
			</output>
		</layer>
		<layer id="66" name="/transformer/decoder/layers.0/self_attn/Reshape_4" type="Reshape" version="opset1">
			<data special_zero="true" />
			<input>
				<port id="0" precision="FP32">
					<dim>100</dim>
					<dim>256</dim>
				</port>
				<port id="1" precision="I64">
					<dim>3</dim>
				</port>
			</input>
			<output>
				<port id="2" precision="FP32" names="/transformer/decoder/layers.0/self_attn/Reshape_4_output_0">
					<dim>100</dim>
					<dim>1</dim>
					<dim>256</dim>
				</port>
			</output>
		</layer>
		<layer id="67" name="/transformer/decoder/layers.0/Add_1" type="Add" version="opset1">
			<data auto_broadcast="numpy" />
			<input>
				<port id="0" precision="FP32">
					<dim>100</dim>
					<dim>1</dim>
					<dim>256</dim>
				</port>
				<port id="1" precision="FP32">
					<dim>100</dim>
					<dim>1</dim>
					<dim>256</dim>
				</port>
			</input>
			<output>
				<port id="2" precision="FP32" names="/transformer/decoder/layers.0/Add_1_output_0">
					<dim>100</dim>
					<dim>1</dim>
					<dim>256</dim>
				</port>
			</output>
		</layer>
		<layer id="68" name="Constant_3228" type="Const" version="opset1">
			<data element_type="i64" shape="1" offset="447060" size="8" />
			<output>
				<port id="0" precision="I64">
					<dim>1</dim>
				</port>
			</output>
		</layer>
		<layer id="69" name="/transformer/decoder/layers.0/norm1/Div" type="MVN" version="opset6">
			<data eps="9.9999997473787516e-06" normalize_variance="true" eps_mode="INSIDE_SQRT" />
			<input>
				<port id="0" precision="FP32">
					<dim>100</dim>
					<dim>1</dim>
					<dim>256</dim>
				</port>
				<port id="1" precision="I64">
					<dim>1</dim>
				</port>
			</input>
			<output>
				<port id="2" precision="FP32" names="/transformer/decoder/layers.0/norm1/Div_output_0">
					<dim>100</dim>
					<dim>1</dim>
					<dim>256</dim>
				</port>
			</output>
		</layer>
		<layer id="70" name="Constant_32757_compressed" type="Const" version="opset1">
			<data element_type="f16" shape="1, 1, 256" offset="578684" size="512" />
			<output>
				<port id="0" precision="FP16">
					<dim>1</dim>
					<dim>1</dim>
					<dim>256</dim>
				</port>
			</output>
		</layer>
		<layer id="71" name="Constant_32757" type="Convert" version="opset1">
			<data destination_type="f32" />
			<rt_info>
				<attribute name="decompression" version="0" />
			</rt_info>
			<input>
				<port id="0" precision="FP16">
					<dim>1</dim>
					<dim>1</dim>
					<dim>256</dim>
				</port>
			</input>
			<output>
				<port id="1" precision="FP32">
					<dim>1</dim>
					<dim>1</dim>
					<dim>256</dim>
				</port>
			</output>
		</layer>
		<layer id="72" name="/transformer/decoder/layers.0/norm1/Mul" type="Multiply" version="opset1">
			<data auto_broadcast="numpy" />
			<input>
				<port id="0" precision="FP32">
					<dim>100</dim>
					<dim>1</dim>
					<dim>256</dim>
				</port>
				<port id="1" precision="FP32">
					<dim>1</dim>
					<dim>1</dim>
					<dim>256</dim>
				</port>
			</input>
			<output>
				<port id="2" precision="FP32" names="/transformer/decoder/layers.0/norm1/Mul_output_0">
					<dim>100</dim>
					<dim>1</dim>
					<dim>256</dim>
				</port>
			</output>
		</layer>
		<layer id="73" name="Constant_32758_compressed" type="Const" version="opset1">
			<data element_type="f16" shape="1, 1, 256" offset="579196" size="512" />
			<output>
				<port id="0" precision="FP16">
					<dim>1</dim>
					<dim>1</dim>
					<dim>256</dim>
				</port>
			</output>
		</layer>
		<layer id="74" name="Constant_32758" type="Convert" version="opset1">
			<data destination_type="f32" />
			<rt_info>
				<attribute name="decompression" version="0" />
			</rt_info>
			<input>
				<port id="0" precision="FP16">
					<dim>1</dim>
					<dim>1</dim>
					<dim>256</dim>
				</port>
			</input>
			<output>
				<port id="1" precision="FP32">
					<dim>1</dim>
					<dim>1</dim>
					<dim>256</dim>
				</port>
			</output>
		</layer>
		<layer id="75" name="/transformer/decoder/layers.0/norm1/Add_1" type="Add" version="opset1">
			<data auto_broadcast="numpy" />
			<input>
				<port id="0" precision="FP32">
					<dim>100</dim>
					<dim>1</dim>
					<dim>256</dim>
				</port>
				<port id="1" precision="FP32">
					<dim>1</dim>
					<dim>1</dim>
					<dim>256</dim>
				</port>
			</input>
			<output>
				<port id="2" precision="FP32" names="/transformer/decoder/layers.0/norm1/Add_1_output_0">
					<dim>100</dim>
					<dim>1</dim>
					<dim>256</dim>
				</port>
			</output>
		</layer>
		<layer id="76" name="Constant_32759_compressed" type="Const" version="opset1">
			<data element_type="f16" shape="1, 1, 256" offset="579708" size="512" />
			<output>
				<port id="0" precision="FP16">
					<dim>1</dim>
					<dim>1</dim>
					<dim>256</dim>
				</port>
			</output>
		</layer>
		<layer id="77" name="Constant_32759" type="Convert" version="opset1">
			<data destination_type="f32" />
			<rt_info>
				<attribute name="decompression" version="0" />
			</rt_info>
			<input>
				<port id="0" precision="FP16">
					<dim>1</dim>
					<dim>1</dim>
					<dim>256</dim>
				</port>
			</input>
			<output>
				<port id="1" precision="FP32">
					<dim>1</dim>
					<dim>1</dim>
					<dim>256</dim>
				</port>
			</output>
		</layer>
		<layer id="78" name="/transformer/decoder/layers.0/Add_2" type="Add" version="opset1">
			<data auto_broadcast="numpy" />
			<input>
				<port id="0" precision="FP32">
					<dim>100</dim>
					<dim>1</dim>
					<dim>256</dim>
				</port>
				<port id="1" precision="FP32">
					<dim>100</dim>
					<dim>1</dim>
					<dim>256</dim>
				</port>
			</input>
			<output>
				<port id="2" precision="FP32" names="/transformer/decoder/layers.0/Add_2_output_0">
					<dim>100</dim>
					<dim>1</dim>
					<dim>256</dim>
				</port>
			</output>
		</layer>
		<layer id="79" name="Transpose_30742_compressed" type="Const" version="opset1">
			<data element_type="f16" shape="256, 256" offset="580220" size="131072" />
			<output>
				<port id="0" precision="FP16">
					<dim>256</dim>
					<dim>256</dim>
				</port>
			</output>
		</layer>
		<layer id="80" name="Transpose_30742" type="Convert" version="opset1">
			<data destination_type="f32" />
			<rt_info>
				<attribute name="decompression" version="0" />
			</rt_info>
			<input>
				<port id="0" precision="FP16">
					<dim>256</dim>
					<dim>256</dim>
				</port>
			</input>
			<output>
				<port id="1" precision="FP32">
					<dim>256</dim>
					<dim>256</dim>
				</port>
			</output>
		</layer>
		<layer id="81" name="/transformer/decoder/layers.0/multihead_attn/MatMul" type="MatMul" version="opset1">
			<data transpose_a="false" transpose_b="true" />
			<input>
				<port id="0" precision="FP32">
					<dim>100</dim>
					<dim>1</dim>
					<dim>256</dim>
				</port>
				<port id="1" precision="FP32">
					<dim>256</dim>
					<dim>256</dim>
				</port>
			</input>
			<output>
				<port id="2" precision="FP32" names="/transformer/decoder/layers.0/multihead_attn/MatMul_output_0">
					<dim>100</dim>
					<dim>1</dim>
					<dim>256</dim>
				</port>
			</output>
		</layer>
		<layer id="82" name="/transformer/decoder/layers.0/multihead_attn/Add" type="Add" version="opset1">
			<data auto_broadcast="numpy" />
			<input>
				<port id="0" precision="FP32">
					<dim>1</dim>
					<dim>1</dim>
					<dim>256</dim>
				</port>
				<port id="1" precision="FP32">
					<dim>100</dim>
					<dim>1</dim>
					<dim>256</dim>
				</port>
			</input>
			<output>
				<port id="2" precision="FP32" names="/transformer/decoder/layers.0/multihead_attn/Add_output_0">
					<dim>100</dim>
					<dim>1</dim>
					<dim>256</dim>
				</port>
			</output>
		</layer>
		<layer id="83" name="Constant_34853" type="Const" version="opset1">
			<data element_type="i64" shape="3" offset="183818" size="24" />
			<rt_info>
				<attribute name="precise" version="0" />
			</rt_info>
			<output>
				<port id="0" precision="I64">
					<dim>3</dim>
				</port>
			</output>
		</layer>
		<layer id="84" name="/transformer/decoder/layers.0/multihead_attn/Reshape" type="Reshape" version="opset1">
			<data special_zero="true" />
			<input>
				<port id="0" precision="FP32">
					<dim>100</dim>
					<dim>1</dim>
					<dim>256</dim>
				</port>
				<port id="1" precision="I64">
					<dim>3</dim>
				</port>
			</input>
			<output>
				<port id="2" precision="FP32" names="/transformer/decoder/layers.0/multihead_attn/Reshape_output_0">
					<dim>100</dim>
					<dim>8</dim>
					<dim>32</dim>
				</port>
			</output>
		</layer>
		<layer id="85" name="Constant_3330" type="Const" version="opset1">
			<data element_type="i64" shape="3" offset="183842" size="24" />
			<output>
				<port id="0" precision="I64">
					<dim>3</dim>
				</port>
			</output>
		</layer>
		<layer id="86" name="/transformer/decoder/layers.0/multihead_attn/Transpose" type="Transpose" version="opset1">
			<input>
				<port id="0" precision="FP32">
					<dim>100</dim>
					<dim>8</dim>
					<dim>32</dim>
				</port>
				<port id="1" precision="I64">
					<dim>3</dim>
				</port>
			</input>
			<output>
				<port id="2" precision="FP32" names="/transformer/decoder/layers.0/multihead_attn/Transpose_output_0">
					<dim>8</dim>
					<dim>100</dim>
					<dim>32</dim>
				</port>
			</output>
		</layer>
		<layer id="87" name="Constant_32760_compressed" type="Const" version="opset1">
			<data element_type="f16" shape="1, 1, 1" offset="183866" size="2" />
			<output>
				<port id="0" precision="FP16">
					<dim>1</dim>
					<dim>1</dim>
					<dim>1</dim>
				</port>
			</output>
		</layer>
		<layer id="88" name="Constant_32760" type="Convert" version="opset1">
			<data destination_type="f32" />
			<rt_info>
				<attribute name="decompression" version="0" />
			</rt_info>
			<input>
				<port id="0" precision="FP16">
					<dim>1</dim>
					<dim>1</dim>
					<dim>1</dim>
				</port>
			</input>
			<output>
				<port id="1" precision="FP32">
					<dim>1</dim>
					<dim>1</dim>
					<dim>1</dim>
				</port>
			</output>
		</layer>
		<layer id="89" name="/transformer/decoder/layers.0/multihead_attn/Mul_2" type="Multiply" version="opset1">
			<data auto_broadcast="numpy" />
			<input>
				<port id="0" precision="FP32">
					<dim>8</dim>
					<dim>100</dim>
					<dim>32</dim>
				</port>
				<port id="1" precision="FP32">
					<dim>1</dim>
					<dim>1</dim>
					<dim>1</dim>
				</port>
			</input>
			<output>
				<port id="2" precision="FP32" names="/transformer/decoder/layers.0/multihead_attn/Mul_2_output_0">
					<dim>8</dim>
					<dim>100</dim>
					<dim>32</dim>
				</port>
			</output>
		</layer>
		<layer id="90" name="Constant_32833_compressed" type="Const" version="opset1">
			<data element_type="f16" shape="1, 1, 256" offset="711292" size="512" />
			<output>
				<port id="0" precision="FP16">
					<dim>1</dim>
					<dim>1</dim>
					<dim>256</dim>
				</port>
			</output>
		</layer>
		<layer id="91" name="Constant_32833" type="Convert" version="opset1">
			<data destination_type="f32" />
			<rt_info>
				<attribute name="decompression" version="0" />
			</rt_info>
			<input>
				<port id="0" precision="FP16">
					<dim>1</dim>
					<dim>1</dim>
					<dim>256</dim>
				</port>
			</input>
			<output>
				<port id="1" precision="FP32">
					<dim>1</dim>
					<dim>1</dim>
					<dim>256</dim>
				</port>
			</output>
		</layer>
		<layer id="92" name="input/fq_output_0/input_low" type="Const" version="opset1">
			<data element_type="f32" shape="" offset="711804" size="4" />
			<output>
				<port id="0" precision="FP32" />
			</output>
		</layer>
		<layer id="93" name="input/fq_output_0/input_high" type="Const" version="opset1">
			<data element_type="f32" shape="" offset="711808" size="4" />
			<output>
				<port id="0" precision="FP32" />
			</output>
		</layer>
		<layer id="94" name="input/fq_output_0/output_low" type="Const" version="opset1">
			<data element_type="f32" shape="" offset="711804" size="4" />
			<output>
				<port id="0" precision="FP32" />
			</output>
		</layer>
		<layer id="95" name="input/fq_output_0/output_high" type="Const" version="opset1">
			<data element_type="f32" shape="" offset="711808" size="4" />
			<output>
				<port id="0" precision="FP32" />
			</output>
		</layer>
		<layer id="96" name="input/fq_output_0" type="FakeQuantize" version="opset1">
			<data levels="256" auto_broadcast="numpy" />
			<input>
				<port id="0" precision="FP32">
					<dim>1</dim>
					<dim>3</dim>
					<dim>600</dim>
					<dim>800</dim>
				</port>
				<port id="1" precision="FP32" />
				<port id="2" precision="FP32" />
				<port id="3" precision="FP32" />
				<port id="4" precision="FP32" />
			</input>
			<output>
				<port id="5" precision="FP32">
					<dim>1</dim>
					<dim>3</dim>
					<dim>600</dim>
					<dim>800</dim>
				</port>
			</output>
		</layer>
		<layer id="97" name="Range_6493" type="Const" version="opset1">
			<data element_type="i32" shape="3" offset="711812" size="12" />
			<output>
				<port id="0" precision="I32">
					<dim>3</dim>
				</port>
			</output>
		</layer>
		<layer id="98" name="Constant_6494" type="Const" version="opset1">
			<data element_type="i32" shape="1" offset="711824" size="4" />
			<output>
				<port id="0" precision="I32">
					<dim>1</dim>
				</port>
			</output>
		</layer>
		<layer id="99" name="Gather_6495" type="Gather" version="opset8">
			<data batch_dims="0" />
			<rt_info>
				<attribute name="preprocessing" version="0" />
			</rt_info>
			<input>
				<port id="0" precision="FP32">
					<dim>1</dim>
					<dim>3</dim>
					<dim>600</dim>
					<dim>800</dim>
				</port>
				<port id="1" precision="I32">
					<dim>3</dim>
				</port>
				<port id="2" precision="I32">
					<dim>1</dim>
				</port>
			</input>
			<output>
				<port id="3" precision="FP32">
					<dim>1</dim>
					<dim>3</dim>
					<dim>600</dim>
					<dim>800</dim>
				</port>
			</output>
		</layer>
		<layer id="100" name="Constant_31843_compressed" type="Const" version="opset1">
			<data element_type="f16" shape="1, 3, 1, 1" offset="711828" size="6" />
			<rt_info>
				<attribute name="preprocessing" version="0" />
			</rt_info>
			<output>
				<port id="0" precision="FP16">
					<dim>1</dim>
					<dim>3</dim>
					<dim>1</dim>
					<dim>1</dim>
				</port>
			</output>
		</layer>
		<layer id="101" name="Constant_31843" type="Convert" version="opset1">
			<data destination_type="f32" />
			<rt_info>
				<attribute name="decompression" version="0" />
				<attribute name="preprocessing" version="0" />
			</rt_info>
			<input>
				<port id="0" precision="FP16">
					<dim>1</dim>
					<dim>3</dim>
					<dim>1</dim>
					<dim>1</dim>
				</port>
			</input>
			<output>
				<port id="1" precision="FP32">
					<dim>1</dim>
					<dim>3</dim>
					<dim>1</dim>
					<dim>1</dim>
				</port>
			</output>
		</layer>
		<layer id="102" name="Multiply_31853" type="Multiply" version="opset1">
			<data auto_broadcast="numpy" />
			<input>
				<port id="0" precision="FP32">
					<dim>1</dim>
					<dim>3</dim>
					<dim>600</dim>
					<dim>800</dim>
				</port>
				<port id="1" precision="FP32">
					<dim>1</dim>
					<dim>3</dim>
					<dim>1</dim>
					<dim>1</dim>
				</port>
			</input>
			<output>
				<port id="2" precision="FP32">
					<dim>1</dim>
					<dim>3</dim>
					<dim>600</dim>
					<dim>800</dim>
				</port>
			</output>
		</layer>
		<layer id="103" name="Constant_31855_compressed" type="Const" version="opset1">
			<data element_type="f16" shape="1, 3, 1, 1" offset="711834" size="6" />
			<output>
				<port id="0" precision="FP16">
					<dim>1</dim>
					<dim>3</dim>
					<dim>1</dim>
					<dim>1</dim>
				</port>
			</output>
		</layer>
		<layer id="104" name="Constant_31855" type="Convert" version="opset1">
			<data destination_type="f32" />
			<rt_info>
				<attribute name="decompression" version="0" />
			</rt_info>
			<input>
				<port id="0" precision="FP16">
					<dim>1</dim>
					<dim>3</dim>
					<dim>1</dim>
					<dim>1</dim>
				</port>
			</input>
			<output>
				<port id="1" precision="FP32">
					<dim>1</dim>
					<dim>3</dim>
					<dim>1</dim>
					<dim>1</dim>
				</port>
			</output>
		</layer>
		<layer id="105" name="Divide_6499" type="Add" version="opset1">
			<data auto_broadcast="numpy" />
			<input>
				<port id="0" precision="FP32">
					<dim>1</dim>
					<dim>3</dim>
					<dim>600</dim>
					<dim>800</dim>
				</port>
				<port id="1" precision="FP32">
					<dim>1</dim>
					<dim>3</dim>
					<dim>1</dim>
					<dim>1</dim>
				</port>
			</input>
			<output>
				<port id="2" precision="FP32">
					<dim>1</dim>
					<dim>3</dim>
					<dim>600</dim>
					<dim>800</dim>
				</port>
			</output>
		</layer>
		<layer id="106" name="Divide_6499/fq_output_0/input_low" type="Const" version="opset1">
			<data element_type="f32" shape="" offset="711840" size="4" />
			<output>
				<port id="0" precision="FP32" />
			</output>
		</layer>
		<layer id="107" name="Divide_6499/fq_output_0/input_high" type="Const" version="opset1">
			<data element_type="f32" shape="" offset="711844" size="4" />
			<output>
				<port id="0" precision="FP32" />
			</output>
		</layer>
		<layer id="108" name="Divide_6499/fq_output_0/output_low" type="Const" version="opset1">
			<data element_type="f32" shape="" offset="711840" size="4" />
			<output>
				<port id="0" precision="FP32" />
			</output>
		</layer>
		<layer id="109" name="Divide_6499/fq_output_0/output_high" type="Const" version="opset1">
			<data element_type="f32" shape="" offset="711844" size="4" />
			<output>
				<port id="0" precision="FP32" />
			</output>
		</layer>
		<layer id="110" name="Divide_6499/fq_output_0" type="FakeQuantize" version="opset1">
			<data levels="256" auto_broadcast="numpy" />
			<input>
				<port id="0" precision="FP32">
					<dim>1</dim>
					<dim>3</dim>
					<dim>600</dim>
					<dim>800</dim>
				</port>
				<port id="1" precision="FP32" />
				<port id="2" precision="FP32" />
				<port id="3" precision="FP32" />
				<port id="4" precision="FP32" />
			</input>
			<output>
				<port id="5" precision="FP32">
					<dim>1</dim>
					<dim>3</dim>
					<dim>600</dim>
					<dim>800</dim>
				</port>
			</output>
		</layer>
		<layer id="111" name="Constant_427" type="Const" version="opset1">
			<data element_type="i64" shape="" offset="578140" size="8" />
			<output>
				<port id="0" precision="I64" />
			</output>
		</layer>
		<layer id="112" name="Constant_428" type="Const" version="opset1">
			<data element_type="i64" shape="1" offset="711848" size="8" />
			<output>
				<port id="0" precision="I64">
					<dim>1</dim>
				</port>
			</output>
		</layer>
		<layer id="113" name="/Split" type="VariadicSplit" version="opset1">
			<input>
				<port id="0" precision="FP32">
					<dim>1</dim>
					<dim>3</dim>
					<dim>600</dim>
					<dim>800</dim>
				</port>
				<port id="1" precision="I64" />
				<port id="2" precision="I64">
					<dim>1</dim>
				</port>
			</input>
			<output>
				<port id="3" precision="FP32" names="/Split_output_0">
					<dim>1</dim>
					<dim>3</dim>
					<dim>600</dim>
					<dim>800</dim>
				</port>
			</output>
		</layer>
		<layer id="114" name="Constant_430" type="Const" version="opset1">
			<data element_type="i64" shape="1" offset="578140" size="8" />
			<output>
				<port id="0" precision="I64">
					<dim>1</dim>
				</port>
			</output>
		</layer>
		<layer id="115" name="/Squeeze" type="Squeeze" version="opset1">
			<input>
				<port id="0" precision="FP32">
					<dim>1</dim>
					<dim>3</dim>
					<dim>600</dim>
					<dim>800</dim>
				</port>
				<port id="1" precision="I64">
					<dim>1</dim>
				</port>
			</input>
			<output>
				<port id="2" precision="FP32" names="/Pad_output_0,/Squeeze_output_0">
					<dim>3</dim>
					<dim>600</dim>
					<dim>800</dim>
				</port>
			</output>
		</layer>
		<layer id="116" name="Constant_581" type="Const" version="opset1">
			<data element_type="i64" shape="1" offset="578140" size="8" />
			<output>
				<port id="0" precision="I64">
					<dim>1</dim>
				</port>
			</output>
		</layer>
		<layer id="117" name="/Unsqueeze_10" type="Unsqueeze" version="opset1">
			<input>
				<port id="0" precision="FP32">
					<dim>3</dim>
					<dim>600</dim>
					<dim>800</dim>
				</port>
				<port id="1" precision="I64">
					<dim>1</dim>
				</port>
			</input>
			<output>
				<port id="2" precision="FP32" names="/Concat_6_output_0,/Unsqueeze_10_output_0">
					<dim>1</dim>
					<dim>3</dim>
					<dim>600</dim>
					<dim>800</dim>
				</port>
			</output>
		</layer>
		<layer id="118" name="Constant_1491170" type="Const" version="opset1">
			<data element_type="i8" shape="64, 3, 7, 7" offset="711856" size="9408" />
			<output>
				<port id="0" precision="I8">
					<dim>64</dim>
					<dim>3</dim>
					<dim>7</dim>
					<dim>7</dim>
				</port>
			</output>
		</layer>
		<layer id="119" name="Convert_1491171" type="Convert" version="opset1">
			<data destination_type="f32" />
			<input>
				<port id="0" precision="I8">
					<dim>64</dim>
					<dim>3</dim>
					<dim>7</dim>
					<dim>7</dim>
				</port>
			</input>
			<output>
				<port id="1" precision="FP32">
					<dim>64</dim>
					<dim>3</dim>
					<dim>7</dim>
					<dim>7</dim>
				</port>
			</output>
		</layer>
		<layer id="120" name="Constant_1491172" type="Const" version="opset1">
			<data element_type="f32" shape="64, 1, 1, 1" offset="721264" size="256" />
			<output>
				<port id="0" precision="FP32">
					<dim>64</dim>
					<dim>1</dim>
					<dim>1</dim>
					<dim>1</dim>
				</port>
			</output>
		</layer>
		<layer id="121" name="/backbone/backbone.0/body/bn1/Mul/fq_weights_1" type="Multiply" version="opset1">
			<data auto_broadcast="numpy" />
			<input>
				<port id="0" precision="FP32">
					<dim>64</dim>
					<dim>3</dim>
					<dim>7</dim>
					<dim>7</dim>
				</port>
				<port id="1" precision="FP32">
					<dim>64</dim>
					<dim>1</dim>
					<dim>1</dim>
					<dim>1</dim>
				</port>
			</input>
			<output>
				<port id="2" precision="FP32">
					<dim>64</dim>
					<dim>3</dim>
					<dim>7</dim>
					<dim>7</dim>
				</port>
			</output>
		</layer>
		<layer id="122" name="/backbone/backbone.0/body/bn1/Mul" type="Convolution" version="opset1">
			<data strides="2, 2" dilations="1, 1" pads_begin="3, 3" pads_end="3, 3" auto_pad="explicit" />
			<input>
				<port id="0" precision="FP32">
					<dim>1</dim>
					<dim>3</dim>
					<dim>600</dim>
					<dim>800</dim>
				</port>
				<port id="1" precision="FP32">
					<dim>64</dim>
					<dim>3</dim>
					<dim>7</dim>
					<dim>7</dim>
				</port>
			</input>
			<output>
				<port id="2" precision="FP32" names="/backbone/backbone.0/body/bn1/Mul_output_0">
					<dim>1</dim>
					<dim>64</dim>
					<dim>300</dim>
					<dim>400</dim>
				</port>
			</output>
		</layer>
		<layer id="123" name="onnx::Add_4605_compressed" type="Const" version="opset1">
			<data element_type="f16" shape="1, 64, 1, 1" offset="721520" size="128" />
			<output>
				<port id="0" precision="FP16">
					<dim>1</dim>
					<dim>64</dim>
					<dim>1</dim>
					<dim>1</dim>
				</port>
			</output>
		</layer>
		<layer id="124" name="onnx::Add_4605" type="Convert" version="opset1">
			<data destination_type="f32" />
			<rt_info>
				<attribute name="decompression" version="0" />
			</rt_info>
			<input>
				<port id="0" precision="FP16">
					<dim>1</dim>
					<dim>64</dim>
					<dim>1</dim>
					<dim>1</dim>
				</port>
			</input>
			<output>
				<port id="1" precision="FP32" names="onnx::Add_4605">
					<dim>1</dim>
					<dim>64</dim>
					<dim>1</dim>
					<dim>1</dim>
				</port>
			</output>
		</layer>
		<layer id="125" name="/backbone/backbone.0/body/bn1/Add" type="Add" version="opset1">
			<data auto_broadcast="numpy" />
			<input>
				<port id="0" precision="FP32">
					<dim>1</dim>
					<dim>64</dim>
					<dim>300</dim>
					<dim>400</dim>
				</port>
				<port id="1" precision="FP32">
					<dim>1</dim>
					<dim>64</dim>
					<dim>1</dim>
					<dim>1</dim>
				</port>
			</input>
			<output>
				<port id="2" precision="FP32" names="/backbone/backbone.0/body/bn1/Add_output_0">
					<dim>1</dim>
					<dim>64</dim>
					<dim>300</dim>
					<dim>400</dim>
				</port>
			</output>
		</layer>
		<layer id="126" name="/backbone/backbone.0/body/relu/Relu" type="ReLU" version="opset1">
			<input>
				<port id="0" precision="FP32">
					<dim>1</dim>
					<dim>64</dim>
					<dim>300</dim>
					<dim>400</dim>
				</port>
			</input>
			<output>
				<port id="1" precision="FP32" names="/backbone/backbone.0/body/relu/Relu_output_0">
					<dim>1</dim>
					<dim>64</dim>
					<dim>300</dim>
					<dim>400</dim>
				</port>
			</output>
		</layer>
		<layer id="127" name="/backbone/backbone.0/body/relu/Relu/fq_output_0/input_low" type="Const" version="opset1">
			<data element_type="f32" shape="" offset="711804" size="4" />
			<output>
				<port id="0" precision="FP32" />
			</output>
		</layer>
		<layer id="128" name="/backbone/backbone.0/body/relu/Relu/fq_output_0/input_high" type="Const" version="opset1">
			<data element_type="f32" shape="" offset="721648" size="4" />
			<output>
				<port id="0" precision="FP32" />
			</output>
		</layer>
		<layer id="129" name="/backbone/backbone.0/body/relu/Relu/fq_output_0/output_low" type="Const" version="opset1">
			<data element_type="f32" shape="" offset="711804" size="4" />
			<output>
				<port id="0" precision="FP32" />
			</output>
		</layer>
		<layer id="130" name="/backbone/backbone.0/body/relu/Relu/fq_output_0/output_high" type="Const" version="opset1">
			<data element_type="f32" shape="" offset="721648" size="4" />
			<output>
				<port id="0" precision="FP32" />
			</output>
		</layer>
		<layer id="131" name="/backbone/backbone.0/body/relu/Relu/fq_output_0" type="FakeQuantize" version="opset1">
			<data levels="256" auto_broadcast="numpy" />
			<input>
				<port id="0" precision="FP32">
					<dim>1</dim>
					<dim>64</dim>
					<dim>300</dim>
					<dim>400</dim>
				</port>
				<port id="1" precision="FP32" />
				<port id="2" precision="FP32" />
				<port id="3" precision="FP32" />
				<port id="4" precision="FP32" />
			</input>
			<output>
				<port id="5" precision="FP32">
					<dim>1</dim>
					<dim>64</dim>
					<dim>300</dim>
					<dim>400</dim>
				</port>
			</output>
		</layer>
		<layer id="132" name="/backbone/backbone.0/body/maxpool/MaxPool" type="MaxPool" version="opset8">
			<data strides="2, 2" dilations="1, 1" pads_begin="1, 1" pads_end="1, 1" kernel="3, 3" rounding_type="floor" auto_pad="explicit" index_element_type="i64" axis="0" />
			<input>
				<port id="0" precision="FP32">
					<dim>1</dim>
					<dim>64</dim>
					<dim>300</dim>
					<dim>400</dim>
				</port>
			</input>
			<output>
				<port id="1" precision="FP32" names="/backbone/backbone.0/body/maxpool/MaxPool_output_0">
					<dim>1</dim>
					<dim>64</dim>
					<dim>150</dim>
					<dim>200</dim>
				</port>
				<port id="2" precision="I64">
					<dim>1</dim>
					<dim>64</dim>
					<dim>150</dim>
					<dim>200</dim>
				</port>
			</output>
		</layer>
		<layer id="133" name="Constant_1491175" type="Const" version="opset1">
			<data element_type="i8" shape="64, 64, 1, 1" offset="721652" size="4096" />
			<output>
				<port id="0" precision="I8">
					<dim>64</dim>
					<dim>64</dim>
					<dim>1</dim>
					<dim>1</dim>
				</port>
			</output>
		</layer>
		<layer id="134" name="Convert_1491176" type="Convert" version="opset1">
			<data destination_type="f32" />
			<input>
				<port id="0" precision="I8">
					<dim>64</dim>
					<dim>64</dim>
					<dim>1</dim>
					<dim>1</dim>
				</port>
			</input>
			<output>
				<port id="1" precision="FP32">
					<dim>64</dim>
					<dim>64</dim>
					<dim>1</dim>
					<dim>1</dim>
				</port>
			</output>
		</layer>
		<layer id="135" name="Constant_1491177" type="Const" version="opset1">
			<data element_type="f32" shape="64, 1, 1, 1" offset="725748" size="256" />
			<output>
				<port id="0" precision="FP32">
					<dim>64</dim>
					<dim>1</dim>
					<dim>1</dim>
					<dim>1</dim>
				</port>
			</output>
		</layer>
		<layer id="136" name="/backbone/backbone.0/body/layer1/layer1.0/bn1/Mul/fq_weights_1" type="Multiply" version="opset1">
			<data auto_broadcast="numpy" />
			<input>
				<port id="0" precision="FP32">
					<dim>64</dim>
					<dim>64</dim>
					<dim>1</dim>
					<dim>1</dim>
				</port>
				<port id="1" precision="FP32">
					<dim>64</dim>
					<dim>1</dim>
					<dim>1</dim>
					<dim>1</dim>
				</port>
			</input>
			<output>
				<port id="2" precision="FP32">
					<dim>64</dim>
					<dim>64</dim>
					<dim>1</dim>
					<dim>1</dim>
				</port>
			</output>
		</layer>
		<layer id="137" name="/backbone/backbone.0/body/layer1/layer1.0/bn1/Mul" type="Convolution" version="opset1">
			<data strides="1, 1" dilations="1, 1" pads_begin="0, 0" pads_end="0, 0" auto_pad="explicit" />
			<input>
				<port id="0" precision="FP32">
					<dim>1</dim>
					<dim>64</dim>
					<dim>150</dim>
					<dim>200</dim>
				</port>
				<port id="1" precision="FP32">
					<dim>64</dim>
					<dim>64</dim>
					<dim>1</dim>
					<dim>1</dim>
				</port>
			</input>
			<output>
				<port id="2" precision="FP32" names="/backbone/backbone.0/body/layer1/layer1.0/bn1/Mul_output_0">
					<dim>1</dim>
					<dim>64</dim>
					<dim>150</dim>
					<dim>200</dim>
				</port>
			</output>
		</layer>
		<layer id="138" name="onnx::Add_4615_compressed" type="Const" version="opset1">
			<data element_type="f16" shape="1, 64, 1, 1" offset="726004" size="128" />
			<output>
				<port id="0" precision="FP16">
					<dim>1</dim>
					<dim>64</dim>
					<dim>1</dim>
					<dim>1</dim>
				</port>
			</output>
		</layer>
		<layer id="139" name="onnx::Add_4615" type="Convert" version="opset1">
			<data destination_type="f32" />
			<rt_info>
				<attribute name="decompression" version="0" />
			</rt_info>
			<input>
				<port id="0" precision="FP16">
					<dim>1</dim>
					<dim>64</dim>
					<dim>1</dim>
					<dim>1</dim>
				</port>
			</input>
			<output>
				<port id="1" precision="FP32" names="onnx::Add_4615">
					<dim>1</dim>
					<dim>64</dim>
					<dim>1</dim>
					<dim>1</dim>
				</port>
			</output>
		</layer>
		<layer id="140" name="/backbone/backbone.0/body/layer1/layer1.0/bn1/Add" type="Add" version="opset1">
			<data auto_broadcast="numpy" />
			<input>
				<port id="0" precision="FP32">
					<dim>1</dim>
					<dim>64</dim>
					<dim>150</dim>
					<dim>200</dim>
				</port>
				<port id="1" precision="FP32">
					<dim>1</dim>
					<dim>64</dim>
					<dim>1</dim>
					<dim>1</dim>
				</port>
			</input>
			<output>
				<port id="2" precision="FP32" names="/backbone/backbone.0/body/layer1/layer1.0/bn1/Add_output_0">
					<dim>1</dim>
					<dim>64</dim>
					<dim>150</dim>
					<dim>200</dim>
				</port>
			</output>
		</layer>
		<layer id="141" name="/backbone/backbone.0/body/layer1/layer1.0/relu/Relu" type="ReLU" version="opset1">
			<input>
				<port id="0" precision="FP32">
					<dim>1</dim>
					<dim>64</dim>
					<dim>150</dim>
					<dim>200</dim>
				</port>
			</input>
			<output>
				<port id="1" precision="FP32" names="/backbone/backbone.0/body/layer1/layer1.0/relu/Relu_output_0">
					<dim>1</dim>
					<dim>64</dim>
					<dim>150</dim>
					<dim>200</dim>
				</port>
			</output>
		</layer>
		<layer id="142" name="/backbone/backbone.0/body/layer1/layer1.0/relu/Relu/fq_output_0/input_low" type="Const" version="opset1">
			<data element_type="f32" shape="" offset="711804" size="4" />
			<output>
				<port id="0" precision="FP32" />
			</output>
		</layer>
		<layer id="143" name="/backbone/backbone.0/body/layer1/layer1.0/relu/Relu/fq_output_0/input_high" type="Const" version="opset1">
			<data element_type="f32" shape="" offset="726132" size="4" />
			<output>
				<port id="0" precision="FP32" />
			</output>
		</layer>
		<layer id="144" name="/backbone/backbone.0/body/layer1/layer1.0/relu/Relu/fq_output_0/output_low" type="Const" version="opset1">
			<data element_type="f32" shape="" offset="711804" size="4" />
			<output>
				<port id="0" precision="FP32" />
			</output>
		</layer>
		<layer id="145" name="/backbone/backbone.0/body/layer1/layer1.0/relu/Relu/fq_output_0/output_high" type="Const" version="opset1">
			<data element_type="f32" shape="" offset="726132" size="4" />
			<output>
				<port id="0" precision="FP32" />
			</output>
		</layer>
		<layer id="146" name="/backbone/backbone.0/body/layer1/layer1.0/relu/Relu/fq_output_0" type="FakeQuantize" version="opset1">
			<data levels="256" auto_broadcast="numpy" />
			<input>
				<port id="0" precision="FP32">
					<dim>1</dim>
					<dim>64</dim>
					<dim>150</dim>
					<dim>200</dim>
				</port>
				<port id="1" precision="FP32" />
				<port id="2" precision="FP32" />
				<port id="3" precision="FP32" />
				<port id="4" precision="FP32" />
			</input>
			<output>
				<port id="5" precision="FP32">
					<dim>1</dim>
					<dim>64</dim>
					<dim>150</dim>
					<dim>200</dim>
				</port>
			</output>
		</layer>
		<layer id="147" name="Constant_1491180" type="Const" version="opset1">
			<data element_type="i8" shape="64, 64, 3, 3" offset="726136" size="36864" />
			<output>
				<port id="0" precision="I8">
					<dim>64</dim>
					<dim>64</dim>
					<dim>3</dim>
					<dim>3</dim>
				</port>
			</output>
		</layer>
		<layer id="148" name="Convert_1491181" type="Convert" version="opset1">
			<data destination_type="f32" />
			<input>
				<port id="0" precision="I8">
					<dim>64</dim>
					<dim>64</dim>
					<dim>3</dim>
					<dim>3</dim>
				</port>
			</input>
			<output>
				<port id="1" precision="FP32">
					<dim>64</dim>
					<dim>64</dim>
					<dim>3</dim>
					<dim>3</dim>
				</port>
			</output>
		</layer>
		<layer id="149" name="Constant_1491182" type="Const" version="opset1">
			<data element_type="f32" shape="64, 1, 1, 1" offset="763000" size="256" />
			<output>
				<port id="0" precision="FP32">
					<dim>64</dim>
					<dim>1</dim>
					<dim>1</dim>
					<dim>1</dim>
				</port>
			</output>
		</layer>
		<layer id="150" name="/backbone/backbone.0/body/layer1/layer1.0/bn2/Mul/fq_weights_1" type="Multiply" version="opset1">
			<data auto_broadcast="numpy" />
			<input>
				<port id="0" precision="FP32">
					<dim>64</dim>
					<dim>64</dim>
					<dim>3</dim>
					<dim>3</dim>
				</port>
				<port id="1" precision="FP32">
					<dim>64</dim>
					<dim>1</dim>
					<dim>1</dim>
					<dim>1</dim>
				</port>
			</input>
			<output>
				<port id="2" precision="FP32">
					<dim>64</dim>
					<dim>64</dim>
					<dim>3</dim>
					<dim>3</dim>
				</port>
			</output>
		</layer>
		<layer id="151" name="/backbone/backbone.0/body/layer1/layer1.0/bn2/Mul" type="Convolution" version="opset1">
			<data strides="1, 1" dilations="1, 1" pads_begin="1, 1" pads_end="1, 1" auto_pad="explicit" />
			<input>
				<port id="0" precision="FP32">
					<dim>1</dim>
					<dim>64</dim>
					<dim>150</dim>
					<dim>200</dim>
				</port>
				<port id="1" precision="FP32">
					<dim>64</dim>
					<dim>64</dim>
					<dim>3</dim>
					<dim>3</dim>
				</port>
			</input>
			<output>
				<port id="2" precision="FP32" names="/backbone/backbone.0/body/layer1/layer1.0/bn2/Mul_output_0">
					<dim>1</dim>
					<dim>64</dim>
					<dim>150</dim>
					<dim>200</dim>
				</port>
			</output>
		</layer>
		<layer id="152" name="onnx::Add_4625_compressed" type="Const" version="opset1">
			<data element_type="f16" shape="1, 64, 1, 1" offset="763256" size="128" />
			<output>
				<port id="0" precision="FP16">
					<dim>1</dim>
					<dim>64</dim>
					<dim>1</dim>
					<dim>1</dim>
				</port>
			</output>
		</layer>
		<layer id="153" name="onnx::Add_4625" type="Convert" version="opset1">
			<data destination_type="f32" />
			<rt_info>
				<attribute name="decompression" version="0" />
			</rt_info>
			<input>
				<port id="0" precision="FP16">
					<dim>1</dim>
					<dim>64</dim>
					<dim>1</dim>
					<dim>1</dim>
				</port>
			</input>
			<output>
				<port id="1" precision="FP32" names="onnx::Add_4625">
					<dim>1</dim>
					<dim>64</dim>
					<dim>1</dim>
					<dim>1</dim>
				</port>
			</output>
		</layer>
		<layer id="154" name="/backbone/backbone.0/body/layer1/layer1.0/bn2/Add" type="Add" version="opset1">
			<data auto_broadcast="numpy" />
			<input>
				<port id="0" precision="FP32">
					<dim>1</dim>
					<dim>64</dim>
					<dim>150</dim>
					<dim>200</dim>
				</port>
				<port id="1" precision="FP32">
					<dim>1</dim>
					<dim>64</dim>
					<dim>1</dim>
					<dim>1</dim>
				</port>
			</input>
			<output>
				<port id="2" precision="FP32" names="/backbone/backbone.0/body/layer1/layer1.0/bn2/Add_output_0">
					<dim>1</dim>
					<dim>64</dim>
					<dim>150</dim>
					<dim>200</dim>
				</port>
			</output>
		</layer>
		<layer id="155" name="/backbone/backbone.0/body/layer1/layer1.0/relu_1/Relu" type="ReLU" version="opset1">
			<input>
				<port id="0" precision="FP32">
					<dim>1</dim>
					<dim>64</dim>
					<dim>150</dim>
					<dim>200</dim>
				</port>
			</input>
			<output>
				<port id="1" precision="FP32" names="/backbone/backbone.0/body/layer1/layer1.0/relu_1/Relu_output_0">
					<dim>1</dim>
					<dim>64</dim>
					<dim>150</dim>
					<dim>200</dim>
				</port>
			</output>
		</layer>
		<layer id="156" name="/backbone/backbone.0/body/layer1/layer1.0/relu_1/Relu/fq_output_0/input_low" type="Const" version="opset1">
			<data element_type="f32" shape="" offset="711804" size="4" />
			<output>
				<port id="0" precision="FP32" />
			</output>
		</layer>
		<layer id="157" name="/backbone/backbone.0/body/layer1/layer1.0/relu_1/Relu/fq_output_0/input_high" type="Const" version="opset1">
			<data element_type="f32" shape="" offset="763384" size="4" />
			<output>
				<port id="0" precision="FP32" />
			</output>
		</layer>
		<layer id="158" name="/backbone/backbone.0/body/layer1/layer1.0/relu_1/Relu/fq_output_0/output_low" type="Const" version="opset1">
			<data element_type="f32" shape="" offset="711804" size="4" />
			<output>
				<port id="0" precision="FP32" />
			</output>
		</layer>
		<layer id="159" name="/backbone/backbone.0/body/layer1/layer1.0/relu_1/Relu/fq_output_0/output_high" type="Const" version="opset1">
			<data element_type="f32" shape="" offset="763384" size="4" />
			<output>
				<port id="0" precision="FP32" />
			</output>
		</layer>
		<layer id="160" name="/backbone/backbone.0/body/layer1/layer1.0/relu_1/Relu/fq_output_0" type="FakeQuantize" version="opset1">
			<data levels="256" auto_broadcast="numpy" />
			<input>
				<port id="0" precision="FP32">
					<dim>1</dim>
					<dim>64</dim>
					<dim>150</dim>
					<dim>200</dim>
				</port>
				<port id="1" precision="FP32" />
				<port id="2" precision="FP32" />
				<port id="3" precision="FP32" />
				<port id="4" precision="FP32" />
			</input>
			<output>
				<port id="5" precision="FP32">
					<dim>1</dim>
					<dim>64</dim>
					<dim>150</dim>
					<dim>200</dim>
				</port>
			</output>
		</layer>
		<layer id="161" name="Constant_1491185" type="Const" version="opset1">
			<data element_type="i8" shape="256, 64, 1, 1" offset="763388" size="16384" />
			<output>
				<port id="0" precision="I8">
					<dim>256</dim>
					<dim>64</dim>
					<dim>1</dim>
					<dim>1</dim>
				</port>
			</output>
		</layer>
		<layer id="162" name="Convert_1491186" type="Convert" version="opset1">
			<data destination_type="f32" />
			<input>
				<port id="0" precision="I8">
					<dim>256</dim>
					<dim>64</dim>
					<dim>1</dim>
					<dim>1</dim>
				</port>
			</input>
			<output>
				<port id="1" precision="FP32">
					<dim>256</dim>
					<dim>64</dim>
					<dim>1</dim>
					<dim>1</dim>
				</port>
			</output>
		</layer>
		<layer id="163" name="Constant_1491187" type="Const" version="opset1">
			<data element_type="f32" shape="256, 1, 1, 1" offset="779772" size="1024" />
			<output>
				<port id="0" precision="FP32">
					<dim>256</dim>
					<dim>1</dim>
					<dim>1</dim>
					<dim>1</dim>
				</port>
			</output>
		</layer>
		<layer id="164" name="/backbone/backbone.0/body/layer1/layer1.0/bn3/Mul/fq_weights_1" type="Multiply" version="opset1">
			<data auto_broadcast="numpy" />
			<input>
				<port id="0" precision="FP32">
					<dim>256</dim>
					<dim>64</dim>
					<dim>1</dim>
					<dim>1</dim>
				</port>
				<port id="1" precision="FP32">
					<dim>256</dim>
					<dim>1</dim>
					<dim>1</dim>
					<dim>1</dim>
				</port>
			</input>
			<output>
				<port id="2" precision="FP32">
					<dim>256</dim>
					<dim>64</dim>
					<dim>1</dim>
					<dim>1</dim>
				</port>
			</output>
		</layer>
		<layer id="165" name="/backbone/backbone.0/body/layer1/layer1.0/bn3/Mul" type="Convolution" version="opset1">
			<data strides="1, 1" dilations="1, 1" pads_begin="0, 0" pads_end="0, 0" auto_pad="explicit" />
			<input>
				<port id="0" precision="FP32">
					<dim>1</dim>
					<dim>64</dim>
					<dim>150</dim>
					<dim>200</dim>
				</port>
				<port id="1" precision="FP32">
					<dim>256</dim>
					<dim>64</dim>
					<dim>1</dim>
					<dim>1</dim>
				</port>
			</input>
			<output>
				<port id="2" precision="FP32" names="/backbone/backbone.0/body/layer1/layer1.0/bn3/Mul_output_0">
					<dim>1</dim>
					<dim>256</dim>
					<dim>150</dim>
					<dim>200</dim>
				</port>
			</output>
		</layer>
		<layer id="166" name="onnx::Add_4635_compressed" type="Const" version="opset1">
			<data element_type="f16" shape="1, 256, 1, 1" offset="780796" size="512" />
			<output>
				<port id="0" precision="FP16">
					<dim>1</dim>
					<dim>256</dim>
					<dim>1</dim>
					<dim>1</dim>
				</port>
			</output>
		</layer>
		<layer id="167" name="onnx::Add_4635" type="Convert" version="opset1">
			<data destination_type="f32" />
			<rt_info>
				<attribute name="decompression" version="0" />
			</rt_info>
			<input>
				<port id="0" precision="FP16">
					<dim>1</dim>
					<dim>256</dim>
					<dim>1</dim>
					<dim>1</dim>
				</port>
			</input>
			<output>
				<port id="1" precision="FP32" names="onnx::Add_4635">
					<dim>1</dim>
					<dim>256</dim>
					<dim>1</dim>
					<dim>1</dim>
				</port>
			</output>
		</layer>
		<layer id="168" name="/backbone/backbone.0/body/layer1/layer1.0/bn3/Add" type="Add" version="opset1">
			<data auto_broadcast="numpy" />
			<input>
				<port id="0" precision="FP32">
					<dim>1</dim>
					<dim>256</dim>
					<dim>150</dim>
					<dim>200</dim>
				</port>
				<port id="1" precision="FP32">
					<dim>1</dim>
					<dim>256</dim>
					<dim>1</dim>
					<dim>1</dim>
				</port>
			</input>
			<output>
				<port id="2" precision="FP32" names="/backbone/backbone.0/body/layer1/layer1.0/bn3/Add_output_0">
					<dim>1</dim>
					<dim>256</dim>
					<dim>150</dim>
					<dim>200</dim>
				</port>
			</output>
		</layer>
		<layer id="169" name="/backbone/backbone.0/body/layer1/layer1.0/bn3/Add/fq_output_0/input_low" type="Const" version="opset1">
			<data element_type="f32" shape="" offset="781308" size="4" />
			<output>
				<port id="0" precision="FP32" />
			</output>
		</layer>
		<layer id="170" name="/backbone/backbone.0/body/layer1/layer1.0/bn3/Add/fq_output_0/input_high" type="Const" version="opset1">
			<data element_type="f32" shape="" offset="781312" size="4" />
			<output>
				<port id="0" precision="FP32" />
			</output>
		</layer>
		<layer id="171" name="/backbone/backbone.0/body/layer1/layer1.0/bn3/Add/fq_output_0/output_low" type="Const" version="opset1">
			<data element_type="f32" shape="" offset="781308" size="4" />
			<output>
				<port id="0" precision="FP32" />
			</output>
		</layer>
		<layer id="172" name="/backbone/backbone.0/body/layer1/layer1.0/bn3/Add/fq_output_0/output_high" type="Const" version="opset1">
			<data element_type="f32" shape="" offset="781312" size="4" />
			<output>
				<port id="0" precision="FP32" />
			</output>
		</layer>
		<layer id="173" name="/backbone/backbone.0/body/layer1/layer1.0/bn3/Add/fq_output_0" type="FakeQuantize" version="opset1">
			<data levels="256" auto_broadcast="numpy" />
			<input>
				<port id="0" precision="FP32">
					<dim>1</dim>
					<dim>256</dim>
					<dim>150</dim>
					<dim>200</dim>
				</port>
				<port id="1" precision="FP32" />
				<port id="2" precision="FP32" />
				<port id="3" precision="FP32" />
				<port id="4" precision="FP32" />
			</input>
			<output>
				<port id="5" precision="FP32">
					<dim>1</dim>
					<dim>256</dim>
					<dim>150</dim>
					<dim>200</dim>
				</port>
			</output>
		</layer>
		<layer id="174" name="Constant_1491190" type="Const" version="opset1">
			<data element_type="i8" shape="256, 64, 1, 1" offset="781316" size="16384" />
			<output>
				<port id="0" precision="I8">
					<dim>256</dim>
					<dim>64</dim>
					<dim>1</dim>
					<dim>1</dim>
				</port>
			</output>
		</layer>
		<layer id="175" name="Convert_1491191" type="Convert" version="opset1">
			<data destination_type="f32" />
			<input>
				<port id="0" precision="I8">
					<dim>256</dim>
					<dim>64</dim>
					<dim>1</dim>
					<dim>1</dim>
				</port>
			</input>
			<output>
				<port id="1" precision="FP32">
					<dim>256</dim>
					<dim>64</dim>
					<dim>1</dim>
					<dim>1</dim>
				</port>
			</output>
		</layer>
		<layer id="176" name="Constant_1491192" type="Const" version="opset1">
			<data element_type="f32" shape="256, 1, 1, 1" offset="797700" size="1024" />
			<output>
				<port id="0" precision="FP32">
					<dim>256</dim>
					<dim>1</dim>
					<dim>1</dim>
					<dim>1</dim>
				</port>
			</output>
		</layer>
		<layer id="177" name="/backbone/backbone.0/body/layer1/layer1.0/downsample/downsample.1/Mul/fq_weights_1" type="Multiply" version="opset1">
			<data auto_broadcast="numpy" />
			<input>
				<port id="0" precision="FP32">
					<dim>256</dim>
					<dim>64</dim>
					<dim>1</dim>
					<dim>1</dim>
				</port>
				<port id="1" precision="FP32">
					<dim>256</dim>
					<dim>1</dim>
					<dim>1</dim>
					<dim>1</dim>
				</port>
			</input>
			<output>
				<port id="2" precision="FP32">
					<dim>256</dim>
					<dim>64</dim>
					<dim>1</dim>
					<dim>1</dim>
				</port>
			</output>
		</layer>
		<layer id="178" name="/backbone/backbone.0/body/layer1/layer1.0/downsample/downsample.1/Mul" type="Convolution" version="opset1">
			<data strides="1, 1" dilations="1, 1" pads_begin="0, 0" pads_end="0, 0" auto_pad="explicit" />
			<input>
				<port id="0" precision="FP32">
					<dim>1</dim>
					<dim>64</dim>
					<dim>150</dim>
					<dim>200</dim>
				</port>
				<port id="1" precision="FP32">
					<dim>256</dim>
					<dim>64</dim>
					<dim>1</dim>
					<dim>1</dim>
				</port>
			</input>
			<output>
				<port id="2" precision="FP32" names="/backbone/backbone.0/body/layer1/layer1.0/downsample/downsample.1/Mul_output_0">
					<dim>1</dim>
					<dim>256</dim>
					<dim>150</dim>
					<dim>200</dim>
				</port>
			</output>
		</layer>
		<layer id="179" name="onnx::Add_4645_compressed" type="Const" version="opset1">
			<data element_type="f16" shape="1, 256, 1, 1" offset="798724" size="512" />
			<output>
				<port id="0" precision="FP16">
					<dim>1</dim>
					<dim>256</dim>
					<dim>1</dim>
					<dim>1</dim>
				</port>
			</output>
		</layer>
		<layer id="180" name="onnx::Add_4645" type="Convert" version="opset1">
			<data destination_type="f32" />
			<rt_info>
				<attribute name="decompression" version="0" />
			</rt_info>
			<input>
				<port id="0" precision="FP16">
					<dim>1</dim>
					<dim>256</dim>
					<dim>1</dim>
					<dim>1</dim>
				</port>
			</input>
			<output>
				<port id="1" precision="FP32" names="onnx::Add_4645">
					<dim>1</dim>
					<dim>256</dim>
					<dim>1</dim>
					<dim>1</dim>
				</port>
			</output>
		</layer>
		<layer id="181" name="/backbone/backbone.0/body/layer1/layer1.0/downsample/downsample.1/Add" type="Add" version="opset1">
			<data auto_broadcast="numpy" />
			<input>
				<port id="0" precision="FP32">
					<dim>1</dim>
					<dim>256</dim>
					<dim>150</dim>
					<dim>200</dim>
				</port>
				<port id="1" precision="FP32">
					<dim>1</dim>
					<dim>256</dim>
					<dim>1</dim>
					<dim>1</dim>
				</port>
			</input>
			<output>
				<port id="2" precision="FP32" names="/backbone/backbone.0/body/layer1/layer1.0/downsample/downsample.1/Add_output_0">
					<dim>1</dim>
					<dim>256</dim>
					<dim>150</dim>
					<dim>200</dim>
				</port>
			</output>
		</layer>
		<layer id="182" name="/backbone/backbone.0/body/layer1/layer1.0/downsample/downsample.1/Add/fq_output_0/input_low" type="Const" version="opset1">
			<data element_type="f32" shape="" offset="799236" size="4" />
			<output>
				<port id="0" precision="FP32" />
			</output>
		</layer>
		<layer id="183" name="/backbone/backbone.0/body/layer1/layer1.0/downsample/downsample.1/Add/fq_output_0/input_high" type="Const" version="opset1">
			<data element_type="f32" shape="" offset="799240" size="4" />
			<output>
				<port id="0" precision="FP32" />
			</output>
		</layer>
		<layer id="184" name="/backbone/backbone.0/body/layer1/layer1.0/downsample/downsample.1/Add/fq_output_0/output_low" type="Const" version="opset1">
			<data element_type="f32" shape="" offset="799236" size="4" />
			<output>
				<port id="0" precision="FP32" />
			</output>
		</layer>
		<layer id="185" name="/backbone/backbone.0/body/layer1/layer1.0/downsample/downsample.1/Add/fq_output_0/output_high" type="Const" version="opset1">
			<data element_type="f32" shape="" offset="799240" size="4" />
			<output>
				<port id="0" precision="FP32" />
			</output>
		</layer>
		<layer id="186" name="/backbone/backbone.0/body/layer1/layer1.0/downsample/downsample.1/Add/fq_output_0" type="FakeQuantize" version="opset1">
			<data levels="256" auto_broadcast="numpy" />
			<input>
				<port id="0" precision="FP32">
					<dim>1</dim>
					<dim>256</dim>
					<dim>150</dim>
					<dim>200</dim>
				</port>
				<port id="1" precision="FP32" />
				<port id="2" precision="FP32" />
				<port id="3" precision="FP32" />
				<port id="4" precision="FP32" />
			</input>
			<output>
				<port id="5" precision="FP32">
					<dim>1</dim>
					<dim>256</dim>
					<dim>150</dim>
					<dim>200</dim>
				</port>
			</output>
		</layer>
		<layer id="187" name="/backbone/backbone.0/body/layer1/layer1.0/Add" type="Add" version="opset1">
			<data auto_broadcast="numpy" />
			<input>
				<port id="0" precision="FP32">
					<dim>1</dim>
					<dim>256</dim>
					<dim>150</dim>
					<dim>200</dim>
				</port>
				<port id="1" precision="FP32">
					<dim>1</dim>
					<dim>256</dim>
					<dim>150</dim>
					<dim>200</dim>
				</port>
			</input>
			<output>
				<port id="2" precision="FP32" names="/backbone/backbone.0/body/layer1/layer1.0/Add_output_0">
					<dim>1</dim>
					<dim>256</dim>
					<dim>150</dim>
					<dim>200</dim>
				</port>
			</output>
		</layer>
		<layer id="188" name="/backbone/backbone.0/body/layer1/layer1.0/relu_2/Relu" type="ReLU" version="opset1">
			<input>
				<port id="0" precision="FP32">
					<dim>1</dim>
					<dim>256</dim>
					<dim>150</dim>
					<dim>200</dim>
				</port>
			</input>
			<output>
				<port id="1" precision="FP32" names="/backbone/backbone.0/body/layer1/layer1.0/relu_2/Relu_output_0">
					<dim>1</dim>
					<dim>256</dim>
					<dim>150</dim>
					<dim>200</dim>
				</port>
			</output>
		</layer>
		<layer id="189" name="/backbone/backbone.0/body/layer1/layer1.0/relu_2/Relu/fq_output_0/input_low" type="Const" version="opset1">
			<data element_type="f32" shape="" offset="711804" size="4" />
			<output>
				<port id="0" precision="FP32" />
			</output>
		</layer>
		<layer id="190" name="/backbone/backbone.0/body/layer1/layer1.0/relu_2/Relu/fq_output_0/input_high" type="Const" version="opset1">
			<data element_type="f32" shape="" offset="799244" size="4" />
			<output>
				<port id="0" precision="FP32" />
			</output>
		</layer>
		<layer id="191" name="/backbone/backbone.0/body/layer1/layer1.0/relu_2/Relu/fq_output_0/output_low" type="Const" version="opset1">
			<data element_type="f32" shape="" offset="711804" size="4" />
			<output>
				<port id="0" precision="FP32" />
			</output>
		</layer>
		<layer id="192" name="/backbone/backbone.0/body/layer1/layer1.0/relu_2/Relu/fq_output_0/output_high" type="Const" version="opset1">
			<data element_type="f32" shape="" offset="799244" size="4" />
			<output>
				<port id="0" precision="FP32" />
			</output>
		</layer>
		<layer id="193" name="/backbone/backbone.0/body/layer1/layer1.0/relu_2/Relu/fq_output_0" type="FakeQuantize" version="opset1">
			<data levels="256" auto_broadcast="numpy" />
			<input>
				<port id="0" precision="FP32">
					<dim>1</dim>
					<dim>256</dim>
					<dim>150</dim>
					<dim>200</dim>
				</port>
				<port id="1" precision="FP32" />
				<port id="2" precision="FP32" />
				<port id="3" precision="FP32" />
				<port id="4" precision="FP32" />
			</input>
			<output>
				<port id="5" precision="FP32">
					<dim>1</dim>
					<dim>256</dim>
					<dim>150</dim>
					<dim>200</dim>
				</port>
			</output>
		</layer>
		<layer id="194" name="Constant_1491195" type="Const" version="opset1">
			<data element_type="i8" shape="64, 256, 1, 1" offset="799248" size="16384" />
			<output>
				<port id="0" precision="I8">
					<dim>64</dim>
					<dim>256</dim>
					<dim>1</dim>
					<dim>1</dim>
				</port>
			</output>
		</layer>
		<layer id="195" name="Convert_1491196" type="Convert" version="opset1">
			<data destination_type="f32" />
			<input>
				<port id="0" precision="I8">
					<dim>64</dim>
					<dim>256</dim>
					<dim>1</dim>
					<dim>1</dim>
				</port>
			</input>
			<output>
				<port id="1" precision="FP32">
					<dim>64</dim>
					<dim>256</dim>
					<dim>1</dim>
					<dim>1</dim>
				</port>
			</output>
		</layer>
		<layer id="196" name="Constant_1491197" type="Const" version="opset1">
			<data element_type="f32" shape="64, 1, 1, 1" offset="815632" size="256" />
			<output>
				<port id="0" precision="FP32">
					<dim>64</dim>
					<dim>1</dim>
					<dim>1</dim>
					<dim>1</dim>
				</port>
			</output>
		</layer>
		<layer id="197" name="/backbone/backbone.0/body/layer1/layer1.1/bn1/Mul/fq_weights_1" type="Multiply" version="opset1">
			<data auto_broadcast="numpy" />
			<input>
				<port id="0" precision="FP32">
					<dim>64</dim>
					<dim>256</dim>
					<dim>1</dim>
					<dim>1</dim>
				</port>
				<port id="1" precision="FP32">
					<dim>64</dim>
					<dim>1</dim>
					<dim>1</dim>
					<dim>1</dim>
				</port>
			</input>
			<output>
				<port id="2" precision="FP32">
					<dim>64</dim>
					<dim>256</dim>
					<dim>1</dim>
					<dim>1</dim>
				</port>
			</output>
		</layer>
		<layer id="198" name="/backbone/backbone.0/body/layer1/layer1.1/bn1/Mul" type="Convolution" version="opset1">
			<data strides="1, 1" dilations="1, 1" pads_begin="0, 0" pads_end="0, 0" auto_pad="explicit" />
			<input>
				<port id="0" precision="FP32">
					<dim>1</dim>
					<dim>256</dim>
					<dim>150</dim>
					<dim>200</dim>
				</port>
				<port id="1" precision="FP32">
					<dim>64</dim>
					<dim>256</dim>
					<dim>1</dim>
					<dim>1</dim>
				</port>
			</input>
			<output>
				<port id="2" precision="FP32" names="/backbone/backbone.0/body/layer1/layer1.1/bn1/Mul_output_0">
					<dim>1</dim>
					<dim>64</dim>
					<dim>150</dim>
					<dim>200</dim>
				</port>
			</output>
		</layer>
		<layer id="199" name="onnx::Add_4655_compressed" type="Const" version="opset1">
			<data element_type="f16" shape="1, 64, 1, 1" offset="815888" size="128" />
			<output>
				<port id="0" precision="FP16">
					<dim>1</dim>
					<dim>64</dim>
					<dim>1</dim>
					<dim>1</dim>
				</port>
			</output>
		</layer>
		<layer id="200" name="onnx::Add_4655" type="Convert" version="opset1">
			<data destination_type="f32" />
			<rt_info>
				<attribute name="decompression" version="0" />
			</rt_info>
			<input>
				<port id="0" precision="FP16">
					<dim>1</dim>
					<dim>64</dim>
					<dim>1</dim>
					<dim>1</dim>
				</port>
			</input>
			<output>
				<port id="1" precision="FP32" names="onnx::Add_4655">
					<dim>1</dim>
					<dim>64</dim>
					<dim>1</dim>
					<dim>1</dim>
				</port>
			</output>
		</layer>
		<layer id="201" name="/backbone/backbone.0/body/layer1/layer1.1/bn1/Add" type="Add" version="opset1">
			<data auto_broadcast="numpy" />
			<input>
				<port id="0" precision="FP32">
					<dim>1</dim>
					<dim>64</dim>
					<dim>150</dim>
					<dim>200</dim>
				</port>
				<port id="1" precision="FP32">
					<dim>1</dim>
					<dim>64</dim>
					<dim>1</dim>
					<dim>1</dim>
				</port>
			</input>
			<output>
				<port id="2" precision="FP32" names="/backbone/backbone.0/body/layer1/layer1.1/bn1/Add_output_0">
					<dim>1</dim>
					<dim>64</dim>
					<dim>150</dim>
					<dim>200</dim>
				</port>
			</output>
		</layer>
		<layer id="202" name="/backbone/backbone.0/body/layer1/layer1.1/relu/Relu" type="ReLU" version="opset1">
			<input>
				<port id="0" precision="FP32">
					<dim>1</dim>
					<dim>64</dim>
					<dim>150</dim>
					<dim>200</dim>
				</port>
			</input>
			<output>
				<port id="1" precision="FP32" names="/backbone/backbone.0/body/layer1/layer1.1/relu/Relu_output_0">
					<dim>1</dim>
					<dim>64</dim>
					<dim>150</dim>
					<dim>200</dim>
				</port>
			</output>
		</layer>
		<layer id="203" name="/backbone/backbone.0/body/layer1/layer1.1/relu/Relu/fq_output_0/input_low" type="Const" version="opset1">
			<data element_type="f32" shape="" offset="711804" size="4" />
			<output>
				<port id="0" precision="FP32" />
			</output>
		</layer>
		<layer id="204" name="/backbone/backbone.0/body/layer1/layer1.1/relu/Relu/fq_output_0/input_high" type="Const" version="opset1">
			<data element_type="f32" shape="" offset="816016" size="4" />
			<output>
				<port id="0" precision="FP32" />
			</output>
		</layer>
		<layer id="205" name="/backbone/backbone.0/body/layer1/layer1.1/relu/Relu/fq_output_0/output_low" type="Const" version="opset1">
			<data element_type="f32" shape="" offset="711804" size="4" />
			<output>
				<port id="0" precision="FP32" />
			</output>
		</layer>
		<layer id="206" name="/backbone/backbone.0/body/layer1/layer1.1/relu/Relu/fq_output_0/output_high" type="Const" version="opset1">
			<data element_type="f32" shape="" offset="816016" size="4" />
			<output>
				<port id="0" precision="FP32" />
			</output>
		</layer>
		<layer id="207" name="/backbone/backbone.0/body/layer1/layer1.1/relu/Relu/fq_output_0" type="FakeQuantize" version="opset1">
			<data levels="256" auto_broadcast="numpy" />
			<input>
				<port id="0" precision="FP32">
					<dim>1</dim>
					<dim>64</dim>
					<dim>150</dim>
					<dim>200</dim>
				</port>
				<port id="1" precision="FP32" />
				<port id="2" precision="FP32" />
				<port id="3" precision="FP32" />
				<port id="4" precision="FP32" />
			</input>
			<output>
				<port id="5" precision="FP32">
					<dim>1</dim>
					<dim>64</dim>
					<dim>150</dim>
					<dim>200</dim>
				</port>
			</output>
		</layer>
		<layer id="208" name="Constant_1491200" type="Const" version="opset1">
			<data element_type="i8" shape="64, 64, 3, 3" offset="816020" size="36864" />
			<output>
				<port id="0" precision="I8">
					<dim>64</dim>
					<dim>64</dim>
					<dim>3</dim>
					<dim>3</dim>
				</port>
			</output>
		</layer>
		<layer id="209" name="Convert_1491201" type="Convert" version="opset1">
			<data destination_type="f32" />
			<input>
				<port id="0" precision="I8">
					<dim>64</dim>
					<dim>64</dim>
					<dim>3</dim>
					<dim>3</dim>
				</port>
			</input>
			<output>
				<port id="1" precision="FP32">
					<dim>64</dim>
					<dim>64</dim>
					<dim>3</dim>
					<dim>3</dim>
				</port>
			</output>
		</layer>
		<layer id="210" name="Constant_1491202" type="Const" version="opset1">
			<data element_type="f32" shape="64, 1, 1, 1" offset="852884" size="256" />
			<output>
				<port id="0" precision="FP32">
					<dim>64</dim>
					<dim>1</dim>
					<dim>1</dim>
					<dim>1</dim>
				</port>
			</output>
		</layer>
		<layer id="211" name="/backbone/backbone.0/body/layer1/layer1.1/bn2/Mul/fq_weights_1" type="Multiply" version="opset1">
			<data auto_broadcast="numpy" />
			<input>
				<port id="0" precision="FP32">
					<dim>64</dim>
					<dim>64</dim>
					<dim>3</dim>
					<dim>3</dim>
				</port>
				<port id="1" precision="FP32">
					<dim>64</dim>
					<dim>1</dim>
					<dim>1</dim>
					<dim>1</dim>
				</port>
			</input>
			<output>
				<port id="2" precision="FP32">
					<dim>64</dim>
					<dim>64</dim>
					<dim>3</dim>
					<dim>3</dim>
				</port>
			</output>
		</layer>
		<layer id="212" name="/backbone/backbone.0/body/layer1/layer1.1/bn2/Mul" type="Convolution" version="opset1">
			<data strides="1, 1" dilations="1, 1" pads_begin="1, 1" pads_end="1, 1" auto_pad="explicit" />
			<input>
				<port id="0" precision="FP32">
					<dim>1</dim>
					<dim>64</dim>
					<dim>150</dim>
					<dim>200</dim>
				</port>
				<port id="1" precision="FP32">
					<dim>64</dim>
					<dim>64</dim>
					<dim>3</dim>
					<dim>3</dim>
				</port>
			</input>
			<output>
				<port id="2" precision="FP32" names="/backbone/backbone.0/body/layer1/layer1.1/bn2/Mul_output_0">
					<dim>1</dim>
					<dim>64</dim>
					<dim>150</dim>
					<dim>200</dim>
				</port>
			</output>
		</layer>
		<layer id="213" name="onnx::Add_4665_compressed" type="Const" version="opset1">
			<data element_type="f16" shape="1, 64, 1, 1" offset="853140" size="128" />
			<output>
				<port id="0" precision="FP16">
					<dim>1</dim>
					<dim>64</dim>
					<dim>1</dim>
					<dim>1</dim>
				</port>
			</output>
		</layer>
		<layer id="214" name="onnx::Add_4665" type="Convert" version="opset1">
			<data destination_type="f32" />
			<rt_info>
				<attribute name="decompression" version="0" />
			</rt_info>
			<input>
				<port id="0" precision="FP16">
					<dim>1</dim>
					<dim>64</dim>
					<dim>1</dim>
					<dim>1</dim>
				</port>
			</input>
			<output>
				<port id="1" precision="FP32" names="onnx::Add_4665">
					<dim>1</dim>
					<dim>64</dim>
					<dim>1</dim>
					<dim>1</dim>
				</port>
			</output>
		</layer>
		<layer id="215" name="/backbone/backbone.0/body/layer1/layer1.1/bn2/Add" type="Add" version="opset1">
			<data auto_broadcast="numpy" />
			<input>
				<port id="0" precision="FP32">
					<dim>1</dim>
					<dim>64</dim>
					<dim>150</dim>
					<dim>200</dim>
				</port>
				<port id="1" precision="FP32">
					<dim>1</dim>
					<dim>64</dim>
					<dim>1</dim>
					<dim>1</dim>
				</port>
			</input>
			<output>
				<port id="2" precision="FP32" names="/backbone/backbone.0/body/layer1/layer1.1/bn2/Add_output_0">
					<dim>1</dim>
					<dim>64</dim>
					<dim>150</dim>
					<dim>200</dim>
				</port>
			</output>
		</layer>
		<layer id="216" name="/backbone/backbone.0/body/layer1/layer1.1/relu_1/Relu" type="ReLU" version="opset1">
			<input>
				<port id="0" precision="FP32">
					<dim>1</dim>
					<dim>64</dim>
					<dim>150</dim>
					<dim>200</dim>
				</port>
			</input>
			<output>
				<port id="1" precision="FP32" names="/backbone/backbone.0/body/layer1/layer1.1/relu_1/Relu_output_0">
					<dim>1</dim>
					<dim>64</dim>
					<dim>150</dim>
					<dim>200</dim>
				</port>
			</output>
		</layer>
		<layer id="217" name="/backbone/backbone.0/body/layer1/layer1.1/relu_1/Relu/fq_output_0/input_low" type="Const" version="opset1">
			<data element_type="f32" shape="" offset="711804" size="4" />
			<output>
				<port id="0" precision="FP32" />
			</output>
		</layer>
		<layer id="218" name="/backbone/backbone.0/body/layer1/layer1.1/relu_1/Relu/fq_output_0/input_high" type="Const" version="opset1">
			<data element_type="f32" shape="" offset="853268" size="4" />
			<output>
				<port id="0" precision="FP32" />
			</output>
		</layer>
		<layer id="219" name="/backbone/backbone.0/body/layer1/layer1.1/relu_1/Relu/fq_output_0/output_low" type="Const" version="opset1">
			<data element_type="f32" shape="" offset="711804" size="4" />
			<output>
				<port id="0" precision="FP32" />
			</output>
		</layer>
		<layer id="220" name="/backbone/backbone.0/body/layer1/layer1.1/relu_1/Relu/fq_output_0/output_high" type="Const" version="opset1">
			<data element_type="f32" shape="" offset="853268" size="4" />
			<output>
				<port id="0" precision="FP32" />
			</output>
		</layer>
		<layer id="221" name="/backbone/backbone.0/body/layer1/layer1.1/relu_1/Relu/fq_output_0" type="FakeQuantize" version="opset1">
			<data levels="256" auto_broadcast="numpy" />
			<input>
				<port id="0" precision="FP32">
					<dim>1</dim>
					<dim>64</dim>
					<dim>150</dim>
					<dim>200</dim>
				</port>
				<port id="1" precision="FP32" />
				<port id="2" precision="FP32" />
				<port id="3" precision="FP32" />
				<port id="4" precision="FP32" />
			</input>
			<output>
				<port id="5" precision="FP32">
					<dim>1</dim>
					<dim>64</dim>
					<dim>150</dim>
					<dim>200</dim>
				</port>
			</output>
		</layer>
		<layer id="222" name="Constant_1491205" type="Const" version="opset1">
			<data element_type="i8" shape="256, 64, 1, 1" offset="853272" size="16384" />
			<output>
				<port id="0" precision="I8">
					<dim>256</dim>
					<dim>64</dim>
					<dim>1</dim>
					<dim>1</dim>
				</port>
			</output>
		</layer>
		<layer id="223" name="Convert_1491206" type="Convert" version="opset1">
			<data destination_type="f32" />
			<input>
				<port id="0" precision="I8">
					<dim>256</dim>
					<dim>64</dim>
					<dim>1</dim>
					<dim>1</dim>
				</port>
			</input>
			<output>
				<port id="1" precision="FP32">
					<dim>256</dim>
					<dim>64</dim>
					<dim>1</dim>
					<dim>1</dim>
				</port>
			</output>
		</layer>
		<layer id="224" name="Constant_1491207" type="Const" version="opset1">
			<data element_type="f32" shape="256, 1, 1, 1" offset="869656" size="1024" />
			<output>
				<port id="0" precision="FP32">
					<dim>256</dim>
					<dim>1</dim>
					<dim>1</dim>
					<dim>1</dim>
				</port>
			</output>
		</layer>
		<layer id="225" name="/backbone/backbone.0/body/layer1/layer1.1/bn3/Mul/fq_weights_1" type="Multiply" version="opset1">
			<data auto_broadcast="numpy" />
			<input>
				<port id="0" precision="FP32">
					<dim>256</dim>
					<dim>64</dim>
					<dim>1</dim>
					<dim>1</dim>
				</port>
				<port id="1" precision="FP32">
					<dim>256</dim>
					<dim>1</dim>
					<dim>1</dim>
					<dim>1</dim>
				</port>
			</input>
			<output>
				<port id="2" precision="FP32">
					<dim>256</dim>
					<dim>64</dim>
					<dim>1</dim>
					<dim>1</dim>
				</port>
			</output>
		</layer>
		<layer id="226" name="/backbone/backbone.0/body/layer1/layer1.1/bn3/Mul" type="Convolution" version="opset1">
			<data strides="1, 1" dilations="1, 1" pads_begin="0, 0" pads_end="0, 0" auto_pad="explicit" />
			<input>
				<port id="0" precision="FP32">
					<dim>1</dim>
					<dim>64</dim>
					<dim>150</dim>
					<dim>200</dim>
				</port>
				<port id="1" precision="FP32">
					<dim>256</dim>
					<dim>64</dim>
					<dim>1</dim>
					<dim>1</dim>
				</port>
			</input>
			<output>
				<port id="2" precision="FP32" names="/backbone/backbone.0/body/layer1/layer1.1/bn3/Mul_output_0">
					<dim>1</dim>
					<dim>256</dim>
					<dim>150</dim>
					<dim>200</dim>
				</port>
			</output>
		</layer>
		<layer id="227" name="onnx::Add_4675_compressed" type="Const" version="opset1">
			<data element_type="f16" shape="1, 256, 1, 1" offset="870680" size="512" />
			<output>
				<port id="0" precision="FP16">
					<dim>1</dim>
					<dim>256</dim>
					<dim>1</dim>
					<dim>1</dim>
				</port>
			</output>
		</layer>
		<layer id="228" name="onnx::Add_4675" type="Convert" version="opset1">
			<data destination_type="f32" />
			<rt_info>
				<attribute name="decompression" version="0" />
			</rt_info>
			<input>
				<port id="0" precision="FP16">
					<dim>1</dim>
					<dim>256</dim>
					<dim>1</dim>
					<dim>1</dim>
				</port>
			</input>
			<output>
				<port id="1" precision="FP32" names="onnx::Add_4675">
					<dim>1</dim>
					<dim>256</dim>
					<dim>1</dim>
					<dim>1</dim>
				</port>
			</output>
		</layer>
		<layer id="229" name="/backbone/backbone.0/body/layer1/layer1.1/bn3/Add" type="Add" version="opset1">
			<data auto_broadcast="numpy" />
			<input>
				<port id="0" precision="FP32">
					<dim>1</dim>
					<dim>256</dim>
					<dim>150</dim>
					<dim>200</dim>
				</port>
				<port id="1" precision="FP32">
					<dim>1</dim>
					<dim>256</dim>
					<dim>1</dim>
					<dim>1</dim>
				</port>
			</input>
			<output>
				<port id="2" precision="FP32" names="/backbone/backbone.0/body/layer1/layer1.1/bn3/Add_output_0">
					<dim>1</dim>
					<dim>256</dim>
					<dim>150</dim>
					<dim>200</dim>
				</port>
			</output>
		</layer>
		<layer id="230" name="/backbone/backbone.0/body/layer1/layer1.1/bn3/Add/fq_output_0/input_low" type="Const" version="opset1">
			<data element_type="f32" shape="" offset="871192" size="4" />
			<output>
				<port id="0" precision="FP32" />
			</output>
		</layer>
		<layer id="231" name="/backbone/backbone.0/body/layer1/layer1.1/bn3/Add/fq_output_0/input_high" type="Const" version="opset1">
			<data element_type="f32" shape="" offset="871196" size="4" />
			<output>
				<port id="0" precision="FP32" />
			</output>
		</layer>
		<layer id="232" name="/backbone/backbone.0/body/layer1/layer1.1/bn3/Add/fq_output_0/output_low" type="Const" version="opset1">
			<data element_type="f32" shape="" offset="871192" size="4" />
			<output>
				<port id="0" precision="FP32" />
			</output>
		</layer>
		<layer id="233" name="/backbone/backbone.0/body/layer1/layer1.1/bn3/Add/fq_output_0/output_high" type="Const" version="opset1">
			<data element_type="f32" shape="" offset="871196" size="4" />
			<output>
				<port id="0" precision="FP32" />
			</output>
		</layer>
		<layer id="234" name="/backbone/backbone.0/body/layer1/layer1.1/bn3/Add/fq_output_0" type="FakeQuantize" version="opset1">
			<data levels="256" auto_broadcast="numpy" />
			<input>
				<port id="0" precision="FP32">
					<dim>1</dim>
					<dim>256</dim>
					<dim>150</dim>
					<dim>200</dim>
				</port>
				<port id="1" precision="FP32" />
				<port id="2" precision="FP32" />
				<port id="3" precision="FP32" />
				<port id="4" precision="FP32" />
			</input>
			<output>
				<port id="5" precision="FP32">
					<dim>1</dim>
					<dim>256</dim>
					<dim>150</dim>
					<dim>200</dim>
				</port>
			</output>
		</layer>
		<layer id="235" name="/backbone/backbone.0/body/layer1/layer1.1/Add" type="Add" version="opset1">
			<data auto_broadcast="numpy" />
			<input>
				<port id="0" precision="FP32">
					<dim>1</dim>
					<dim>256</dim>
					<dim>150</dim>
					<dim>200</dim>
				</port>
				<port id="1" precision="FP32">
					<dim>1</dim>
					<dim>256</dim>
					<dim>150</dim>
					<dim>200</dim>
				</port>
			</input>
			<output>
				<port id="2" precision="FP32" names="/backbone/backbone.0/body/layer1/layer1.1/Add_output_0">
					<dim>1</dim>
					<dim>256</dim>
					<dim>150</dim>
					<dim>200</dim>
				</port>
			</output>
		</layer>
		<layer id="236" name="/backbone/backbone.0/body/layer1/layer1.1/relu_2/Relu" type="ReLU" version="opset1">
			<input>
				<port id="0" precision="FP32">
					<dim>1</dim>
					<dim>256</dim>
					<dim>150</dim>
					<dim>200</dim>
				</port>
			</input>
			<output>
				<port id="1" precision="FP32" names="/backbone/backbone.0/body/layer1/layer1.1/relu_2/Relu_output_0">
					<dim>1</dim>
					<dim>256</dim>
					<dim>150</dim>
					<dim>200</dim>
				</port>
			</output>
		</layer>
		<layer id="237" name="/backbone/backbone.0/body/layer1/layer1.1/relu_2/Relu/fq_output_0/input_low" type="Const" version="opset1">
			<data element_type="f32" shape="" offset="711804" size="4" />
			<output>
				<port id="0" precision="FP32" />
			</output>
		</layer>
		<layer id="238" name="/backbone/backbone.0/body/layer1/layer1.1/relu_2/Relu/fq_output_0/input_high" type="Const" version="opset1">
			<data element_type="f32" shape="" offset="871200" size="4" />
			<output>
				<port id="0" precision="FP32" />
			</output>
		</layer>
		<layer id="239" name="/backbone/backbone.0/body/layer1/layer1.1/relu_2/Relu/fq_output_0/output_low" type="Const" version="opset1">
			<data element_type="f32" shape="" offset="711804" size="4" />
			<output>
				<port id="0" precision="FP32" />
			</output>
		</layer>
		<layer id="240" name="/backbone/backbone.0/body/layer1/layer1.1/relu_2/Relu/fq_output_0/output_high" type="Const" version="opset1">
			<data element_type="f32" shape="" offset="871200" size="4" />
			<output>
				<port id="0" precision="FP32" />
			</output>
		</layer>
		<layer id="241" name="/backbone/backbone.0/body/layer1/layer1.1/relu_2/Relu/fq_output_0" type="FakeQuantize" version="opset1">
			<data levels="256" auto_broadcast="numpy" />
			<input>
				<port id="0" precision="FP32">
					<dim>1</dim>
					<dim>256</dim>
					<dim>150</dim>
					<dim>200</dim>
				</port>
				<port id="1" precision="FP32" />
				<port id="2" precision="FP32" />
				<port id="3" precision="FP32" />
				<port id="4" precision="FP32" />
			</input>
			<output>
				<port id="5" precision="FP32">
					<dim>1</dim>
					<dim>256</dim>
					<dim>150</dim>
					<dim>200</dim>
				</port>
			</output>
		</layer>
		<layer id="242" name="Constant_1491210" type="Const" version="opset1">
			<data element_type="i8" shape="64, 256, 1, 1" offset="871204" size="16384" />
			<output>
				<port id="0" precision="I8">
					<dim>64</dim>
					<dim>256</dim>
					<dim>1</dim>
					<dim>1</dim>
				</port>
			</output>
		</layer>
		<layer id="243" name="Convert_1491211" type="Convert" version="opset1">
			<data destination_type="f32" />
			<input>
				<port id="0" precision="I8">
					<dim>64</dim>
					<dim>256</dim>
					<dim>1</dim>
					<dim>1</dim>
				</port>
			</input>
			<output>
				<port id="1" precision="FP32">
					<dim>64</dim>
					<dim>256</dim>
					<dim>1</dim>
					<dim>1</dim>
				</port>
			</output>
		</layer>
		<layer id="244" name="Constant_1491212" type="Const" version="opset1">
			<data element_type="f32" shape="64, 1, 1, 1" offset="887588" size="256" />
			<output>
				<port id="0" precision="FP32">
					<dim>64</dim>
					<dim>1</dim>
					<dim>1</dim>
					<dim>1</dim>
				</port>
			</output>
		</layer>
		<layer id="245" name="/backbone/backbone.0/body/layer1/layer1.2/bn1/Mul/fq_weights_1" type="Multiply" version="opset1">
			<data auto_broadcast="numpy" />
			<input>
				<port id="0" precision="FP32">
					<dim>64</dim>
					<dim>256</dim>
					<dim>1</dim>
					<dim>1</dim>
				</port>
				<port id="1" precision="FP32">
					<dim>64</dim>
					<dim>1</dim>
					<dim>1</dim>
					<dim>1</dim>
				</port>
			</input>
			<output>
				<port id="2" precision="FP32">
					<dim>64</dim>
					<dim>256</dim>
					<dim>1</dim>
					<dim>1</dim>
				</port>
			</output>
		</layer>
		<layer id="246" name="/backbone/backbone.0/body/layer1/layer1.2/bn1/Mul" type="Convolution" version="opset1">
			<data strides="1, 1" dilations="1, 1" pads_begin="0, 0" pads_end="0, 0" auto_pad="explicit" />
			<input>
				<port id="0" precision="FP32">
					<dim>1</dim>
					<dim>256</dim>
					<dim>150</dim>
					<dim>200</dim>
				</port>
				<port id="1" precision="FP32">
					<dim>64</dim>
					<dim>256</dim>
					<dim>1</dim>
					<dim>1</dim>
				</port>
			</input>
			<output>
				<port id="2" precision="FP32" names="/backbone/backbone.0/body/layer1/layer1.2/bn1/Mul_output_0">
					<dim>1</dim>
					<dim>64</dim>
					<dim>150</dim>
					<dim>200</dim>
				</port>
			</output>
		</layer>
		<layer id="247" name="onnx::Add_4685_compressed" type="Const" version="opset1">
			<data element_type="f16" shape="1, 64, 1, 1" offset="887844" size="128" />
			<output>
				<port id="0" precision="FP16">
					<dim>1</dim>
					<dim>64</dim>
					<dim>1</dim>
					<dim>1</dim>
				</port>
			</output>
		</layer>
		<layer id="248" name="onnx::Add_4685" type="Convert" version="opset1">
			<data destination_type="f32" />
			<rt_info>
				<attribute name="decompression" version="0" />
			</rt_info>
			<input>
				<port id="0" precision="FP16">
					<dim>1</dim>
					<dim>64</dim>
					<dim>1</dim>
					<dim>1</dim>
				</port>
			</input>
			<output>
				<port id="1" precision="FP32" names="onnx::Add_4685">
					<dim>1</dim>
					<dim>64</dim>
					<dim>1</dim>
					<dim>1</dim>
				</port>
			</output>
		</layer>
		<layer id="249" name="/backbone/backbone.0/body/layer1/layer1.2/bn1/Add" type="Add" version="opset1">
			<data auto_broadcast="numpy" />
			<input>
				<port id="0" precision="FP32">
					<dim>1</dim>
					<dim>64</dim>
					<dim>150</dim>
					<dim>200</dim>
				</port>
				<port id="1" precision="FP32">
					<dim>1</dim>
					<dim>64</dim>
					<dim>1</dim>
					<dim>1</dim>
				</port>
			</input>
			<output>
				<port id="2" precision="FP32" names="/backbone/backbone.0/body/layer1/layer1.2/bn1/Add_output_0">
					<dim>1</dim>
					<dim>64</dim>
					<dim>150</dim>
					<dim>200</dim>
				</port>
			</output>
		</layer>
		<layer id="250" name="/backbone/backbone.0/body/layer1/layer1.2/relu/Relu" type="ReLU" version="opset1">
			<input>
				<port id="0" precision="FP32">
					<dim>1</dim>
					<dim>64</dim>
					<dim>150</dim>
					<dim>200</dim>
				</port>
			</input>
			<output>
				<port id="1" precision="FP32" names="/backbone/backbone.0/body/layer1/layer1.2/relu/Relu_output_0">
					<dim>1</dim>
					<dim>64</dim>
					<dim>150</dim>
					<dim>200</dim>
				</port>
			</output>
		</layer>
		<layer id="251" name="/backbone/backbone.0/body/layer1/layer1.2/relu/Relu/fq_output_0/input_low" type="Const" version="opset1">
			<data element_type="f32" shape="" offset="711804" size="4" />
			<output>
				<port id="0" precision="FP32" />
			</output>
		</layer>
		<layer id="252" name="/backbone/backbone.0/body/layer1/layer1.2/relu/Relu/fq_output_0/input_high" type="Const" version="opset1">
			<data element_type="f32" shape="" offset="887972" size="4" />
			<output>
				<port id="0" precision="FP32" />
			</output>
		</layer>
		<layer id="253" name="/backbone/backbone.0/body/layer1/layer1.2/relu/Relu/fq_output_0/output_low" type="Const" version="opset1">
			<data element_type="f32" shape="" offset="711804" size="4" />
			<output>
				<port id="0" precision="FP32" />
			</output>
		</layer>
		<layer id="254" name="/backbone/backbone.0/body/layer1/layer1.2/relu/Relu/fq_output_0/output_high" type="Const" version="opset1">
			<data element_type="f32" shape="" offset="887972" size="4" />
			<output>
				<port id="0" precision="FP32" />
			</output>
		</layer>
		<layer id="255" name="/backbone/backbone.0/body/layer1/layer1.2/relu/Relu/fq_output_0" type="FakeQuantize" version="opset1">
			<data levels="256" auto_broadcast="numpy" />
			<input>
				<port id="0" precision="FP32">
					<dim>1</dim>
					<dim>64</dim>
					<dim>150</dim>
					<dim>200</dim>
				</port>
				<port id="1" precision="FP32" />
				<port id="2" precision="FP32" />
				<port id="3" precision="FP32" />
				<port id="4" precision="FP32" />
			</input>
			<output>
				<port id="5" precision="FP32">
					<dim>1</dim>
					<dim>64</dim>
					<dim>150</dim>
					<dim>200</dim>
				</port>
			</output>
		</layer>
		<layer id="256" name="Constant_1491215" type="Const" version="opset1">
			<data element_type="i8" shape="64, 64, 3, 3" offset="887976" size="36864" />
			<output>
				<port id="0" precision="I8">
					<dim>64</dim>
					<dim>64</dim>
					<dim>3</dim>
					<dim>3</dim>
				</port>
			</output>
		</layer>
		<layer id="257" name="Convert_1491216" type="Convert" version="opset1">
			<data destination_type="f32" />
			<input>
				<port id="0" precision="I8">
					<dim>64</dim>
					<dim>64</dim>
					<dim>3</dim>
					<dim>3</dim>
				</port>
			</input>
			<output>
				<port id="1" precision="FP32">
					<dim>64</dim>
					<dim>64</dim>
					<dim>3</dim>
					<dim>3</dim>
				</port>
			</output>
		</layer>
		<layer id="258" name="Constant_1491217" type="Const" version="opset1">
			<data element_type="f32" shape="64, 1, 1, 1" offset="924840" size="256" />
			<output>
				<port id="0" precision="FP32">
					<dim>64</dim>
					<dim>1</dim>
					<dim>1</dim>
					<dim>1</dim>
				</port>
			</output>
		</layer>
		<layer id="259" name="/backbone/backbone.0/body/layer1/layer1.2/bn2/Mul/fq_weights_1" type="Multiply" version="opset1">
			<data auto_broadcast="numpy" />
			<input>
				<port id="0" precision="FP32">
					<dim>64</dim>
					<dim>64</dim>
					<dim>3</dim>
					<dim>3</dim>
				</port>
				<port id="1" precision="FP32">
					<dim>64</dim>
					<dim>1</dim>
					<dim>1</dim>
					<dim>1</dim>
				</port>
			</input>
			<output>
				<port id="2" precision="FP32">
					<dim>64</dim>
					<dim>64</dim>
					<dim>3</dim>
					<dim>3</dim>
				</port>
			</output>
		</layer>
		<layer id="260" name="/backbone/backbone.0/body/layer1/layer1.2/bn2/Mul" type="Convolution" version="opset1">
			<data strides="1, 1" dilations="1, 1" pads_begin="1, 1" pads_end="1, 1" auto_pad="explicit" />
			<input>
				<port id="0" precision="FP32">
					<dim>1</dim>
					<dim>64</dim>
					<dim>150</dim>
					<dim>200</dim>
				</port>
				<port id="1" precision="FP32">
					<dim>64</dim>
					<dim>64</dim>
					<dim>3</dim>
					<dim>3</dim>
				</port>
			</input>
			<output>
				<port id="2" precision="FP32" names="/backbone/backbone.0/body/layer1/layer1.2/bn2/Mul_output_0">
					<dim>1</dim>
					<dim>64</dim>
					<dim>150</dim>
					<dim>200</dim>
				</port>
			</output>
		</layer>
		<layer id="261" name="onnx::Add_4695_compressed" type="Const" version="opset1">
			<data element_type="f16" shape="1, 64, 1, 1" offset="925096" size="128" />
			<output>
				<port id="0" precision="FP16">
					<dim>1</dim>
					<dim>64</dim>
					<dim>1</dim>
					<dim>1</dim>
				</port>
			</output>
		</layer>
		<layer id="262" name="onnx::Add_4695" type="Convert" version="opset1">
			<data destination_type="f32" />
			<rt_info>
				<attribute name="decompression" version="0" />
			</rt_info>
			<input>
				<port id="0" precision="FP16">
					<dim>1</dim>
					<dim>64</dim>
					<dim>1</dim>
					<dim>1</dim>
				</port>
			</input>
			<output>
				<port id="1" precision="FP32" names="onnx::Add_4695">
					<dim>1</dim>
					<dim>64</dim>
					<dim>1</dim>
					<dim>1</dim>
				</port>
			</output>
		</layer>
		<layer id="263" name="/backbone/backbone.0/body/layer1/layer1.2/bn2/Add" type="Add" version="opset1">
			<data auto_broadcast="numpy" />
			<input>
				<port id="0" precision="FP32">
					<dim>1</dim>
					<dim>64</dim>
					<dim>150</dim>
					<dim>200</dim>
				</port>
				<port id="1" precision="FP32">
					<dim>1</dim>
					<dim>64</dim>
					<dim>1</dim>
					<dim>1</dim>
				</port>
			</input>
			<output>
				<port id="2" precision="FP32" names="/backbone/backbone.0/body/layer1/layer1.2/bn2/Add_output_0">
					<dim>1</dim>
					<dim>64</dim>
					<dim>150</dim>
					<dim>200</dim>
				</port>
			</output>
		</layer>
		<layer id="264" name="/backbone/backbone.0/body/layer1/layer1.2/relu_1/Relu" type="ReLU" version="opset1">
			<input>
				<port id="0" precision="FP32">
					<dim>1</dim>
					<dim>64</dim>
					<dim>150</dim>
					<dim>200</dim>
				</port>
			</input>
			<output>
				<port id="1" precision="FP32" names="/backbone/backbone.0/body/layer1/layer1.2/relu_1/Relu_output_0">
					<dim>1</dim>
					<dim>64</dim>
					<dim>150</dim>
					<dim>200</dim>
				</port>
			</output>
		</layer>
		<layer id="265" name="/backbone/backbone.0/body/layer1/layer1.2/relu_1/Relu/fq_output_0/input_low" type="Const" version="opset1">
			<data element_type="f32" shape="" offset="711804" size="4" />
			<output>
				<port id="0" precision="FP32" />
			</output>
		</layer>
		<layer id="266" name="/backbone/backbone.0/body/layer1/layer1.2/relu_1/Relu/fq_output_0/input_high" type="Const" version="opset1">
			<data element_type="f32" shape="" offset="925224" size="4" />
			<output>
				<port id="0" precision="FP32" />
			</output>
		</layer>
		<layer id="267" name="/backbone/backbone.0/body/layer1/layer1.2/relu_1/Relu/fq_output_0/output_low" type="Const" version="opset1">
			<data element_type="f32" shape="" offset="711804" size="4" />
			<output>
				<port id="0" precision="FP32" />
			</output>
		</layer>
		<layer id="268" name="/backbone/backbone.0/body/layer1/layer1.2/relu_1/Relu/fq_output_0/output_high" type="Const" version="opset1">
			<data element_type="f32" shape="" offset="925224" size="4" />
			<output>
				<port id="0" precision="FP32" />
			</output>
		</layer>
		<layer id="269" name="/backbone/backbone.0/body/layer1/layer1.2/relu_1/Relu/fq_output_0" type="FakeQuantize" version="opset1">
			<data levels="256" auto_broadcast="numpy" />
			<input>
				<port id="0" precision="FP32">
					<dim>1</dim>
					<dim>64</dim>
					<dim>150</dim>
					<dim>200</dim>
				</port>
				<port id="1" precision="FP32" />
				<port id="2" precision="FP32" />
				<port id="3" precision="FP32" />
				<port id="4" precision="FP32" />
			</input>
			<output>
				<port id="5" precision="FP32">
					<dim>1</dim>
					<dim>64</dim>
					<dim>150</dim>
					<dim>200</dim>
				</port>
			</output>
		</layer>
		<layer id="270" name="Constant_1491220" type="Const" version="opset1">
			<data element_type="i8" shape="256, 64, 1, 1" offset="925228" size="16384" />
			<output>
				<port id="0" precision="I8">
					<dim>256</dim>
					<dim>64</dim>
					<dim>1</dim>
					<dim>1</dim>
				</port>
			</output>
		</layer>
		<layer id="271" name="Convert_1491221" type="Convert" version="opset1">
			<data destination_type="f32" />
			<input>
				<port id="0" precision="I8">
					<dim>256</dim>
					<dim>64</dim>
					<dim>1</dim>
					<dim>1</dim>
				</port>
			</input>
			<output>
				<port id="1" precision="FP32">
					<dim>256</dim>
					<dim>64</dim>
					<dim>1</dim>
					<dim>1</dim>
				</port>
			</output>
		</layer>
		<layer id="272" name="Constant_1491222" type="Const" version="opset1">
			<data element_type="f32" shape="256, 1, 1, 1" offset="941612" size="1024" />
			<output>
				<port id="0" precision="FP32">
					<dim>256</dim>
					<dim>1</dim>
					<dim>1</dim>
					<dim>1</dim>
				</port>
			</output>
		</layer>
		<layer id="273" name="/backbone/backbone.0/body/layer1/layer1.2/bn3/Mul/fq_weights_1" type="Multiply" version="opset1">
			<data auto_broadcast="numpy" />
			<input>
				<port id="0" precision="FP32">
					<dim>256</dim>
					<dim>64</dim>
					<dim>1</dim>
					<dim>1</dim>
				</port>
				<port id="1" precision="FP32">
					<dim>256</dim>
					<dim>1</dim>
					<dim>1</dim>
					<dim>1</dim>
				</port>
			</input>
			<output>
				<port id="2" precision="FP32">
					<dim>256</dim>
					<dim>64</dim>
					<dim>1</dim>
					<dim>1</dim>
				</port>
			</output>
		</layer>
		<layer id="274" name="/backbone/backbone.0/body/layer1/layer1.2/bn3/Mul" type="Convolution" version="opset1">
			<data strides="1, 1" dilations="1, 1" pads_begin="0, 0" pads_end="0, 0" auto_pad="explicit" />
			<input>
				<port id="0" precision="FP32">
					<dim>1</dim>
					<dim>64</dim>
					<dim>150</dim>
					<dim>200</dim>
				</port>
				<port id="1" precision="FP32">
					<dim>256</dim>
					<dim>64</dim>
					<dim>1</dim>
					<dim>1</dim>
				</port>
			</input>
			<output>
				<port id="2" precision="FP32" names="/backbone/backbone.0/body/layer1/layer1.2/bn3/Mul_output_0">
					<dim>1</dim>
					<dim>256</dim>
					<dim>150</dim>
					<dim>200</dim>
				</port>
			</output>
		</layer>
		<layer id="275" name="onnx::Add_4705_compressed" type="Const" version="opset1">
			<data element_type="f16" shape="1, 256, 1, 1" offset="942636" size="512" />
			<output>
				<port id="0" precision="FP16">
					<dim>1</dim>
					<dim>256</dim>
					<dim>1</dim>
					<dim>1</dim>
				</port>
			</output>
		</layer>
		<layer id="276" name="onnx::Add_4705" type="Convert" version="opset1">
			<data destination_type="f32" />
			<rt_info>
				<attribute name="decompression" version="0" />
			</rt_info>
			<input>
				<port id="0" precision="FP16">
					<dim>1</dim>
					<dim>256</dim>
					<dim>1</dim>
					<dim>1</dim>
				</port>
			</input>
			<output>
				<port id="1" precision="FP32" names="onnx::Add_4705">
					<dim>1</dim>
					<dim>256</dim>
					<dim>1</dim>
					<dim>1</dim>
				</port>
			</output>
		</layer>
		<layer id="277" name="/backbone/backbone.0/body/layer1/layer1.2/bn3/Add" type="Add" version="opset1">
			<data auto_broadcast="numpy" />
			<input>
				<port id="0" precision="FP32">
					<dim>1</dim>
					<dim>256</dim>
					<dim>150</dim>
					<dim>200</dim>
				</port>
				<port id="1" precision="FP32">
					<dim>1</dim>
					<dim>256</dim>
					<dim>1</dim>
					<dim>1</dim>
				</port>
			</input>
			<output>
				<port id="2" precision="FP32" names="/backbone/backbone.0/body/layer1/layer1.2/bn3/Add_output_0">
					<dim>1</dim>
					<dim>256</dim>
					<dim>150</dim>
					<dim>200</dim>
				</port>
			</output>
		</layer>
		<layer id="278" name="/backbone/backbone.0/body/layer1/layer1.2/bn3/Add/fq_output_0/input_low" type="Const" version="opset1">
			<data element_type="f32" shape="" offset="943148" size="4" />
			<output>
				<port id="0" precision="FP32" />
			</output>
		</layer>
		<layer id="279" name="/backbone/backbone.0/body/layer1/layer1.2/bn3/Add/fq_output_0/input_high" type="Const" version="opset1">
			<data element_type="f32" shape="" offset="943152" size="4" />
			<output>
				<port id="0" precision="FP32" />
			</output>
		</layer>
		<layer id="280" name="/backbone/backbone.0/body/layer1/layer1.2/bn3/Add/fq_output_0/output_low" type="Const" version="opset1">
			<data element_type="f32" shape="" offset="943148" size="4" />
			<output>
				<port id="0" precision="FP32" />
			</output>
		</layer>
		<layer id="281" name="/backbone/backbone.0/body/layer1/layer1.2/bn3/Add/fq_output_0/output_high" type="Const" version="opset1">
			<data element_type="f32" shape="" offset="943152" size="4" />
			<output>
				<port id="0" precision="FP32" />
			</output>
		</layer>
		<layer id="282" name="/backbone/backbone.0/body/layer1/layer1.2/bn3/Add/fq_output_0" type="FakeQuantize" version="opset1">
			<data levels="256" auto_broadcast="numpy" />
			<input>
				<port id="0" precision="FP32">
					<dim>1</dim>
					<dim>256</dim>
					<dim>150</dim>
					<dim>200</dim>
				</port>
				<port id="1" precision="FP32" />
				<port id="2" precision="FP32" />
				<port id="3" precision="FP32" />
				<port id="4" precision="FP32" />
			</input>
			<output>
				<port id="5" precision="FP32">
					<dim>1</dim>
					<dim>256</dim>
					<dim>150</dim>
					<dim>200</dim>
				</port>
			</output>
		</layer>
		<layer id="283" name="/backbone/backbone.0/body/layer1/layer1.2/Add" type="Add" version="opset1">
			<data auto_broadcast="numpy" />
			<input>
				<port id="0" precision="FP32">
					<dim>1</dim>
					<dim>256</dim>
					<dim>150</dim>
					<dim>200</dim>
				</port>
				<port id="1" precision="FP32">
					<dim>1</dim>
					<dim>256</dim>
					<dim>150</dim>
					<dim>200</dim>
				</port>
			</input>
			<output>
				<port id="2" precision="FP32" names="/backbone/backbone.0/body/layer1/layer1.2/Add_output_0">
					<dim>1</dim>
					<dim>256</dim>
					<dim>150</dim>
					<dim>200</dim>
				</port>
			</output>
		</layer>
		<layer id="284" name="/backbone/backbone.0/body/layer1/layer1.2/relu_2/Relu" type="ReLU" version="opset1">
			<input>
				<port id="0" precision="FP32">
					<dim>1</dim>
					<dim>256</dim>
					<dim>150</dim>
					<dim>200</dim>
				</port>
			</input>
			<output>
				<port id="1" precision="FP32" names="/backbone/backbone.0/body/layer1/layer1.2/relu_2/Relu_output_0">
					<dim>1</dim>
					<dim>256</dim>
					<dim>150</dim>
					<dim>200</dim>
				</port>
			</output>
		</layer>
		<layer id="285" name="/backbone/backbone.0/body/layer1/layer1.2/relu_2/Relu/fq_output_0/input_low" type="Const" version="opset1">
			<data element_type="f32" shape="" offset="711804" size="4" />
			<output>
				<port id="0" precision="FP32" />
			</output>
		</layer>
		<layer id="286" name="/backbone/backbone.0/body/layer1/layer1.2/relu_2/Relu/fq_output_0/input_high" type="Const" version="opset1">
			<data element_type="f32" shape="" offset="943156" size="4" />
			<output>
				<port id="0" precision="FP32" />
			</output>
		</layer>
		<layer id="287" name="/backbone/backbone.0/body/layer1/layer1.2/relu_2/Relu/fq_output_0/output_low" type="Const" version="opset1">
			<data element_type="f32" shape="" offset="711804" size="4" />
			<output>
				<port id="0" precision="FP32" />
			</output>
		</layer>
		<layer id="288" name="/backbone/backbone.0/body/layer1/layer1.2/relu_2/Relu/fq_output_0/output_high" type="Const" version="opset1">
			<data element_type="f32" shape="" offset="943156" size="4" />
			<output>
				<port id="0" precision="FP32" />
			</output>
		</layer>
		<layer id="289" name="/backbone/backbone.0/body/layer1/layer1.2/relu_2/Relu/fq_output_0" type="FakeQuantize" version="opset1">
			<data levels="256" auto_broadcast="numpy" />
			<input>
				<port id="0" precision="FP32">
					<dim>1</dim>
					<dim>256</dim>
					<dim>150</dim>
					<dim>200</dim>
				</port>
				<port id="1" precision="FP32" />
				<port id="2" precision="FP32" />
				<port id="3" precision="FP32" />
				<port id="4" precision="FP32" />
			</input>
			<output>
				<port id="5" precision="FP32">
					<dim>1</dim>
					<dim>256</dim>
					<dim>150</dim>
					<dim>200</dim>
				</port>
			</output>
		</layer>
		<layer id="290" name="Constant_1491225" type="Const" version="opset1">
			<data element_type="i8" shape="128, 256, 1, 1" offset="943160" size="32768" />
			<output>
				<port id="0" precision="I8">
					<dim>128</dim>
					<dim>256</dim>
					<dim>1</dim>
					<dim>1</dim>
				</port>
			</output>
		</layer>
		<layer id="291" name="Convert_1491226" type="Convert" version="opset1">
			<data destination_type="f32" />
			<input>
				<port id="0" precision="I8">
					<dim>128</dim>
					<dim>256</dim>
					<dim>1</dim>
					<dim>1</dim>
				</port>
			</input>
			<output>
				<port id="1" precision="FP32">
					<dim>128</dim>
					<dim>256</dim>
					<dim>1</dim>
					<dim>1</dim>
				</port>
			</output>
		</layer>
		<layer id="292" name="Constant_1491227" type="Const" version="opset1">
			<data element_type="f32" shape="128, 1, 1, 1" offset="975928" size="512" />
			<output>
				<port id="0" precision="FP32">
					<dim>128</dim>
					<dim>1</dim>
					<dim>1</dim>
					<dim>1</dim>
				</port>
			</output>
		</layer>
		<layer id="293" name="/backbone/backbone.0/body/layer2/layer2.0/bn1/Mul/fq_weights_1" type="Multiply" version="opset1">
			<data auto_broadcast="numpy" />
			<input>
				<port id="0" precision="FP32">
					<dim>128</dim>
					<dim>256</dim>
					<dim>1</dim>
					<dim>1</dim>
				</port>
				<port id="1" precision="FP32">
					<dim>128</dim>
					<dim>1</dim>
					<dim>1</dim>
					<dim>1</dim>
				</port>
			</input>
			<output>
				<port id="2" precision="FP32">
					<dim>128</dim>
					<dim>256</dim>
					<dim>1</dim>
					<dim>1</dim>
				</port>
			</output>
		</layer>
		<layer id="294" name="/backbone/backbone.0/body/layer2/layer2.0/bn1/Mul" type="Convolution" version="opset1">
			<data strides="1, 1" dilations="1, 1" pads_begin="0, 0" pads_end="0, 0" auto_pad="explicit" />
			<input>
				<port id="0" precision="FP32">
					<dim>1</dim>
					<dim>256</dim>
					<dim>150</dim>
					<dim>200</dim>
				</port>
				<port id="1" precision="FP32">
					<dim>128</dim>
					<dim>256</dim>
					<dim>1</dim>
					<dim>1</dim>
				</port>
			</input>
			<output>
				<port id="2" precision="FP32" names="/backbone/backbone.0/body/layer2/layer2.0/bn1/Mul_output_0">
					<dim>1</dim>
					<dim>128</dim>
					<dim>150</dim>
					<dim>200</dim>
				</port>
			</output>
		</layer>
		<layer id="295" name="onnx::Add_4715_compressed" type="Const" version="opset1">
			<data element_type="f16" shape="1, 128, 1, 1" offset="976440" size="256" />
			<output>
				<port id="0" precision="FP16">
					<dim>1</dim>
					<dim>128</dim>
					<dim>1</dim>
					<dim>1</dim>
				</port>
			</output>
		</layer>
		<layer id="296" name="onnx::Add_4715" type="Convert" version="opset1">
			<data destination_type="f32" />
			<rt_info>
				<attribute name="decompression" version="0" />
			</rt_info>
			<input>
				<port id="0" precision="FP16">
					<dim>1</dim>
					<dim>128</dim>
					<dim>1</dim>
					<dim>1</dim>
				</port>
			</input>
			<output>
				<port id="1" precision="FP32" names="onnx::Add_4715">
					<dim>1</dim>
					<dim>128</dim>
					<dim>1</dim>
					<dim>1</dim>
				</port>
			</output>
		</layer>
		<layer id="297" name="/backbone/backbone.0/body/layer2/layer2.0/bn1/Add" type="Add" version="opset1">
			<data auto_broadcast="numpy" />
			<input>
				<port id="0" precision="FP32">
					<dim>1</dim>
					<dim>128</dim>
					<dim>150</dim>
					<dim>200</dim>
				</port>
				<port id="1" precision="FP32">
					<dim>1</dim>
					<dim>128</dim>
					<dim>1</dim>
					<dim>1</dim>
				</port>
			</input>
			<output>
				<port id="2" precision="FP32" names="/backbone/backbone.0/body/layer2/layer2.0/bn1/Add_output_0">
					<dim>1</dim>
					<dim>128</dim>
					<dim>150</dim>
					<dim>200</dim>
				</port>
			</output>
		</layer>
		<layer id="298" name="/backbone/backbone.0/body/layer2/layer2.0/relu/Relu" type="ReLU" version="opset1">
			<input>
				<port id="0" precision="FP32">
					<dim>1</dim>
					<dim>128</dim>
					<dim>150</dim>
					<dim>200</dim>
				</port>
			</input>
			<output>
				<port id="1" precision="FP32" names="/backbone/backbone.0/body/layer2/layer2.0/relu/Relu_output_0">
					<dim>1</dim>
					<dim>128</dim>
					<dim>150</dim>
					<dim>200</dim>
				</port>
			</output>
		</layer>
		<layer id="299" name="/backbone/backbone.0/body/layer2/layer2.0/relu/Relu/fq_output_0/input_low" type="Const" version="opset1">
			<data element_type="f32" shape="" offset="711804" size="4" />
			<output>
				<port id="0" precision="FP32" />
			</output>
		</layer>
		<layer id="300" name="/backbone/backbone.0/body/layer2/layer2.0/relu/Relu/fq_output_0/input_high" type="Const" version="opset1">
			<data element_type="f32" shape="" offset="976696" size="4" />
			<output>
				<port id="0" precision="FP32" />
			</output>
		</layer>
		<layer id="301" name="/backbone/backbone.0/body/layer2/layer2.0/relu/Relu/fq_output_0/output_low" type="Const" version="opset1">
			<data element_type="f32" shape="" offset="711804" size="4" />
			<output>
				<port id="0" precision="FP32" />
			</output>
		</layer>
		<layer id="302" name="/backbone/backbone.0/body/layer2/layer2.0/relu/Relu/fq_output_0/output_high" type="Const" version="opset1">
			<data element_type="f32" shape="" offset="976696" size="4" />
			<output>
				<port id="0" precision="FP32" />
			</output>
		</layer>
		<layer id="303" name="/backbone/backbone.0/body/layer2/layer2.0/relu/Relu/fq_output_0" type="FakeQuantize" version="opset1">
			<data levels="256" auto_broadcast="numpy" />
			<input>
				<port id="0" precision="FP32">
					<dim>1</dim>
					<dim>128</dim>
					<dim>150</dim>
					<dim>200</dim>
				</port>
				<port id="1" precision="FP32" />
				<port id="2" precision="FP32" />
				<port id="3" precision="FP32" />
				<port id="4" precision="FP32" />
			</input>
			<output>
				<port id="5" precision="FP32">
					<dim>1</dim>
					<dim>128</dim>
					<dim>150</dim>
					<dim>200</dim>
				</port>
			</output>
		</layer>
		<layer id="304" name="Constant_1491230" type="Const" version="opset1">
			<data element_type="i8" shape="128, 128, 3, 3" offset="976700" size="147456" />
			<output>
				<port id="0" precision="I8">
					<dim>128</dim>
					<dim>128</dim>
					<dim>3</dim>
					<dim>3</dim>
				</port>
			</output>
		</layer>
		<layer id="305" name="Convert_1491231" type="Convert" version="opset1">
			<data destination_type="f32" />
			<input>
				<port id="0" precision="I8">
					<dim>128</dim>
					<dim>128</dim>
					<dim>3</dim>
					<dim>3</dim>
				</port>
			</input>
			<output>
				<port id="1" precision="FP32">
					<dim>128</dim>
					<dim>128</dim>
					<dim>3</dim>
					<dim>3</dim>
				</port>
			</output>
		</layer>
		<layer id="306" name="Constant_1491232" type="Const" version="opset1">
			<data element_type="f32" shape="128, 1, 1, 1" offset="1124156" size="512" />
			<output>
				<port id="0" precision="FP32">
					<dim>128</dim>
					<dim>1</dim>
					<dim>1</dim>
					<dim>1</dim>
				</port>
			</output>
		</layer>
		<layer id="307" name="/backbone/backbone.0/body/layer2/layer2.0/bn2/Mul/fq_weights_1" type="Multiply" version="opset1">
			<data auto_broadcast="numpy" />
			<input>
				<port id="0" precision="FP32">
					<dim>128</dim>
					<dim>128</dim>
					<dim>3</dim>
					<dim>3</dim>
				</port>
				<port id="1" precision="FP32">
					<dim>128</dim>
					<dim>1</dim>
					<dim>1</dim>
					<dim>1</dim>
				</port>
			</input>
			<output>
				<port id="2" precision="FP32">
					<dim>128</dim>
					<dim>128</dim>
					<dim>3</dim>
					<dim>3</dim>
				</port>
			</output>
		</layer>
		<layer id="308" name="/backbone/backbone.0/body/layer2/layer2.0/bn2/Mul" type="Convolution" version="opset1">
			<data strides="2, 2" dilations="1, 1" pads_begin="1, 1" pads_end="1, 1" auto_pad="explicit" />
			<input>
				<port id="0" precision="FP32">
					<dim>1</dim>
					<dim>128</dim>
					<dim>150</dim>
					<dim>200</dim>
				</port>
				<port id="1" precision="FP32">
					<dim>128</dim>
					<dim>128</dim>
					<dim>3</dim>
					<dim>3</dim>
				</port>
			</input>
			<output>
				<port id="2" precision="FP32" names="/backbone/backbone.0/body/layer2/layer2.0/bn2/Mul_output_0">
					<dim>1</dim>
					<dim>128</dim>
					<dim>75</dim>
					<dim>100</dim>
				</port>
			</output>
		</layer>
		<layer id="309" name="onnx::Add_4725_compressed" type="Const" version="opset1">
			<data element_type="f16" shape="1, 128, 1, 1" offset="1124668" size="256" />
			<output>
				<port id="0" precision="FP16">
					<dim>1</dim>
					<dim>128</dim>
					<dim>1</dim>
					<dim>1</dim>
				</port>
			</output>
		</layer>
		<layer id="310" name="onnx::Add_4725" type="Convert" version="opset1">
			<data destination_type="f32" />
			<rt_info>
				<attribute name="decompression" version="0" />
			</rt_info>
			<input>
				<port id="0" precision="FP16">
					<dim>1</dim>
					<dim>128</dim>
					<dim>1</dim>
					<dim>1</dim>
				</port>
			</input>
			<output>
				<port id="1" precision="FP32" names="onnx::Add_4725">
					<dim>1</dim>
					<dim>128</dim>
					<dim>1</dim>
					<dim>1</dim>
				</port>
			</output>
		</layer>
		<layer id="311" name="/backbone/backbone.0/body/layer2/layer2.0/bn2/Add" type="Add" version="opset1">
			<data auto_broadcast="numpy" />
			<input>
				<port id="0" precision="FP32">
					<dim>1</dim>
					<dim>128</dim>
					<dim>75</dim>
					<dim>100</dim>
				</port>
				<port id="1" precision="FP32">
					<dim>1</dim>
					<dim>128</dim>
					<dim>1</dim>
					<dim>1</dim>
				</port>
			</input>
			<output>
				<port id="2" precision="FP32" names="/backbone/backbone.0/body/layer2/layer2.0/bn2/Add_output_0">
					<dim>1</dim>
					<dim>128</dim>
					<dim>75</dim>
					<dim>100</dim>
				</port>
			</output>
		</layer>
		<layer id="312" name="/backbone/backbone.0/body/layer2/layer2.0/relu_1/Relu" type="ReLU" version="opset1">
			<input>
				<port id="0" precision="FP32">
					<dim>1</dim>
					<dim>128</dim>
					<dim>75</dim>
					<dim>100</dim>
				</port>
			</input>
			<output>
				<port id="1" precision="FP32" names="/backbone/backbone.0/body/layer2/layer2.0/relu_1/Relu_output_0">
					<dim>1</dim>
					<dim>128</dim>
					<dim>75</dim>
					<dim>100</dim>
				</port>
			</output>
		</layer>
		<layer id="313" name="/backbone/backbone.0/body/layer2/layer2.0/relu_1/Relu/fq_output_0/input_low" type="Const" version="opset1">
			<data element_type="f32" shape="" offset="711804" size="4" />
			<output>
				<port id="0" precision="FP32" />
			</output>
		</layer>
		<layer id="314" name="/backbone/backbone.0/body/layer2/layer2.0/relu_1/Relu/fq_output_0/input_high" type="Const" version="opset1">
			<data element_type="f32" shape="" offset="1124924" size="4" />
			<output>
				<port id="0" precision="FP32" />
			</output>
		</layer>
		<layer id="315" name="/backbone/backbone.0/body/layer2/layer2.0/relu_1/Relu/fq_output_0/output_low" type="Const" version="opset1">
			<data element_type="f32" shape="" offset="711804" size="4" />
			<output>
				<port id="0" precision="FP32" />
			</output>
		</layer>
		<layer id="316" name="/backbone/backbone.0/body/layer2/layer2.0/relu_1/Relu/fq_output_0/output_high" type="Const" version="opset1">
			<data element_type="f32" shape="" offset="1124924" size="4" />
			<output>
				<port id="0" precision="FP32" />
			</output>
		</layer>
		<layer id="317" name="/backbone/backbone.0/body/layer2/layer2.0/relu_1/Relu/fq_output_0" type="FakeQuantize" version="opset1">
			<data levels="256" auto_broadcast="numpy" />
			<input>
				<port id="0" precision="FP32">
					<dim>1</dim>
					<dim>128</dim>
					<dim>75</dim>
					<dim>100</dim>
				</port>
				<port id="1" precision="FP32" />
				<port id="2" precision="FP32" />
				<port id="3" precision="FP32" />
				<port id="4" precision="FP32" />
			</input>
			<output>
				<port id="5" precision="FP32">
					<dim>1</dim>
					<dim>128</dim>
					<dim>75</dim>
					<dim>100</dim>
				</port>
			</output>
		</layer>
		<layer id="318" name="Constant_1491235" type="Const" version="opset1">
			<data element_type="i8" shape="512, 128, 1, 1" offset="1124928" size="65536" />
			<output>
				<port id="0" precision="I8">
					<dim>512</dim>
					<dim>128</dim>
					<dim>1</dim>
					<dim>1</dim>
				</port>
			</output>
		</layer>
		<layer id="319" name="Convert_1491236" type="Convert" version="opset1">
			<data destination_type="f32" />
			<input>
				<port id="0" precision="I8">
					<dim>512</dim>
					<dim>128</dim>
					<dim>1</dim>
					<dim>1</dim>
				</port>
			</input>
			<output>
				<port id="1" precision="FP32">
					<dim>512</dim>
					<dim>128</dim>
					<dim>1</dim>
					<dim>1</dim>
				</port>
			</output>
		</layer>
		<layer id="320" name="Constant_1491237" type="Const" version="opset1">
			<data element_type="f32" shape="512, 1, 1, 1" offset="1190464" size="2048" />
			<output>
				<port id="0" precision="FP32">
					<dim>512</dim>
					<dim>1</dim>
					<dim>1</dim>
					<dim>1</dim>
				</port>
			</output>
		</layer>
		<layer id="321" name="/backbone/backbone.0/body/layer2/layer2.0/bn3/Mul/fq_weights_1" type="Multiply" version="opset1">
			<data auto_broadcast="numpy" />
			<input>
				<port id="0" precision="FP32">
					<dim>512</dim>
					<dim>128</dim>
					<dim>1</dim>
					<dim>1</dim>
				</port>
				<port id="1" precision="FP32">
					<dim>512</dim>
					<dim>1</dim>
					<dim>1</dim>
					<dim>1</dim>
				</port>
			</input>
			<output>
				<port id="2" precision="FP32">
					<dim>512</dim>
					<dim>128</dim>
					<dim>1</dim>
					<dim>1</dim>
				</port>
			</output>
		</layer>
		<layer id="322" name="/backbone/backbone.0/body/layer2/layer2.0/bn3/Mul" type="Convolution" version="opset1">
			<data strides="1, 1" dilations="1, 1" pads_begin="0, 0" pads_end="0, 0" auto_pad="explicit" />
			<input>
				<port id="0" precision="FP32">
					<dim>1</dim>
					<dim>128</dim>
					<dim>75</dim>
					<dim>100</dim>
				</port>
				<port id="1" precision="FP32">
					<dim>512</dim>
					<dim>128</dim>
					<dim>1</dim>
					<dim>1</dim>
				</port>
			</input>
			<output>
				<port id="2" precision="FP32" names="/backbone/backbone.0/body/layer2/layer2.0/bn3/Mul_output_0">
					<dim>1</dim>
					<dim>512</dim>
					<dim>75</dim>
					<dim>100</dim>
				</port>
			</output>
		</layer>
		<layer id="323" name="onnx::Add_4735_compressed" type="Const" version="opset1">
			<data element_type="f16" shape="1, 512, 1, 1" offset="1192512" size="1024" />
			<output>
				<port id="0" precision="FP16">
					<dim>1</dim>
					<dim>512</dim>
					<dim>1</dim>
					<dim>1</dim>
				</port>
			</output>
		</layer>
		<layer id="324" name="onnx::Add_4735" type="Convert" version="opset1">
			<data destination_type="f32" />
			<rt_info>
				<attribute name="decompression" version="0" />
			</rt_info>
			<input>
				<port id="0" precision="FP16">
					<dim>1</dim>
					<dim>512</dim>
					<dim>1</dim>
					<dim>1</dim>
				</port>
			</input>
			<output>
				<port id="1" precision="FP32" names="onnx::Add_4735">
					<dim>1</dim>
					<dim>512</dim>
					<dim>1</dim>
					<dim>1</dim>
				</port>
			</output>
		</layer>
		<layer id="325" name="/backbone/backbone.0/body/layer2/layer2.0/bn3/Add" type="Add" version="opset1">
			<data auto_broadcast="numpy" />
			<input>
				<port id="0" precision="FP32">
					<dim>1</dim>
					<dim>512</dim>
					<dim>75</dim>
					<dim>100</dim>
				</port>
				<port id="1" precision="FP32">
					<dim>1</dim>
					<dim>512</dim>
					<dim>1</dim>
					<dim>1</dim>
				</port>
			</input>
			<output>
				<port id="2" precision="FP32" names="/backbone/backbone.0/body/layer2/layer2.0/bn3/Add_output_0">
					<dim>1</dim>
					<dim>512</dim>
					<dim>75</dim>
					<dim>100</dim>
				</port>
			</output>
		</layer>
		<layer id="326" name="/backbone/backbone.0/body/layer2/layer2.0/bn3/Add/fq_output_0/input_low" type="Const" version="opset1">
			<data element_type="f32" shape="" offset="1193536" size="4" />
			<output>
				<port id="0" precision="FP32" />
			</output>
		</layer>
		<layer id="327" name="/backbone/backbone.0/body/layer2/layer2.0/bn3/Add/fq_output_0/input_high" type="Const" version="opset1">
			<data element_type="f32" shape="" offset="1193540" size="4" />
			<output>
				<port id="0" precision="FP32" />
			</output>
		</layer>
		<layer id="328" name="/backbone/backbone.0/body/layer2/layer2.0/bn3/Add/fq_output_0/output_low" type="Const" version="opset1">
			<data element_type="f32" shape="" offset="1193536" size="4" />
			<output>
				<port id="0" precision="FP32" />
			</output>
		</layer>
		<layer id="329" name="/backbone/backbone.0/body/layer2/layer2.0/bn3/Add/fq_output_0/output_high" type="Const" version="opset1">
			<data element_type="f32" shape="" offset="1193540" size="4" />
			<output>
				<port id="0" precision="FP32" />
			</output>
		</layer>
		<layer id="330" name="/backbone/backbone.0/body/layer2/layer2.0/bn3/Add/fq_output_0" type="FakeQuantize" version="opset1">
			<data levels="256" auto_broadcast="numpy" />
			<input>
				<port id="0" precision="FP32">
					<dim>1</dim>
					<dim>512</dim>
					<dim>75</dim>
					<dim>100</dim>
				</port>
				<port id="1" precision="FP32" />
				<port id="2" precision="FP32" />
				<port id="3" precision="FP32" />
				<port id="4" precision="FP32" />
			</input>
			<output>
				<port id="5" precision="FP32">
					<dim>1</dim>
					<dim>512</dim>
					<dim>75</dim>
					<dim>100</dim>
				</port>
			</output>
		</layer>
		<layer id="331" name="Constant_1491240" type="Const" version="opset1">
			<data element_type="i8" shape="512, 256, 1, 1" offset="1193544" size="131072" />
			<output>
				<port id="0" precision="I8">
					<dim>512</dim>
					<dim>256</dim>
					<dim>1</dim>
					<dim>1</dim>
				</port>
			</output>
		</layer>
		<layer id="332" name="Convert_1491241" type="Convert" version="opset1">
			<data destination_type="f32" />
			<input>
				<port id="0" precision="I8">
					<dim>512</dim>
					<dim>256</dim>
					<dim>1</dim>
					<dim>1</dim>
				</port>
			</input>
			<output>
				<port id="1" precision="FP32">
					<dim>512</dim>
					<dim>256</dim>
					<dim>1</dim>
					<dim>1</dim>
				</port>
			</output>
		</layer>
		<layer id="333" name="Constant_1491242" type="Const" version="opset1">
			<data element_type="f32" shape="512, 1, 1, 1" offset="1324616" size="2048" />
			<output>
				<port id="0" precision="FP32">
					<dim>512</dim>
					<dim>1</dim>
					<dim>1</dim>
					<dim>1</dim>
				</port>
			</output>
		</layer>
		<layer id="334" name="/backbone/backbone.0/body/layer2/layer2.0/downsample/downsample.1/Mul/fq_weights_1" type="Multiply" version="opset1">
			<data auto_broadcast="numpy" />
			<input>
				<port id="0" precision="FP32">
					<dim>512</dim>
					<dim>256</dim>
					<dim>1</dim>
					<dim>1</dim>
				</port>
				<port id="1" precision="FP32">
					<dim>512</dim>
					<dim>1</dim>
					<dim>1</dim>
					<dim>1</dim>
				</port>
			</input>
			<output>
				<port id="2" precision="FP32">
					<dim>512</dim>
					<dim>256</dim>
					<dim>1</dim>
					<dim>1</dim>
				</port>
			</output>
		</layer>
		<layer id="335" name="/backbone/backbone.0/body/layer2/layer2.0/downsample/downsample.1/Mul" type="Convolution" version="opset1">
			<data strides="2, 2" dilations="1, 1" pads_begin="0, 0" pads_end="0, 0" auto_pad="explicit" />
			<input>
				<port id="0" precision="FP32">
					<dim>1</dim>
					<dim>256</dim>
					<dim>150</dim>
					<dim>200</dim>
				</port>
				<port id="1" precision="FP32">
					<dim>512</dim>
					<dim>256</dim>
					<dim>1</dim>
					<dim>1</dim>
				</port>
			</input>
			<output>
				<port id="2" precision="FP32" names="/backbone/backbone.0/body/layer2/layer2.0/downsample/downsample.1/Mul_output_0">
					<dim>1</dim>
					<dim>512</dim>
					<dim>75</dim>
					<dim>100</dim>
				</port>
			</output>
		</layer>
		<layer id="336" name="onnx::Add_4745_compressed" type="Const" version="opset1">
			<data element_type="f16" shape="1, 512, 1, 1" offset="1326664" size="1024" />
			<output>
				<port id="0" precision="FP16">
					<dim>1</dim>
					<dim>512</dim>
					<dim>1</dim>
					<dim>1</dim>
				</port>
			</output>
		</layer>
		<layer id="337" name="onnx::Add_4745" type="Convert" version="opset1">
			<data destination_type="f32" />
			<rt_info>
				<attribute name="decompression" version="0" />
			</rt_info>
			<input>
				<port id="0" precision="FP16">
					<dim>1</dim>
					<dim>512</dim>
					<dim>1</dim>
					<dim>1</dim>
				</port>
			</input>
			<output>
				<port id="1" precision="FP32" names="onnx::Add_4745">
					<dim>1</dim>
					<dim>512</dim>
					<dim>1</dim>
					<dim>1</dim>
				</port>
			</output>
		</layer>
		<layer id="338" name="/backbone/backbone.0/body/layer2/layer2.0/downsample/downsample.1/Add" type="Add" version="opset1">
			<data auto_broadcast="numpy" />
			<input>
				<port id="0" precision="FP32">
					<dim>1</dim>
					<dim>512</dim>
					<dim>75</dim>
					<dim>100</dim>
				</port>
				<port id="1" precision="FP32">
					<dim>1</dim>
					<dim>512</dim>
					<dim>1</dim>
					<dim>1</dim>
				</port>
			</input>
			<output>
				<port id="2" precision="FP32" names="/backbone/backbone.0/body/layer2/layer2.0/downsample/downsample.1/Add_output_0">
					<dim>1</dim>
					<dim>512</dim>
					<dim>75</dim>
					<dim>100</dim>
				</port>
			</output>
		</layer>
		<layer id="339" name="/backbone/backbone.0/body/layer2/layer2.0/downsample/downsample.1/Add/fq_output_0/input_low" type="Const" version="opset1">
			<data element_type="f32" shape="" offset="1327688" size="4" />
			<output>
				<port id="0" precision="FP32" />
			</output>
		</layer>
		<layer id="340" name="/backbone/backbone.0/body/layer2/layer2.0/downsample/downsample.1/Add/fq_output_0/input_high" type="Const" version="opset1">
			<data element_type="f32" shape="" offset="1327692" size="4" />
			<output>
				<port id="0" precision="FP32" />
			</output>
		</layer>
		<layer id="341" name="/backbone/backbone.0/body/layer2/layer2.0/downsample/downsample.1/Add/fq_output_0/output_low" type="Const" version="opset1">
			<data element_type="f32" shape="" offset="1327688" size="4" />
			<output>
				<port id="0" precision="FP32" />
			</output>
		</layer>
		<layer id="342" name="/backbone/backbone.0/body/layer2/layer2.0/downsample/downsample.1/Add/fq_output_0/output_high" type="Const" version="opset1">
			<data element_type="f32" shape="" offset="1327692" size="4" />
			<output>
				<port id="0" precision="FP32" />
			</output>
		</layer>
		<layer id="343" name="/backbone/backbone.0/body/layer2/layer2.0/downsample/downsample.1/Add/fq_output_0" type="FakeQuantize" version="opset1">
			<data levels="256" auto_broadcast="numpy" />
			<input>
				<port id="0" precision="FP32">
					<dim>1</dim>
					<dim>512</dim>
					<dim>75</dim>
					<dim>100</dim>
				</port>
				<port id="1" precision="FP32" />
				<port id="2" precision="FP32" />
				<port id="3" precision="FP32" />
				<port id="4" precision="FP32" />
			</input>
			<output>
				<port id="5" precision="FP32">
					<dim>1</dim>
					<dim>512</dim>
					<dim>75</dim>
					<dim>100</dim>
				</port>
			</output>
		</layer>
		<layer id="344" name="/backbone/backbone.0/body/layer2/layer2.0/Add" type="Add" version="opset1">
			<data auto_broadcast="numpy" />
			<input>
				<port id="0" precision="FP32">
					<dim>1</dim>
					<dim>512</dim>
					<dim>75</dim>
					<dim>100</dim>
				</port>
				<port id="1" precision="FP32">
					<dim>1</dim>
					<dim>512</dim>
					<dim>75</dim>
					<dim>100</dim>
				</port>
			</input>
			<output>
				<port id="2" precision="FP32" names="/backbone/backbone.0/body/layer2/layer2.0/Add_output_0">
					<dim>1</dim>
					<dim>512</dim>
					<dim>75</dim>
					<dim>100</dim>
				</port>
			</output>
		</layer>
		<layer id="345" name="/backbone/backbone.0/body/layer2/layer2.0/relu_2/Relu" type="ReLU" version="opset1">
			<input>
				<port id="0" precision="FP32">
					<dim>1</dim>
					<dim>512</dim>
					<dim>75</dim>
					<dim>100</dim>
				</port>
			</input>
			<output>
				<port id="1" precision="FP32" names="/backbone/backbone.0/body/layer2/layer2.0/relu_2/Relu_output_0">
					<dim>1</dim>
					<dim>512</dim>
					<dim>75</dim>
					<dim>100</dim>
				</port>
			</output>
		</layer>
		<layer id="346" name="/backbone/backbone.0/body/layer2/layer2.0/relu_2/Relu/fq_output_0/input_low" type="Const" version="opset1">
			<data element_type="f32" shape="" offset="711804" size="4" />
			<output>
				<port id="0" precision="FP32" />
			</output>
		</layer>
		<layer id="347" name="/backbone/backbone.0/body/layer2/layer2.0/relu_2/Relu/fq_output_0/input_high" type="Const" version="opset1">
			<data element_type="f32" shape="" offset="1327696" size="4" />
			<output>
				<port id="0" precision="FP32" />
			</output>
		</layer>
		<layer id="348" name="/backbone/backbone.0/body/layer2/layer2.0/relu_2/Relu/fq_output_0/output_low" type="Const" version="opset1">
			<data element_type="f32" shape="" offset="711804" size="4" />
			<output>
				<port id="0" precision="FP32" />
			</output>
		</layer>
		<layer id="349" name="/backbone/backbone.0/body/layer2/layer2.0/relu_2/Relu/fq_output_0/output_high" type="Const" version="opset1">
			<data element_type="f32" shape="" offset="1327696" size="4" />
			<output>
				<port id="0" precision="FP32" />
			</output>
		</layer>
		<layer id="350" name="/backbone/backbone.0/body/layer2/layer2.0/relu_2/Relu/fq_output_0" type="FakeQuantize" version="opset1">
			<data levels="256" auto_broadcast="numpy" />
			<input>
				<port id="0" precision="FP32">
					<dim>1</dim>
					<dim>512</dim>
					<dim>75</dim>
					<dim>100</dim>
				</port>
				<port id="1" precision="FP32" />
				<port id="2" precision="FP32" />
				<port id="3" precision="FP32" />
				<port id="4" precision="FP32" />
			</input>
			<output>
				<port id="5" precision="FP32">
					<dim>1</dim>
					<dim>512</dim>
					<dim>75</dim>
					<dim>100</dim>
				</port>
			</output>
		</layer>
		<layer id="351" name="Constant_1491245" type="Const" version="opset1">
			<data element_type="i8" shape="128, 512, 1, 1" offset="1327700" size="65536" />
			<output>
				<port id="0" precision="I8">
					<dim>128</dim>
					<dim>512</dim>
					<dim>1</dim>
					<dim>1</dim>
				</port>
			</output>
		</layer>
		<layer id="352" name="Convert_1491246" type="Convert" version="opset1">
			<data destination_type="f32" />
			<input>
				<port id="0" precision="I8">
					<dim>128</dim>
					<dim>512</dim>
					<dim>1</dim>
					<dim>1</dim>
				</port>
			</input>
			<output>
				<port id="1" precision="FP32">
					<dim>128</dim>
					<dim>512</dim>
					<dim>1</dim>
					<dim>1</dim>
				</port>
			</output>
		</layer>
		<layer id="353" name="Constant_1491247" type="Const" version="opset1">
			<data element_type="f32" shape="128, 1, 1, 1" offset="1393236" size="512" />
			<output>
				<port id="0" precision="FP32">
					<dim>128</dim>
					<dim>1</dim>
					<dim>1</dim>
					<dim>1</dim>
				</port>
			</output>
		</layer>
		<layer id="354" name="/backbone/backbone.0/body/layer2/layer2.1/bn1/Mul/fq_weights_1" type="Multiply" version="opset1">
			<data auto_broadcast="numpy" />
			<input>
				<port id="0" precision="FP32">
					<dim>128</dim>
					<dim>512</dim>
					<dim>1</dim>
					<dim>1</dim>
				</port>
				<port id="1" precision="FP32">
					<dim>128</dim>
					<dim>1</dim>
					<dim>1</dim>
					<dim>1</dim>
				</port>
			</input>
			<output>
				<port id="2" precision="FP32">
					<dim>128</dim>
					<dim>512</dim>
					<dim>1</dim>
					<dim>1</dim>
				</port>
			</output>
		</layer>
		<layer id="355" name="/backbone/backbone.0/body/layer2/layer2.1/bn1/Mul" type="Convolution" version="opset1">
			<data strides="1, 1" dilations="1, 1" pads_begin="0, 0" pads_end="0, 0" auto_pad="explicit" />
			<input>
				<port id="0" precision="FP32">
					<dim>1</dim>
					<dim>512</dim>
					<dim>75</dim>
					<dim>100</dim>
				</port>
				<port id="1" precision="FP32">
					<dim>128</dim>
					<dim>512</dim>
					<dim>1</dim>
					<dim>1</dim>
				</port>
			</input>
			<output>
				<port id="2" precision="FP32" names="/backbone/backbone.0/body/layer2/layer2.1/bn1/Mul_output_0">
					<dim>1</dim>
					<dim>128</dim>
					<dim>75</dim>
					<dim>100</dim>
				</port>
			</output>
		</layer>
		<layer id="356" name="onnx::Add_4755_compressed" type="Const" version="opset1">
			<data element_type="f16" shape="1, 128, 1, 1" offset="1393748" size="256" />
			<output>
				<port id="0" precision="FP16">
					<dim>1</dim>
					<dim>128</dim>
					<dim>1</dim>
					<dim>1</dim>
				</port>
			</output>
		</layer>
		<layer id="357" name="onnx::Add_4755" type="Convert" version="opset1">
			<data destination_type="f32" />
			<rt_info>
				<attribute name="decompression" version="0" />
			</rt_info>
			<input>
				<port id="0" precision="FP16">
					<dim>1</dim>
					<dim>128</dim>
					<dim>1</dim>
					<dim>1</dim>
				</port>
			</input>
			<output>
				<port id="1" precision="FP32" names="onnx::Add_4755">
					<dim>1</dim>
					<dim>128</dim>
					<dim>1</dim>
					<dim>1</dim>
				</port>
			</output>
		</layer>
		<layer id="358" name="/backbone/backbone.0/body/layer2/layer2.1/bn1/Add" type="Add" version="opset1">
			<data auto_broadcast="numpy" />
			<input>
				<port id="0" precision="FP32">
					<dim>1</dim>
					<dim>128</dim>
					<dim>75</dim>
					<dim>100</dim>
				</port>
				<port id="1" precision="FP32">
					<dim>1</dim>
					<dim>128</dim>
					<dim>1</dim>
					<dim>1</dim>
				</port>
			</input>
			<output>
				<port id="2" precision="FP32" names="/backbone/backbone.0/body/layer2/layer2.1/bn1/Add_output_0">
					<dim>1</dim>
					<dim>128</dim>
					<dim>75</dim>
…
		<edge from-layer="3175" from-port="2" to-layer="3178" to-port="0" />
		<edge from-layer="3176" from-port="0" to-layer="3177" to-port="0" />
		<edge from-layer="3177" from-port="1" to-layer="3178" to-port="1" />
		<edge from-layer="3178" from-port="2" to-layer="3181" to-port="0" />
		<edge from-layer="3179" from-port="0" to-layer="3180" to-port="0" />
		<edge from-layer="3180" from-port="1" to-layer="3181" to-port="1" />
		<edge from-layer="3181" from-port="2" to-layer="3186" to-port="0" />
		<edge from-layer="3182" from-port="0" to-layer="3186" to-port="1" />
		<edge from-layer="3183" from-port="0" to-layer="3186" to-port="2" />
		<edge from-layer="3184" from-port="0" to-layer="3186" to-port="3" />
		<edge from-layer="3185" from-port="0" to-layer="3186" to-port="4" />
		<edge from-layer="3186" from-port="5" to-layer="3188" to-port="0" />
		<edge from-layer="3187" from-port="0" to-layer="3188" to-port="1" />
		<edge from-layer="3188" from-port="2" to-layer="3805" to-port="3" />
		<edge from-layer="3189" from-port="0" to-layer="3190" to-port="0" />
		<edge from-layer="3190" from-port="1" to-layer="3202" to-port="0" />
		<edge from-layer="3191" from-port="2" to-layer="3196" to-port="0" />
		<edge from-layer="3192" from-port="0" to-layer="3196" to-port="1" />
		<edge from-layer="3193" from-port="0" to-layer="3196" to-port="2" />
		<edge from-layer="3194" from-port="0" to-layer="3196" to-port="3" />
		<edge from-layer="3195" from-port="0" to-layer="3196" to-port="4" />
		<edge from-layer="3196" from-port="5" to-layer="3226" to-port="0" />
		<edge from-layer="3196" from-port="5" to-layer="3201" to-port="0" />
		<edge from-layer="3197" from-port="0" to-layer="3198" to-port="0" />
		<edge from-layer="3198" from-port="1" to-layer="3200" to-port="0" />
		<edge from-layer="3199" from-port="0" to-layer="3200" to-port="1" />
		<edge from-layer="3200" from-port="2" to-layer="3201" to-port="1" />
		<edge from-layer="3201" from-port="2" to-layer="3202" to-port="1" />
		<edge from-layer="3202" from-port="2" to-layer="3207" to-port="0" />
		<edge from-layer="3203" from-port="0" to-layer="3207" to-port="1" />
		<edge from-layer="3204" from-port="0" to-layer="3207" to-port="2" />
		<edge from-layer="3205" from-port="0" to-layer="3207" to-port="3" />
		<edge from-layer="3206" from-port="0" to-layer="3207" to-port="4" />
		<edge from-layer="3207" from-port="5" to-layer="3209" to-port="0" />
		<edge from-layer="3208" from-port="0" to-layer="3209" to-port="1" />
		<edge from-layer="3209" from-port="2" to-layer="3211" to-port="0" />
		<edge from-layer="3210" from-port="0" to-layer="3211" to-port="1" />
		<edge from-layer="3211" from-port="2" to-layer="3214" to-port="0" />
		<edge from-layer="3212" from-port="0" to-layer="3213" to-port="0" />
		<edge from-layer="3213" from-port="1" to-layer="3214" to-port="1" />
		<edge from-layer="3214" from-port="2" to-layer="3219" to-port="0" />
		<edge from-layer="3215" from-port="0" to-layer="3219" to-port="1" />
		<edge from-layer="3216" from-port="0" to-layer="3219" to-port="2" />
		<edge from-layer="3217" from-port="0" to-layer="3219" to-port="3" />
		<edge from-layer="3218" from-port="0" to-layer="3219" to-port="4" />
		<edge from-layer="3219" from-port="5" to-layer="3237" to-port="0" />
		<edge from-layer="3220" from-port="0" to-layer="3221" to-port="0" />
		<edge from-layer="3221" from-port="1" to-layer="3227" to-port="0" />
		<edge from-layer="3222" from-port="0" to-layer="3223" to-port="0" />
		<edge from-layer="3223" from-port="1" to-layer="3225" to-port="0" />
		<edge from-layer="3224" from-port="0" to-layer="3225" to-port="1" />
		<edge from-layer="3225" from-port="2" to-layer="3226" to-port="1" />
		<edge from-layer="3226" from-port="2" to-layer="3227" to-port="1" />
		<edge from-layer="3227" from-port="2" to-layer="3232" to-port="0" />
		<edge from-layer="3228" from-port="0" to-layer="3232" to-port="1" />
		<edge from-layer="3229" from-port="0" to-layer="3232" to-port="2" />
		<edge from-layer="3230" from-port="0" to-layer="3232" to-port="3" />
		<edge from-layer="3231" from-port="0" to-layer="3232" to-port="4" />
		<edge from-layer="3232" from-port="5" to-layer="3234" to-port="0" />
		<edge from-layer="3233" from-port="0" to-layer="3234" to-port="1" />
		<edge from-layer="3234" from-port="2" to-layer="3236" to-port="0" />
		<edge from-layer="3235" from-port="0" to-layer="3236" to-port="1" />
		<edge from-layer="3236" from-port="2" to-layer="3237" to-port="1" />
		<edge from-layer="3237" from-port="2" to-layer="3238" to-port="0" />
		<edge from-layer="3238" from-port="1" to-layer="3243" to-port="0" />
		<edge from-layer="3239" from-port="0" to-layer="3243" to-port="1" />
		<edge from-layer="3240" from-port="0" to-layer="3243" to-port="2" />
		<edge from-layer="3241" from-port="0" to-layer="3243" to-port="3" />
		<edge from-layer="3242" from-port="0" to-layer="3243" to-port="4" />
		<edge from-layer="3243" from-port="5" to-layer="3261" to-port="0" />
		<edge from-layer="3244" from-port="0" to-layer="3245" to-port="0" />
		<edge from-layer="3245" from-port="1" to-layer="3251" to-port="0" />
		<edge from-layer="3246" from-port="0" to-layer="3247" to-port="0" />
		<edge from-layer="3247" from-port="1" to-layer="3249" to-port="0" />
		<edge from-layer="3248" from-port="0" to-layer="3249" to-port="1" />
		<edge from-layer="3249" from-port="2" to-layer="3250" to-port="1" />
		<edge from-layer="3250" from-port="2" to-layer="3251" to-port="1" />
		<edge from-layer="3251" from-port="2" to-layer="3256" to-port="0" />
		<edge from-layer="3252" from-port="0" to-layer="3256" to-port="1" />
		<edge from-layer="3253" from-port="0" to-layer="3256" to-port="2" />
		<edge from-layer="3254" from-port="0" to-layer="3256" to-port="3" />
		<edge from-layer="3255" from-port="0" to-layer="3256" to-port="4" />
		<edge from-layer="3256" from-port="5" to-layer="3258" to-port="0" />
		<edge from-layer="3257" from-port="0" to-layer="3258" to-port="1" />
		<edge from-layer="3258" from-port="2" to-layer="3260" to-port="0" />
		<edge from-layer="3259" from-port="0" to-layer="3260" to-port="1" />
		<edge from-layer="3260" from-port="2" to-layer="3261" to-port="1" />
		<edge from-layer="3261" from-port="2" to-layer="3266" to-port="0" />
		<edge from-layer="3262" from-port="0" to-layer="3266" to-port="1" />
		<edge from-layer="3263" from-port="0" to-layer="3266" to-port="2" />
		<edge from-layer="3264" from-port="0" to-layer="3266" to-port="3" />
		<edge from-layer="3265" from-port="0" to-layer="3266" to-port="4" />
		<edge from-layer="3266" from-port="5" to-layer="3268" to-port="0" />
		<edge from-layer="3267" from-port="0" to-layer="3268" to-port="1" />
		<edge from-layer="3268" from-port="2" to-layer="3277" to-port="0" />
		<edge from-layer="3269" from-port="0" to-layer="3276" to-port="0" />
		<edge from-layer="3270" from-port="0" to-layer="3271" to-port="0" />
		<edge from-layer="3271" from-port="1" to-layer="3272" to-port="0" />
		<edge from-layer="3272" from-port="1" to-layer="3275" to-port="0" />
		<edge from-layer="3273" from-port="0" to-layer="3275" to-port="1" />
		<edge from-layer="3274" from-port="0" to-layer="3275" to-port="2" />
		<edge from-layer="3275" from-port="3" to-layer="3276" to-port="1" />
		<edge from-layer="3276" from-port="2" to-layer="3277" to-port="1" />
		<edge from-layer="3277" from-port="2" to-layer="3282" to-port="0" />
		<edge from-layer="3278" from-port="0" to-layer="3279" to-port="0" />
		<edge from-layer="3279" from-port="1" to-layer="3281" to-port="0" />
		<edge from-layer="3280" from-port="0" to-layer="3281" to-port="1" />
		<edge from-layer="3281" from-port="2" to-layer="3282" to-port="1" />
		<edge from-layer="3282" from-port="2" to-layer="3285" to-port="0" />
		<edge from-layer="3283" from-port="0" to-layer="3284" to-port="0" />
		<edge from-layer="3284" from-port="1" to-layer="3285" to-port="1" />
		<edge from-layer="3285" from-port="2" to-layer="3290" to-port="0" />
		<edge from-layer="3286" from-port="0" to-layer="3290" to-port="1" />
		<edge from-layer="3287" from-port="0" to-layer="3290" to-port="2" />
		<edge from-layer="3288" from-port="0" to-layer="3290" to-port="3" />
		<edge from-layer="3289" from-port="0" to-layer="3290" to-port="4" />
		<edge from-layer="3290" from-port="5" to-layer="3292" to-port="0" />
		<edge from-layer="3291" from-port="0" to-layer="3292" to-port="1" />
		<edge from-layer="3292" from-port="2" to-layer="3293" to-port="1" />
		<edge from-layer="3293" from-port="2" to-layer="3298" to-port="0" />
		<edge from-layer="3294" from-port="0" to-layer="3298" to-port="1" />
		<edge from-layer="3295" from-port="0" to-layer="3298" to-port="2" />
		<edge from-layer="3296" from-port="0" to-layer="3298" to-port="3" />
		<edge from-layer="3297" from-port="0" to-layer="3298" to-port="4" />
		<edge from-layer="3298" from-port="5" to-layer="3300" to-port="0" />
		<edge from-layer="3299" from-port="0" to-layer="3300" to-port="1" />
		<edge from-layer="3300" from-port="2" to-layer="3303" to-port="0" />
		<edge from-layer="3301" from-port="0" to-layer="3302" to-port="0" />
		<edge from-layer="3302" from-port="1" to-layer="3303" to-port="1" />
		<edge from-layer="3303" from-port="2" to-layer="3306" to-port="0" />
		<edge from-layer="3304" from-port="0" to-layer="3305" to-port="0" />
		<edge from-layer="3305" from-port="1" to-layer="3306" to-port="1" />
		<edge from-layer="3306" from-port="2" to-layer="3311" to-port="0" />
		<edge from-layer="3307" from-port="0" to-layer="3311" to-port="1" />
		<edge from-layer="3308" from-port="0" to-layer="3311" to-port="2" />
		<edge from-layer="3309" from-port="0" to-layer="3311" to-port="3" />
		<edge from-layer="3310" from-port="0" to-layer="3311" to-port="4" />
		<edge from-layer="3311" from-port="5" to-layer="3314" to-port="0" />
		<edge from-layer="3311" from-port="5" to-layer="3417" to-port="0" />
		<edge from-layer="3312" from-port="0" to-layer="3313" to-port="0" />
		<edge from-layer="3313" from-port="1" to-layer="3325" to-port="0" />
		<edge from-layer="3314" from-port="2" to-layer="3319" to-port="0" />
		<edge from-layer="3315" from-port="0" to-layer="3319" to-port="1" />
		<edge from-layer="3316" from-port="0" to-layer="3319" to-port="2" />
		<edge from-layer="3317" from-port="0" to-layer="3319" to-port="3" />
		<edge from-layer="3318" from-port="0" to-layer="3319" to-port="4" />
		<edge from-layer="3319" from-port="5" to-layer="3324" to-port="0" />
		<edge from-layer="3320" from-port="0" to-layer="3321" to-port="0" />
		<edge from-layer="3321" from-port="1" to-layer="3323" to-port="0" />
		<edge from-layer="3322" from-port="0" to-layer="3323" to-port="1" />
		<edge from-layer="3323" from-port="2" to-layer="3324" to-port="1" />
		<edge from-layer="3324" from-port="2" to-layer="3325" to-port="1" />
		<edge from-layer="3325" from-port="2" to-layer="3330" to-port="0" />
		<edge from-layer="3326" from-port="0" to-layer="3330" to-port="1" />
		<edge from-layer="3327" from-port="0" to-layer="3330" to-port="2" />
		<edge from-layer="3328" from-port="0" to-layer="3330" to-port="3" />
		<edge from-layer="3329" from-port="0" to-layer="3330" to-port="4" />
		<edge from-layer="3330" from-port="5" to-layer="3332" to-port="0" />
		<edge from-layer="3331" from-port="0" to-layer="3332" to-port="1" />
		<edge from-layer="3332" from-port="2" to-layer="3334" to-port="0" />
		<edge from-layer="3333" from-port="0" to-layer="3334" to-port="1" />
		<edge from-layer="3334" from-port="2" to-layer="3337" to-port="0" />
		<edge from-layer="3335" from-port="0" to-layer="3336" to-port="0" />
		<edge from-layer="3336" from-port="1" to-layer="3337" to-port="1" />
		<edge from-layer="3337" from-port="2" to-layer="3342" to-port="0" />
		<edge from-layer="3338" from-port="0" to-layer="3342" to-port="1" />
		<edge from-layer="3339" from-port="0" to-layer="3342" to-port="2" />
		<edge from-layer="3340" from-port="0" to-layer="3342" to-port="3" />
		<edge from-layer="3341" from-port="0" to-layer="3342" to-port="4" />
		<edge from-layer="3342" from-port="5" to-layer="3360" to-port="0" />
		<edge from-layer="3343" from-port="0" to-layer="3344" to-port="0" />
		<edge from-layer="3344" from-port="1" to-layer="3350" to-port="0" />
		<edge from-layer="3345" from-port="0" to-layer="3346" to-port="0" />
		<edge from-layer="3346" from-port="1" to-layer="3348" to-port="0" />
		<edge from-layer="3347" from-port="0" to-layer="3348" to-port="1" />
		<edge from-layer="3348" from-port="2" to-layer="3349" to-port="1" />
		<edge from-layer="3349" from-port="2" to-layer="3350" to-port="1" />
		<edge from-layer="3350" from-port="2" to-layer="3355" to-port="0" />
		<edge from-layer="3351" from-port="0" to-layer="3355" to-port="1" />
		<edge from-layer="3352" from-port="0" to-layer="3355" to-port="2" />
		<edge from-layer="3353" from-port="0" to-layer="3355" to-port="3" />
		<edge from-layer="3354" from-port="0" to-layer="3355" to-port="4" />
		<edge from-layer="3355" from-port="5" to-layer="3357" to-port="0" />
		<edge from-layer="3356" from-port="0" to-layer="3357" to-port="1" />
		<edge from-layer="3357" from-port="2" to-layer="3359" to-port="0" />
		<edge from-layer="3358" from-port="0" to-layer="3359" to-port="1" />
		<edge from-layer="3359" from-port="2" to-layer="3360" to-port="1" />
		<edge from-layer="3360" from-port="2" to-layer="3361" to-port="0" />
		<edge from-layer="3361" from-port="2" to-layer="3362" to-port="0" />
		<edge from-layer="3362" from-port="1" to-layer="3367" to-port="0" />
		<edge from-layer="3363" from-port="0" to-layer="3367" to-port="1" />
		<edge from-layer="3364" from-port="0" to-layer="3367" to-port="2" />
		<edge from-layer="3365" from-port="0" to-layer="3367" to-port="3" />
		<edge from-layer="3366" from-port="0" to-layer="3367" to-port="4" />
		<edge from-layer="3367" from-port="5" to-layer="3385" to-port="0" />
		<edge from-layer="3368" from-port="0" to-layer="3369" to-port="0" />
		<edge from-layer="3369" from-port="1" to-layer="3375" to-port="0" />
		<edge from-layer="3370" from-port="0" to-layer="3371" to-port="0" />
		<edge from-layer="3371" from-port="1" to-layer="3373" to-port="0" />
		<edge from-layer="3372" from-port="0" to-layer="3373" to-port="1" />
		<edge from-layer="3373" from-port="2" to-layer="3374" to-port="1" />
		<edge from-layer="3374" from-port="2" to-layer="3375" to-port="1" />
		<edge from-layer="3375" from-port="2" to-layer="3380" to-port="0" />
		<edge from-layer="3376" from-port="0" to-layer="3380" to-port="1" />
		<edge from-layer="3377" from-port="0" to-layer="3380" to-port="2" />
		<edge from-layer="3378" from-port="0" to-layer="3380" to-port="3" />
		<edge from-layer="3379" from-port="0" to-layer="3380" to-port="4" />
		<edge from-layer="3380" from-port="5" to-layer="3382" to-port="0" />
		<edge from-layer="3381" from-port="0" to-layer="3382" to-port="1" />
		<edge from-layer="3382" from-port="2" to-layer="3384" to-port="0" />
		<edge from-layer="3383" from-port="0" to-layer="3384" to-port="1" />
		<edge from-layer="3384" from-port="2" to-layer="3385" to-port="1" />
		<edge from-layer="3385" from-port="2" to-layer="3390" to-port="0" />
		<edge from-layer="3386" from-port="0" to-layer="3390" to-port="1" />
		<edge from-layer="3387" from-port="0" to-layer="3390" to-port="2" />
		<edge from-layer="3388" from-port="0" to-layer="3390" to-port="3" />
		<edge from-layer="3389" from-port="0" to-layer="3390" to-port="4" />
		<edge from-layer="3390" from-port="5" to-layer="3392" to-port="0" />
		<edge from-layer="3391" from-port="0" to-layer="3392" to-port="1" />
		<edge from-layer="3392" from-port="2" to-layer="3401" to-port="0" />
		<edge from-layer="3393" from-port="0" to-layer="3400" to-port="0" />
		<edge from-layer="3394" from-port="0" to-layer="3395" to-port="0" />
		<edge from-layer="3395" from-port="1" to-layer="3396" to-port="0" />
		<edge from-layer="3396" from-port="1" to-layer="3399" to-port="0" />
		<edge from-layer="3397" from-port="0" to-layer="3399" to-port="1" />
		<edge from-layer="3398" from-port="0" to-layer="3399" to-port="2" />
		<edge from-layer="3399" from-port="3" to-layer="3400" to-port="1" />
		<edge from-layer="3400" from-port="2" to-layer="3401" to-port="1" />
		<edge from-layer="3401" from-port="2" to-layer="3406" to-port="0" />
		<edge from-layer="3402" from-port="0" to-layer="3403" to-port="0" />
		<edge from-layer="3403" from-port="1" to-layer="3405" to-port="0" />
		<edge from-layer="3404" from-port="0" to-layer="3405" to-port="1" />
		<edge from-layer="3405" from-port="2" to-layer="3406" to-port="1" />
		<edge from-layer="3406" from-port="2" to-layer="3409" to-port="0" />
		<edge from-layer="3407" from-port="0" to-layer="3408" to-port="0" />
		<edge from-layer="3408" from-port="1" to-layer="3409" to-port="1" />
		<edge from-layer="3409" from-port="2" to-layer="3414" to-port="0" />
		<edge from-layer="3410" from-port="0" to-layer="3414" to-port="1" />
		<edge from-layer="3411" from-port="0" to-layer="3414" to-port="2" />
		<edge from-layer="3412" from-port="0" to-layer="3414" to-port="3" />
		<edge from-layer="3413" from-port="0" to-layer="3414" to-port="4" />
		<edge from-layer="3414" from-port="5" to-layer="3416" to-port="0" />
		<edge from-layer="3415" from-port="0" to-layer="3416" to-port="1" />
		<edge from-layer="3416" from-port="2" to-layer="3417" to-port="1" />
		<edge from-layer="3417" from-port="2" to-layer="3422" to-port="0" />
		<edge from-layer="3418" from-port="0" to-layer="3422" to-port="1" />
		<edge from-layer="3419" from-port="0" to-layer="3422" to-port="2" />
		<edge from-layer="3420" from-port="0" to-layer="3422" to-port="3" />
		<edge from-layer="3421" from-port="0" to-layer="3422" to-port="4" />
		<edge from-layer="3422" from-port="5" to-layer="3424" to-port="0" />
		<edge from-layer="3423" from-port="0" to-layer="3424" to-port="1" />
		<edge from-layer="3424" from-port="2" to-layer="3427" to-port="0" />
		<edge from-layer="3425" from-port="0" to-layer="3426" to-port="0" />
		<edge from-layer="3426" from-port="1" to-layer="3427" to-port="1" />
		<edge from-layer="3427" from-port="2" to-layer="3430" to-port="0" />
		<edge from-layer="3428" from-port="0" to-layer="3429" to-port="0" />
		<edge from-layer="3429" from-port="1" to-layer="3430" to-port="1" />
		<edge from-layer="3430" from-port="2" to-layer="3435" to-port="0" />
		<edge from-layer="3431" from-port="0" to-layer="3435" to-port="1" />
		<edge from-layer="3432" from-port="0" to-layer="3435" to-port="2" />
		<edge from-layer="3433" from-port="0" to-layer="3435" to-port="3" />
		<edge from-layer="3434" from-port="0" to-layer="3435" to-port="4" />
		<edge from-layer="3435" from-port="5" to-layer="3444" to-port="0" />
		<edge from-layer="3435" from-port="5" to-layer="3463" to-port="0" />
		<edge from-layer="3436" from-port="0" to-layer="3437" to-port="0" />
		<edge from-layer="3437" from-port="1" to-layer="3457" to-port="0" />
		<edge from-layer="3438" from-port="0" to-layer="3439" to-port="0" />
		<edge from-layer="3439" from-port="1" to-layer="3445" to-port="0" />
		<edge from-layer="3440" from-port="0" to-layer="3441" to-port="0" />
		<edge from-layer="3441" from-port="1" to-layer="3443" to-port="0" />
		<edge from-layer="3442" from-port="0" to-layer="3443" to-port="1" />
		<edge from-layer="3443" from-port="2" to-layer="3444" to-port="1" />
		<edge from-layer="3444" from-port="2" to-layer="3445" to-port="1" />
		<edge from-layer="3445" from-port="2" to-layer="3446" to-port="0" />
		<edge from-layer="3446" from-port="1" to-layer="3451" to-port="0" />
		<edge from-layer="3447" from-port="0" to-layer="3451" to-port="1" />
		<edge from-layer="3448" from-port="0" to-layer="3451" to-port="2" />
		<edge from-layer="3449" from-port="0" to-layer="3451" to-port="3" />
		<edge from-layer="3450" from-port="0" to-layer="3451" to-port="4" />
		<edge from-layer="3451" from-port="5" to-layer="3456" to-port="0" />
		<edge from-layer="3452" from-port="0" to-layer="3453" to-port="0" />
		<edge from-layer="3453" from-port="1" to-layer="3455" to-port="0" />
		<edge from-layer="3454" from-port="0" to-layer="3455" to-port="1" />
		<edge from-layer="3455" from-port="2" to-layer="3456" to-port="1" />
		<edge from-layer="3456" from-port="2" to-layer="3457" to-port="1" />
		<edge from-layer="3457" from-port="2" to-layer="3462" to-port="0" />
		<edge from-layer="3458" from-port="0" to-layer="3462" to-port="1" />
		<edge from-layer="3459" from-port="0" to-layer="3462" to-port="2" />
		<edge from-layer="3460" from-port="0" to-layer="3462" to-port="3" />
		<edge from-layer="3461" from-port="0" to-layer="3462" to-port="4" />
		<edge from-layer="3462" from-port="5" to-layer="3463" to-port="1" />
		<edge from-layer="3463" from-port="2" to-layer="3468" to-port="0" />
		<edge from-layer="3464" from-port="0" to-layer="3468" to-port="1" />
		<edge from-layer="3465" from-port="0" to-layer="3468" to-port="2" />
		<edge from-layer="3466" from-port="0" to-layer="3468" to-port="3" />
		<edge from-layer="3467" from-port="0" to-layer="3468" to-port="4" />
		<edge from-layer="3468" from-port="5" to-layer="3470" to-port="0" />
		<edge from-layer="3469" from-port="0" to-layer="3470" to-port="1" />
		<edge from-layer="3470" from-port="2" to-layer="3473" to-port="0" />
		<edge from-layer="3471" from-port="0" to-layer="3472" to-port="0" />
		<edge from-layer="3472" from-port="1" to-layer="3473" to-port="1" />
		<edge from-layer="3473" from-port="2" to-layer="3476" to-port="0" />
		<edge from-layer="3474" from-port="0" to-layer="3475" to-port="0" />
		<edge from-layer="3475" from-port="1" to-layer="3476" to-port="1" />
		<edge from-layer="3476" from-port="2" to-layer="3481" to-port="0" />
		<edge from-layer="3477" from-port="0" to-layer="3481" to-port="1" />
		<edge from-layer="3478" from-port="0" to-layer="3481" to-port="2" />
		<edge from-layer="3479" from-port="0" to-layer="3481" to-port="3" />
		<edge from-layer="3480" from-port="0" to-layer="3481" to-port="4" />
		<edge from-layer="3481" from-port="5" to-layer="3601" to-port="0" />
		<edge from-layer="3481" from-port="5" to-layer="3558" to-port="0" />
		<edge from-layer="3481" from-port="5" to-layer="3499" to-port="0" />
		<edge from-layer="3481" from-port="5" to-layer="3483" to-port="0" />
		<edge from-layer="3482" from-port="0" to-layer="3483" to-port="1" />
		<edge from-layer="3483" from-port="2" to-layer="3486" to-port="0" />
		<edge from-layer="3484" from-port="0" to-layer="3485" to-port="0" />
		<edge from-layer="3485" from-port="1" to-layer="3486" to-port="1" />
		<edge from-layer="3486" from-port="2" to-layer="3489" to-port="0" />
		<edge from-layer="3487" from-port="0" to-layer="3488" to-port="0" />
		<edge from-layer="3488" from-port="1" to-layer="3489" to-port="1" />
		<edge from-layer="3489" from-port="2" to-layer="3494" to-port="0" />
		<edge from-layer="3490" from-port="0" to-layer="3494" to-port="1" />
		<edge from-layer="3491" from-port="0" to-layer="3494" to-port="2" />
		<edge from-layer="3492" from-port="0" to-layer="3494" to-port="3" />
		<edge from-layer="3493" from-port="0" to-layer="3494" to-port="4" />
		<edge from-layer="3494" from-port="5" to-layer="3496" to-port="0" />
		<edge from-layer="3495" from-port="0" to-layer="3496" to-port="1" />
		<edge from-layer="3496" from-port="2" to-layer="3805" to-port="4" />
		<edge from-layer="3497" from-port="0" to-layer="3498" to-port="0" />
		<edge from-layer="3498" from-port="1" to-layer="3510" to-port="0" />
		<edge from-layer="3499" from-port="2" to-layer="3504" to-port="0" />
		<edge from-layer="3500" from-port="0" to-layer="3504" to-port="1" />
		<edge from-layer="3501" from-port="0" to-layer="3504" to-port="2" />
		<edge from-layer="3502" from-port="0" to-layer="3504" to-port="3" />
		<edge from-layer="3503" from-port="0" to-layer="3504" to-port="4" />
		<edge from-layer="3504" from-port="5" to-layer="3534" to-port="0" />
		<edge from-layer="3504" from-port="5" to-layer="3509" to-port="0" />
		<edge from-layer="3505" from-port="0" to-layer="3506" to-port="0" />
		<edge from-layer="3506" from-port="1" to-layer="3508" to-port="0" />
		<edge from-layer="3507" from-port="0" to-layer="3508" to-port="1" />
		<edge from-layer="3508" from-port="2" to-layer="3509" to-port="1" />
		<edge from-layer="3509" from-port="2" to-layer="3510" to-port="1" />
		<edge from-layer="3510" from-port="2" to-layer="3515" to-port="0" />
		<edge from-layer="3511" from-port="0" to-layer="3515" to-port="1" />
		<edge from-layer="3512" from-port="0" to-layer="3515" to-port="2" />
		<edge from-layer="3513" from-port="0" to-layer="3515" to-port="3" />
		<edge from-layer="3514" from-port="0" to-layer="3515" to-port="4" />
		<edge from-layer="3515" from-port="5" to-layer="3517" to-port="0" />
		<edge from-layer="3516" from-port="0" to-layer="3517" to-port="1" />
		<edge from-layer="3517" from-port="2" to-layer="3519" to-port="0" />
		<edge from-layer="3518" from-port="0" to-layer="3519" to-port="1" />
		<edge from-layer="3519" from-port="2" to-layer="3522" to-port="0" />
		<edge from-layer="3520" from-port="0" to-layer="3521" to-port="0" />
		<edge from-layer="3521" from-port="1" to-layer="3522" to-port="1" />
		<edge from-layer="3522" from-port="2" to-layer="3527" to-port="0" />
		<edge from-layer="3523" from-port="0" to-layer="3527" to-port="1" />
		<edge from-layer="3524" from-port="0" to-layer="3527" to-port="2" />
		<edge from-layer="3525" from-port="0" to-layer="3527" to-port="3" />
		<edge from-layer="3526" from-port="0" to-layer="3527" to-port="4" />
		<edge from-layer="3527" from-port="5" to-layer="3545" to-port="0" />
		<edge from-layer="3528" from-port="0" to-layer="3529" to-port="0" />
		<edge from-layer="3529" from-port="1" to-layer="3535" to-port="0" />
		<edge from-layer="3530" from-port="0" to-layer="3531" to-port="0" />
		<edge from-layer="3531" from-port="1" to-layer="3533" to-port="0" />
		<edge from-layer="3532" from-port="0" to-layer="3533" to-port="1" />
		<edge from-layer="3533" from-port="2" to-layer="3534" to-port="1" />
		<edge from-layer="3534" from-port="2" to-layer="3535" to-port="1" />
		<edge from-layer="3535" from-port="2" to-layer="3540" to-port="0" />
		<edge from-layer="3536" from-port="0" to-layer="3540" to-port="1" />
		<edge from-layer="3537" from-port="0" to-layer="3540" to-port="2" />
		<edge from-layer="3538" from-port="0" to-layer="3540" to-port="3" />
		<edge from-layer="3539" from-port="0" to-layer="3540" to-port="4" />
		<edge from-layer="3540" from-port="5" to-layer="3542" to-port="0" />
		<edge from-layer="3541" from-port="0" to-layer="3542" to-port="1" />
		<edge from-layer="3542" from-port="2" to-layer="3544" to-port="0" />
		<edge from-layer="3543" from-port="0" to-layer="3544" to-port="1" />
		<edge from-layer="3544" from-port="2" to-layer="3545" to-port="1" />
		<edge from-layer="3545" from-port="2" to-layer="3546" to-port="0" />
		<edge from-layer="3546" from-port="1" to-layer="3551" to-port="0" />
		<edge from-layer="3547" from-port="0" to-layer="3551" to-port="1" />
		<edge from-layer="3548" from-port="0" to-layer="3551" to-port="2" />
		<edge from-layer="3549" from-port="0" to-layer="3551" to-port="3" />
		<edge from-layer="3550" from-port="0" to-layer="3551" to-port="4" />
		<edge from-layer="3551" from-port="5" to-layer="3569" to-port="0" />
		<edge from-layer="3552" from-port="0" to-layer="3553" to-port="0" />
		<edge from-layer="3553" from-port="1" to-layer="3559" to-port="0" />
		<edge from-layer="3554" from-port="0" to-layer="3555" to-port="0" />
		<edge from-layer="3555" from-port="1" to-layer="3557" to-port="0" />
		<edge from-layer="3556" from-port="0" to-layer="3557" to-port="1" />
		<edge from-layer="3557" from-port="2" to-layer="3558" to-port="1" />
		<edge from-layer="3558" from-port="2" to-layer="3559" to-port="1" />
		<edge from-layer="3559" from-port="2" to-layer="3564" to-port="0" />
		<edge from-layer="3560" from-port="0" to-layer="3564" to-port="1" />
		<edge from-layer="3561" from-port="0" to-layer="3564" to-port="2" />
		<edge from-layer="3562" from-port="0" to-layer="3564" to-port="3" />
		<edge from-layer="3563" from-port="0" to-layer="3564" to-port="4" />
		<edge from-layer="3564" from-port="5" to-layer="3566" to-port="0" />
		<edge from-layer="3565" from-port="0" to-layer="3566" to-port="1" />
		<edge from-layer="3566" from-port="2" to-layer="3568" to-port="0" />
		<edge from-layer="3567" from-port="0" to-layer="3568" to-port="1" />
		<edge from-layer="3568" from-port="2" to-layer="3569" to-port="1" />
		<edge from-layer="3569" from-port="2" to-layer="3574" to-port="0" />
		<edge from-layer="3570" from-port="0" to-layer="3574" to-port="1" />
		<edge from-layer="3571" from-port="0" to-layer="3574" to-port="2" />
		<edge from-layer="3572" from-port="0" to-layer="3574" to-port="3" />
		<edge from-layer="3573" from-port="0" to-layer="3574" to-port="4" />
		<edge from-layer="3574" from-port="5" to-layer="3576" to-port="0" />
		<edge from-layer="3575" from-port="0" to-layer="3576" to-port="1" />
		<edge from-layer="3576" from-port="2" to-layer="3585" to-port="0" />
		<edge from-layer="3577" from-port="0" to-layer="3584" to-port="0" />
		<edge from-layer="3578" from-port="0" to-layer="3579" to-port="0" />
		<edge from-layer="3579" from-port="1" to-layer="3580" to-port="0" />
		<edge from-layer="3580" from-port="1" to-layer="3583" to-port="0" />
		<edge from-layer="3581" from-port="0" to-layer="3583" to-port="1" />
		<edge from-layer="3582" from-port="0" to-layer="3583" to-port="2" />
		<edge from-layer="3583" from-port="3" to-layer="3584" to-port="1" />
		<edge from-layer="3584" from-port="2" to-layer="3585" to-port="1" />
		<edge from-layer="3585" from-port="2" to-layer="3590" to-port="0" />
		<edge from-layer="3586" from-port="0" to-layer="3587" to-port="0" />
		<edge from-layer="3587" from-port="1" to-layer="3589" to-port="0" />
		<edge from-layer="3588" from-port="0" to-layer="3589" to-port="1" />
		<edge from-layer="3589" from-port="2" to-layer="3590" to-port="1" />
		<edge from-layer="3590" from-port="2" to-layer="3593" to-port="0" />
		<edge from-layer="3591" from-port="0" to-layer="3592" to-port="0" />
		<edge from-layer="3592" from-port="1" to-layer="3593" to-port="1" />
		<edge from-layer="3593" from-port="2" to-layer="3598" to-port="0" />
		<edge from-layer="3594" from-port="0" to-layer="3598" to-port="1" />
		<edge from-layer="3595" from-port="0" to-layer="3598" to-port="2" />
		<edge from-layer="3596" from-port="0" to-layer="3598" to-port="3" />
		<edge from-layer="3597" from-port="0" to-layer="3598" to-port="4" />
		<edge from-layer="3598" from-port="5" to-layer="3600" to-port="0" />
		<edge from-layer="3599" from-port="0" to-layer="3600" to-port="1" />
		<edge from-layer="3600" from-port="2" to-layer="3601" to-port="1" />
		<edge from-layer="3601" from-port="2" to-layer="3606" to-port="0" />
		<edge from-layer="3602" from-port="0" to-layer="3606" to-port="1" />
		<edge from-layer="3603" from-port="0" to-layer="3606" to-port="2" />
		<edge from-layer="3604" from-port="0" to-layer="3606" to-port="3" />
		<edge from-layer="3605" from-port="0" to-layer="3606" to-port="4" />
		<edge from-layer="3606" from-port="5" to-layer="3608" to-port="0" />
		<edge from-layer="3607" from-port="0" to-layer="3608" to-port="1" />
		<edge from-layer="3608" from-port="2" to-layer="3611" to-port="0" />
		<edge from-layer="3609" from-port="0" to-layer="3610" to-port="0" />
		<edge from-layer="3610" from-port="1" to-layer="3611" to-port="1" />
		<edge from-layer="3611" from-port="2" to-layer="3614" to-port="0" />
		<edge from-layer="3612" from-port="0" to-layer="3613" to-port="0" />
		<edge from-layer="3613" from-port="1" to-layer="3614" to-port="1" />
		<edge from-layer="3614" from-port="2" to-layer="3619" to-port="0" />
		<edge from-layer="3615" from-port="0" to-layer="3619" to-port="1" />
		<edge from-layer="3616" from-port="0" to-layer="3619" to-port="2" />
		<edge from-layer="3617" from-port="0" to-layer="3619" to-port="3" />
		<edge from-layer="3618" from-port="0" to-layer="3619" to-port="4" />
		<edge from-layer="3619" from-port="5" to-layer="3725" to-port="0" />
		<edge from-layer="3619" from-port="5" to-layer="3622" to-port="0" />
		<edge from-layer="3620" from-port="0" to-layer="3621" to-port="0" />
		<edge from-layer="3621" from-port="1" to-layer="3633" to-port="0" />
		<edge from-layer="3622" from-port="2" to-layer="3627" to-port="0" />
		<edge from-layer="3623" from-port="0" to-layer="3627" to-port="1" />
		<edge from-layer="3624" from-port="0" to-layer="3627" to-port="2" />
		<edge from-layer="3625" from-port="0" to-layer="3627" to-port="3" />
		<edge from-layer="3626" from-port="0" to-layer="3627" to-port="4" />
		<edge from-layer="3627" from-port="5" to-layer="3632" to-port="0" />
		<edge from-layer="3628" from-port="0" to-layer="3629" to-port="0" />
		<edge from-layer="3629" from-port="1" to-layer="3631" to-port="0" />
		<edge from-layer="3630" from-port="0" to-layer="3631" to-port="1" />
		<edge from-layer="3631" from-port="2" to-layer="3632" to-port="1" />
		<edge from-layer="3632" from-port="2" to-layer="3633" to-port="1" />
		<edge from-layer="3633" from-port="2" to-layer="3638" to-port="0" />
		<edge from-layer="3634" from-port="0" to-layer="3638" to-port="1" />
		<edge from-layer="3635" from-port="0" to-layer="3638" to-port="2" />
		<edge from-layer="3636" from-port="0" to-layer="3638" to-port="3" />
		<edge from-layer="3637" from-port="0" to-layer="3638" to-port="4" />
		<edge from-layer="3638" from-port="5" to-layer="3640" to-port="0" />
		<edge from-layer="3639" from-port="0" to-layer="3640" to-port="1" />
		<edge from-layer="3640" from-port="2" to-layer="3642" to-port="0" />
		<edge from-layer="3641" from-port="0" to-layer="3642" to-port="1" />
		<edge from-layer="3642" from-port="2" to-layer="3645" to-port="0" />
		<edge from-layer="3643" from-port="0" to-layer="3644" to-port="0" />
		<edge from-layer="3644" from-port="1" to-layer="3645" to-port="1" />
		<edge from-layer="3645" from-port="2" to-layer="3650" to-port="0" />
		<edge from-layer="3646" from-port="0" to-layer="3650" to-port="1" />
		<edge from-layer="3647" from-port="0" to-layer="3650" to-port="2" />
		<edge from-layer="3648" from-port="0" to-layer="3650" to-port="3" />
		<edge from-layer="3649" from-port="0" to-layer="3650" to-port="4" />
		<edge from-layer="3650" from-port="5" to-layer="3668" to-port="0" />
		<edge from-layer="3651" from-port="0" to-layer="3652" to-port="0" />
		<edge from-layer="3652" from-port="1" to-layer="3658" to-port="0" />
		<edge from-layer="3653" from-port="0" to-layer="3654" to-port="0" />
		<edge from-layer="3654" from-port="1" to-layer="3656" to-port="0" />
		<edge from-layer="3655" from-port="0" to-layer="3656" to-port="1" />
		<edge from-layer="3656" from-port="2" to-layer="3657" to-port="1" />
		<edge from-layer="3657" from-port="2" to-layer="3658" to-port="1" />
		<edge from-layer="3658" from-port="2" to-layer="3663" to-port="0" />
		<edge from-layer="3659" from-port="0" to-layer="3663" to-port="1" />
		<edge from-layer="3660" from-port="0" to-layer="3663" to-port="2" />
		<edge from-layer="3661" from-port="0" to-layer="3663" to-port="3" />
		<edge from-layer="3662" from-port="0" to-layer="3663" to-port="4" />
		<edge from-layer="3663" from-port="5" to-layer="3665" to-port="0" />
		<edge from-layer="3664" from-port="0" to-layer="3665" to-port="1" />
		<edge from-layer="3665" from-port="2" to-layer="3667" to-port="0" />
		<edge from-layer="3666" from-port="0" to-layer="3667" to-port="1" />
		<edge from-layer="3667" from-port="2" to-layer="3668" to-port="1" />
		<edge from-layer="3668" from-port="2" to-layer="3669" to-port="0" />
		<edge from-layer="3669" from-port="2" to-layer="3670" to-port="0" />
		<edge from-layer="3670" from-port="1" to-layer="3675" to-port="0" />
		<edge from-layer="3671" from-port="0" to-layer="3675" to-port="1" />
		<edge from-layer="3672" from-port="0" to-layer="3675" to-port="2" />
		<edge from-layer="3673" from-port="0" to-layer="3675" to-port="3" />
		<edge from-layer="3674" from-port="0" to-layer="3675" to-port="4" />
		<edge from-layer="3675" from-port="5" to-layer="3693" to-port="0" />
		<edge from-layer="3676" from-port="0" to-layer="3677" to-port="0" />
		<edge from-layer="3677" from-port="1" to-layer="3683" to-port="0" />
		<edge from-layer="3678" from-port="0" to-layer="3679" to-port="0" />
		<edge from-layer="3679" from-port="1" to-layer="3681" to-port="0" />
		<edge from-layer="3680" from-port="0" to-layer="3681" to-port="1" />
		<edge from-layer="3681" from-port="2" to-layer="3682" to-port="1" />
		<edge from-layer="3682" from-port="2" to-layer="3683" to-port="1" />
		<edge from-layer="3683" from-port="2" to-layer="3688" to-port="0" />
		<edge from-layer="3684" from-port="0" to-layer="3688" to-port="1" />
		<edge from-layer="3685" from-port="0" to-layer="3688" to-port="2" />
		<edge from-layer="3686" from-port="0" to-layer="3688" to-port="3" />
		<edge from-layer="3687" from-port="0" to-layer="3688" to-port="4" />
		<edge from-layer="3688" from-port="5" to-layer="3690" to-port="0" />
		<edge from-layer="3689" from-port="0" to-layer="3690" to-port="1" />
		<edge from-layer="3690" from-port="2" to-layer="3692" to-port="0" />
		<edge from-layer="3691" from-port="0" to-layer="3692" to-port="1" />
		<edge from-layer="3692" from-port="2" to-layer="3693" to-port="1" />
		<edge from-layer="3693" from-port="2" to-layer="3698" to-port="0" />
		<edge from-layer="3694" from-port="0" to-layer="3698" to-port="1" />
		<edge from-layer="3695" from-port="0" to-layer="3698" to-port="2" />
		<edge from-layer="3696" from-port="0" to-layer="3698" to-port="3" />
		<edge from-layer="3697" from-port="0" to-layer="3698" to-port="4" />
		<edge from-layer="3698" from-port="5" to-layer="3700" to-port="0" />
		<edge from-layer="3699" from-port="0" to-layer="3700" to-port="1" />
		<edge from-layer="3700" from-port="2" to-layer="3709" to-port="0" />
		<edge from-layer="3701" from-port="0" to-layer="3708" to-port="0" />
		<edge from-layer="3702" from-port="0" to-layer="3703" to-port="0" />
		<edge from-layer="3703" from-port="1" to-layer="3704" to-port="0" />
		<edge from-layer="3704" from-port="1" to-layer="3707" to-port="0" />
		<edge from-layer="3705" from-port="0" to-layer="3707" to-port="1" />
		<edge from-layer="3706" from-port="0" to-layer="3707" to-port="2" />
		<edge from-layer="3707" from-port="3" to-layer="3708" to-port="1" />
		<edge from-layer="3708" from-port="2" to-layer="3709" to-port="1" />
		<edge from-layer="3709" from-port="2" to-layer="3714" to-port="0" />
		<edge from-layer="3710" from-port="0" to-layer="3711" to-port="0" />
		<edge from-layer="3711" from-port="1" to-layer="3713" to-port="0" />
		<edge from-layer="3712" from-port="0" to-layer="3713" to-port="1" />
		<edge from-layer="3713" from-port="2" to-layer="3714" to-port="1" />
		<edge from-layer="3714" from-port="2" to-layer="3717" to-port="0" />
		<edge from-layer="3715" from-port="0" to-layer="3716" to-port="0" />
		<edge from-layer="3716" from-port="1" to-layer="3717" to-port="1" />
		<edge from-layer="3717" from-port="2" to-layer="3722" to-port="0" />
		<edge from-layer="3718" from-port="0" to-layer="3722" to-port="1" />
		<edge from-layer="3719" from-port="0" to-layer="3722" to-port="2" />
		<edge from-layer="3720" from-port="0" to-layer="3722" to-port="3" />
		<edge from-layer="3721" from-port="0" to-layer="3722" to-port="4" />
		<edge from-layer="3722" from-port="5" to-layer="3724" to-port="0" />
		<edge from-layer="3723" from-port="0" to-layer="3724" to-port="1" />
		<edge from-layer="3724" from-port="2" to-layer="3725" to-port="1" />
		<edge from-layer="3725" from-port="2" to-layer="3730" to-port="0" />
		<edge from-layer="3726" from-port="0" to-layer="3730" to-port="1" />
		<edge from-layer="3727" from-port="0" to-layer="3730" to-port="2" />
		<edge from-layer="3728" from-port="0" to-layer="3730" to-port="3" />
		<edge from-layer="3729" from-port="0" to-layer="3730" to-port="4" />
		<edge from-layer="3730" from-port="5" to-layer="3732" to-port="0" />
		<edge from-layer="3731" from-port="0" to-layer="3732" to-port="1" />
		<edge from-layer="3732" from-port="2" to-layer="3735" to-port="0" />
		<edge from-layer="3733" from-port="0" to-layer="3734" to-port="0" />
		<edge from-layer="3734" from-port="1" to-layer="3735" to-port="1" />
		<edge from-layer="3735" from-port="2" to-layer="3738" to-port="0" />
		<edge from-layer="3736" from-port="0" to-layer="3737" to-port="0" />
		<edge from-layer="3737" from-port="1" to-layer="3738" to-port="1" />
		<edge from-layer="3738" from-port="2" to-layer="3743" to-port="0" />
		<edge from-layer="3739" from-port="0" to-layer="3743" to-port="1" />
		<edge from-layer="3740" from-port="0" to-layer="3743" to-port="2" />
		<edge from-layer="3741" from-port="0" to-layer="3743" to-port="3" />
		<edge from-layer="3742" from-port="0" to-layer="3743" to-port="4" />
		<edge from-layer="3743" from-port="5" to-layer="3771" to-port="0" />
		<edge from-layer="3743" from-port="5" to-layer="3752" to-port="0" />
		<edge from-layer="3744" from-port="0" to-layer="3745" to-port="0" />
		<edge from-layer="3745" from-port="1" to-layer="3765" to-port="0" />
		<edge from-layer="3746" from-port="0" to-layer="3747" to-port="0" />
		<edge from-layer="3747" from-port="1" to-layer="3753" to-port="0" />
		<edge from-layer="3748" from-port="0" to-layer="3749" to-port="0" />
		<edge from-layer="3749" from-port="1" to-layer="3751" to-port="0" />
		<edge from-layer="3750" from-port="0" to-layer="3751" to-port="1" />
		<edge from-layer="3751" from-port="2" to-layer="3752" to-port="1" />
		<edge from-layer="3752" from-port="2" to-layer="3753" to-port="1" />
		<edge from-layer="3753" from-port="2" to-layer="3754" to-port="0" />
		<edge from-layer="3754" from-port="1" to-layer="3759" to-port="0" />
		<edge from-layer="3755" from-port="0" to-layer="3759" to-port="1" />
		<edge from-layer="3756" from-port="0" to-layer="3759" to-port="2" />
		<edge from-layer="3757" from-port="0" to-layer="3759" to-port="3" />
		<edge from-layer="3758" from-port="0" to-layer="3759" to-port="4" />
		<edge from-layer="3759" from-port="5" to-layer="3764" to-port="0" />
		<edge from-layer="3760" from-port="0" to-layer="3761" to-port="0" />
		<edge from-layer="3761" from-port="1" to-layer="3763" to-port="0" />
		<edge from-layer="3762" from-port="0" to-layer="3763" to-port="1" />
		<edge from-layer="3763" from-port="2" to-layer="3764" to-port="1" />
		<edge from-layer="3764" from-port="2" to-layer="3765" to-port="1" />
		<edge from-layer="3765" from-port="2" to-layer="3770" to-port="0" />
		<edge from-layer="3766" from-port="0" to-layer="3770" to-port="1" />
		<edge from-layer="3767" from-port="0" to-layer="3770" to-port="2" />
		<edge from-layer="3768" from-port="0" to-layer="3770" to-port="3" />
		<edge from-layer="3769" from-port="0" to-layer="3770" to-port="4" />
		<edge from-layer="3770" from-port="5" to-layer="3771" to-port="1" />
		<edge from-layer="3771" from-port="2" to-layer="3776" to-port="0" />
		<edge from-layer="3772" from-port="0" to-layer="3776" to-port="1" />
		<edge from-layer="3773" from-port="0" to-layer="3776" to-port="2" />
		<edge from-layer="3774" from-port="0" to-layer="3776" to-port="3" />
		<edge from-layer="3775" from-port="0" to-layer="3776" to-port="4" />
		<edge from-layer="3776" from-port="5" to-layer="3778" to-port="0" />
		<edge from-layer="3777" from-port="0" to-layer="3778" to-port="1" />
		<edge from-layer="3778" from-port="2" to-layer="3781" to-port="0" />
		<edge from-layer="3779" from-port="0" to-layer="3780" to-port="0" />
		<edge from-layer="3780" from-port="1" to-layer="3781" to-port="1" />
		<edge from-layer="3781" from-port="2" to-layer="3784" to-port="0" />
		<edge from-layer="3782" from-port="0" to-layer="3783" to-port="0" />
		<edge from-layer="3783" from-port="1" to-layer="3784" to-port="1" />
		<edge from-layer="3784" from-port="2" to-layer="3789" to-port="0" />
		<edge from-layer="3785" from-port="0" to-layer="3789" to-port="1" />
		<edge from-layer="3786" from-port="0" to-layer="3789" to-port="2" />
		<edge from-layer="3787" from-port="0" to-layer="3789" to-port="3" />
		<edge from-layer="3788" from-port="0" to-layer="3789" to-port="4" />
		<edge from-layer="3789" from-port="5" to-layer="3791" to-port="0" />
		<edge from-layer="3790" from-port="0" to-layer="3791" to-port="1" />
		<edge from-layer="3791" from-port="2" to-layer="3794" to-port="0" />
		<edge from-layer="3792" from-port="0" to-layer="3793" to-port="0" />
		<edge from-layer="3793" from-port="1" to-layer="3794" to-port="1" />
		<edge from-layer="3794" from-port="2" to-layer="3797" to-port="0" />
		<edge from-layer="3795" from-port="0" to-layer="3796" to-port="0" />
		<edge from-layer="3796" from-port="1" to-layer="3797" to-port="1" />
		<edge from-layer="3797" from-port="2" to-layer="3802" to-port="0" />
		<edge from-layer="3798" from-port="0" to-layer="3802" to-port="1" />
		<edge from-layer="3799" from-port="0" to-layer="3802" to-port="2" />
		<edge from-layer="3800" from-port="0" to-layer="3802" to-port="3" />
		<edge from-layer="3801" from-port="0" to-layer="3802" to-port="4" />
		<edge from-layer="3802" from-port="5" to-layer="3804" to-port="0" />
		<edge from-layer="3803" from-port="0" to-layer="3804" to-port="1" />
		<edge from-layer="3804" from-port="2" to-layer="3805" to-port="5" />
		<edge from-layer="3805" from-port="6" to-layer="3807" to-port="0" />
		<edge from-layer="3806" from-port="0" to-layer="3807" to-port="1" />
		<edge from-layer="3807" from-port="2" to-layer="3849" to-port="0" />
		<edge from-layer="3807" from-port="2" to-layer="3812" to-port="0" />
		<edge from-layer="3808" from-port="0" to-layer="3809" to-port="0" />
		<edge from-layer="3809" from-port="1" to-layer="3811" to-port="0" />
		<edge from-layer="3810" from-port="0" to-layer="3811" to-port="1" />
		<edge from-layer="3811" from-port="2" to-layer="3812" to-port="1" />
		<edge from-layer="3812" from-port="2" to-layer="3813" to-port="1" />
		<edge from-layer="3813" from-port="2" to-layer="3814" to-port="0" />
		<edge from-layer="3814" from-port="1" to-layer="3819" to-port="0" />
		<edge from-layer="3815" from-port="0" to-layer="3819" to-port="1" />
		<edge from-layer="3816" from-port="0" to-layer="3819" to-port="2" />
		<edge from-layer="3817" from-port="0" to-layer="3819" to-port="3" />
		<edge from-layer="3818" from-port="0" to-layer="3819" to-port="4" />
		<edge from-layer="3819" from-port="5" to-layer="3824" to-port="0" />
		<edge from-layer="3820" from-port="0" to-layer="3821" to-port="0" />
		<edge from-layer="3821" from-port="1" to-layer="3823" to-port="0" />
		<edge from-layer="3822" from-port="0" to-layer="3823" to-port="1" />
		<edge from-layer="3823" from-port="2" to-layer="3824" to-port="1" />
		<edge from-layer="3824" from-port="2" to-layer="3825" to-port="1" />
		<edge from-layer="3825" from-port="2" to-layer="3826" to-port="0" />
		<edge from-layer="3826" from-port="1" to-layer="3831" to-port="0" />
		<edge from-layer="3827" from-port="0" to-layer="3831" to-port="1" />
		<edge from-layer="3828" from-port="0" to-layer="3831" to-port="2" />
		<edge from-layer="3829" from-port="0" to-layer="3831" to-port="3" />
		<edge from-layer="3830" from-port="0" to-layer="3831" to-port="4" />
		<edge from-layer="3831" from-port="5" to-layer="3836" to-port="0" />
		<edge from-layer="3832" from-port="0" to-layer="3833" to-port="0" />
		<edge from-layer="3833" from-port="1" to-layer="3835" to-port="0" />
		<edge from-layer="3834" from-port="0" to-layer="3835" to-port="1" />
		<edge from-layer="3835" from-port="2" to-layer="3836" to-port="1" />
		<edge from-layer="3836" from-port="2" to-layer="3837" to-port="1" />
		<edge from-layer="3837" from-port="2" to-layer="3838" to-port="0" />
		<edge from-layer="3838" from-port="1" to-layer="3841" to-port="0" />
		<edge from-layer="3839" from-port="0" to-layer="3841" to-port="1" />
		<edge from-layer="3839" from-port="0" to-layer="3852" to-port="1" />
		<edge from-layer="3840" from-port="0" to-layer="3841" to-port="2" />
		<edge from-layer="3841" from-port="3" to-layer="3842" to-port="0" />
		<edge from-layer="3843" from-port="0" to-layer="3844" to-port="0" />
		<edge from-layer="3844" from-port="1" to-layer="3850" to-port="0" />
		<edge from-layer="3845" from-port="0" to-layer="3846" to-port="0" />
		<edge from-layer="3846" from-port="1" to-layer="3848" to-port="0" />
		<edge from-layer="3847" from-port="0" to-layer="3848" to-port="1" />
		<edge from-layer="3848" from-port="2" to-layer="3849" to-port="1" />
		<edge from-layer="3849" from-port="2" to-layer="3850" to-port="1" />
		<edge from-layer="3850" from-port="2" to-layer="3852" to-port="0" />
		<edge from-layer="3851" from-port="0" to-layer="3852" to-port="2" />
		<edge from-layer="3852" from-port="3" to-layer="3853" to-port="0" />
	</edges>
	<rt_info>
		<MO_version value="2024.5.0-17288-7975fa5da0c-refs/pull/3856/head" />
		<Runtime_version value="2024.5.0-17288-7975fa5da0c-refs/pull/3856/head" />
		<conversion_parameters>
			<framework value="onnx" />
			<input value="input" />
			<input_model value="DIR/detr-resnet50.onnx" />
			<input_shape value="[1, 3, 800, 1137]" />
			<is_python_api_used value="False" />
			<layout value="input(NCHW)" />
			<mean_values value="input[123.675,116.28,103.53]" />
			<model_name value="detr-resnet50" />
			<output value="boxes,scores" />
			<output_dir value="/home/arash/Thesis/public/detr-resnet50/FP16" />
			<reverse_input_channels value="True" />
			<scale_values value="input[58.395,57.12,57.375]" />
		</conversion_parameters>
		<legacy_frontend value="False" />
		<nncf>
			<friendly_names_were_updated value="True" />
			<quantization>
				<advanced_parameters value="{}" />
				<fast_bias_correction value="True" />
				<ignored_scope value="None" />
				<model_type value="None" />
				<preset value="performance" />
				<subset_size value="5000" />
				<target_device value="CPU" />
			</quantization>
		</nncf>
	</rt_info>
</net>
