<?xml version="1.0"?>
<net name="efficientdet-d0-tf" version="11">
	<layers>
		<layer id="0" name="image_arrays" type="Parameter" version="opset1">
			<data shape="1,512,512,3" element_type="f32" />
			<rt_info>
				<attribute name="old_api_map_order" version="0" value="0, 2, 3, 1" />
			</rt_info>
			<output>
				<port id="0" precision="FP32" names="image_arrays,image_arrays:0">
					<dim>1</dim>
					<dim>512</dim>
					<dim>512</dim>
					<dim>3</dim>
					<rt_info>
						<attribute name="layout" version="0" layout="[N,H,W,C]" />
					</rt_info>
				</port>
			</output>
		</layer>
		<layer id="1" name="image_arrays/Transpose([0 3 1 2])/value2910248363" type="Const" version="opset1">
			<data element_type="i64" shape="4" offset="0" size="32" />
			<output>
				<port id="0" precision="I64">
					<dim>4</dim>
				</port>
			</output>
		</layer>
		<layer id="2" name="image_arrays/Transpose([0 3 1 2])" type="Transpose" version="opset1">
			<input>
				<port id="0" precision="FP32">
					<dim>1</dim>
					<dim>512</dim>
					<dim>512</dim>
					<dim>3</dim>
				</port>
				<port id="1" precision="I64">
					<dim>4</dim>
				</port>
			</input>
			<output>
				<port id="2" precision="FP32" names="convert_image/Cast:0">
					<dim>1</dim>
					<dim>3</dim>
					<dim>512</dim>
					<dim>512</dim>
				</port>
			</output>
		</layer>
		<layer id="3" name="Gather_5519_compressed" type="Const" version="opset1">
			<data element_type="f16" shape="1, 3, 1, 1" offset="32" size="6" />
			<rt_info>
				<attribute name="preprocessing" version="0" />
			</rt_info>
			<output>
				<port id="0" precision="FP16">
					<dim>1</dim>
					<dim>3</dim>
					<dim>1</dim>
					<dim>1</dim>
				</port>
			</output>
		</layer>
		<layer id="4" name="Gather_5519" type="Convert" version="opset1">
			<data destination_type="f32" />
			<rt_info>
				<attribute name="decompression" version="0" />
				<attribute name="preprocessing" version="0" />
			</rt_info>
			<input>
				<port id="0" precision="FP16">
					<dim>1</dim>
					<dim>3</dim>
					<dim>1</dim>
					<dim>1</dim>
				</port>
			</input>
			<output>
				<port id="1" precision="FP32">
					<dim>1</dim>
					<dim>3</dim>
					<dim>1</dim>
					<dim>1</dim>
				</port>
			</output>
		</layer>
		<layer id="5" name="convert_image/Fused_Mul_" type="Multiply" version="opset1">
			<data auto_broadcast="numpy" />
			<input>
				<port id="0" precision="FP32">
					<dim>1</dim>
					<dim>3</dim>
					<dim>512</dim>
					<dim>512</dim>
				</port>
				<port id="1" precision="FP32">
					<dim>1</dim>
					<dim>3</dim>
					<dim>1</dim>
					<dim>1</dim>
				</port>
			</input>
			<output>
				<port id="2" precision="FP32">
					<dim>1</dim>
					<dim>3</dim>
					<dim>512</dim>
					<dim>512</dim>
				</port>
			</output>
		</layer>
		<layer id="6" name="Gather_5522_compressed" type="Const" version="opset1">
			<data element_type="f16" shape="1, 3, 1, 1" offset="38" size="6" />
			<rt_info>
				<attribute name="preprocessing" version="0" />
			</rt_info>
			<output>
				<port id="0" precision="FP16">
					<dim>1</dim>
					<dim>3</dim>
					<dim>1</dim>
					<dim>1</dim>
				</port>
			</output>
		</layer>
		<layer id="7" name="Gather_5522" type="Convert" version="opset1">
			<data destination_type="f32" />
			<rt_info>
				<attribute name="decompression" version="0" />
				<attribute name="preprocessing" version="0" />
			</rt_info>
			<input>
				<port id="0" precision="FP16">
					<dim>1</dim>
					<dim>3</dim>
					<dim>1</dim>
					<dim>1</dim>
				</port>
			</input>
			<output>
				<port id="1" precision="FP32">
					<dim>1</dim>
					<dim>3</dim>
					<dim>1</dim>
					<dim>1</dim>
				</port>
			</output>
		</layer>
		<layer id="8" name="sub_1/Fused_Add_" type="Add" version="opset1">
			<data auto_broadcast="numpy" />
			<input>
				<port id="0" precision="FP32">
					<dim>1</dim>
					<dim>3</dim>
					<dim>512</dim>
					<dim>512</dim>
				</port>
				<port id="1" precision="FP32">
					<dim>1</dim>
					<dim>3</dim>
					<dim>1</dim>
					<dim>1</dim>
				</port>
			</input>
			<output>
				<port id="2" precision="FP32" names="stack:0">
					<dim>1</dim>
					<dim>3</dim>
					<dim>512</dim>
					<dim>512</dim>
				</port>
			</output>
		</layer>
		<layer id="9" name="sub_1/Fused_Add_/fq_output_0/input_low" type="Const" version="opset1">
			<data element_type="f32" shape="" offset="44" size="4" />
			<output>
				<port id="0" precision="FP32" />
			</output>
		</layer>
		<layer id="10" name="sub_1/Fused_Add_/fq_output_0/input_high" type="Const" version="opset1">
			<data element_type="f32" shape="" offset="48" size="4" />
			<output>
				<port id="0" precision="FP32" />
			</output>
		</layer>
		<layer id="11" name="sub_1/Fused_Add_/fq_output_0/output_low" type="Const" version="opset1">
			<data element_type="f32" shape="" offset="44" size="4" />
			<output>
				<port id="0" precision="FP32" />
			</output>
		</layer>
		<layer id="12" name="sub_1/Fused_Add_/fq_output_0/output_high" type="Const" version="opset1">
			<data element_type="f32" shape="" offset="48" size="4" />
			<output>
				<port id="0" precision="FP32" />
			</output>
		</layer>
		<layer id="13" name="sub_1/Fused_Add_/fq_output_0" type="FakeQuantize" version="opset1">
			<data levels="256" auto_broadcast="numpy" />
			<input>
				<port id="0" precision="FP32">
					<dim>1</dim>
					<dim>3</dim>
					<dim>512</dim>
					<dim>512</dim>
				</port>
				<port id="1" precision="FP32" />
				<port id="2" precision="FP32" />
				<port id="3" precision="FP32" />
				<port id="4" precision="FP32" />
			</input>
			<output>
				<port id="5" precision="FP32">
					<dim>1</dim>
					<dim>3</dim>
					<dim>512</dim>
					<dim>512</dim>
				</port>
			</output>
		</layer>
		<layer id="14" name="Constant_918278" type="Const" version="opset1">
			<data element_type="i8" shape="32, 3, 3, 3" offset="52" size="864" />
			<output>
				<port id="0" precision="I8">
					<dim>32</dim>
					<dim>3</dim>
					<dim>3</dim>
					<dim>3</dim>
				</port>
			</output>
		</layer>
		<layer id="15" name="Convert_918279" type="Convert" version="opset1">
			<data destination_type="f32" />
			<input>
				<port id="0" precision="I8">
					<dim>32</dim>
					<dim>3</dim>
					<dim>3</dim>
					<dim>3</dim>
				</port>
			</input>
			<output>
				<port id="1" precision="FP32">
					<dim>32</dim>
					<dim>3</dim>
					<dim>3</dim>
					<dim>3</dim>
				</port>
			</output>
		</layer>
		<layer id="16" name="Constant_918280" type="Const" version="opset1">
			<data element_type="f32" shape="32, 1, 1, 1" offset="916" size="128" />
			<output>
				<port id="0" precision="FP32">
					<dim>32</dim>
					<dim>1</dim>
					<dim>1</dim>
					<dim>1</dim>
				</port>
			</output>
		</layer>
		<layer id="17" name="efficientnet-b0/stem/conv2d/Conv2D/fq_weights_1" type="Multiply" version="opset1">
			<data auto_broadcast="numpy" />
			<input>
				<port id="0" precision="FP32">
					<dim>32</dim>
					<dim>3</dim>
					<dim>3</dim>
					<dim>3</dim>
				</port>
				<port id="1" precision="FP32">
					<dim>32</dim>
					<dim>1</dim>
					<dim>1</dim>
					<dim>1</dim>
				</port>
			</input>
			<output>
				<port id="2" precision="FP32">
					<dim>32</dim>
					<dim>3</dim>
					<dim>3</dim>
					<dim>3</dim>
				</port>
			</output>
		</layer>
		<layer id="18" name="efficientnet-b0/stem/conv2d/Conv2D" type="Convolution" version="opset1">
			<data strides="2, 2" dilations="1, 1" pads_begin="0, 0" pads_end="0, 0" auto_pad="same_upper" />
			<input>
				<port id="0" precision="FP32">
					<dim>1</dim>
					<dim>3</dim>
					<dim>512</dim>
					<dim>512</dim>
				</port>
				<port id="1" precision="FP32">
					<dim>32</dim>
					<dim>3</dim>
					<dim>3</dim>
					<dim>3</dim>
				</port>
			</input>
			<output>
				<port id="2" precision="FP32" names="efficientnet-b0/stem/conv2d/Conv2D:0">
					<dim>1</dim>
					<dim>32</dim>
					<dim>256</dim>
					<dim>256</dim>
				</port>
			</output>
		</layer>
		<layer id="19" name="efficientnet-b0/stem/conv2d/Conv2D_bn_offset_compressed" type="Const" version="opset1">
			<data element_type="f16" shape="1, 32, 1, 1" offset="1044" size="64" />
			<output>
				<port id="0" precision="FP16">
					<dim>1</dim>
					<dim>32</dim>
					<dim>1</dim>
					<dim>1</dim>
				</port>
			</output>
		</layer>
		<layer id="20" name="efficientnet-b0/stem/conv2d/Conv2D_bn_offset" type="Convert" version="opset1">
			<data destination_type="f32" />
			<rt_info>
				<attribute name="decompression" version="0" />
			</rt_info>
			<input>
				<port id="0" precision="FP16">
					<dim>1</dim>
					<dim>32</dim>
					<dim>1</dim>
					<dim>1</dim>
				</port>
			</input>
			<output>
				<port id="1" precision="FP32" names="efficientnet-b0/stem/conv2d/Conv2D_bn_offset:0">
					<dim>1</dim>
					<dim>32</dim>
					<dim>1</dim>
					<dim>1</dim>
				</port>
			</output>
		</layer>
		<layer id="21" name="efficientnet-b0/stem/tpu_batch_normalization/FusedBatchNormV3/Add" type="Add" version="opset1">
			<data auto_broadcast="numpy" />
			<input>
				<port id="0" precision="FP32">
					<dim>1</dim>
					<dim>32</dim>
					<dim>256</dim>
					<dim>256</dim>
				</port>
				<port id="1" precision="FP32">
					<dim>1</dim>
					<dim>32</dim>
					<dim>1</dim>
					<dim>1</dim>
				</port>
			</input>
			<output>
				<port id="2" precision="FP32" names="efficientnet-b0/stem/tpu_batch_normalization/FusedBatchNormV3:0">
					<dim>1</dim>
					<dim>32</dim>
					<dim>256</dim>
					<dim>256</dim>
				</port>
			</output>
		</layer>
		<layer id="22" name="efficientnet-b0/stem/mul" type="Swish" version="opset4">
			<input>
				<port id="0" precision="FP32">
					<dim>1</dim>
					<dim>32</dim>
					<dim>256</dim>
					<dim>256</dim>
				</port>
			</input>
			<output>
				<port id="1" precision="FP32" names="efficientnet-b0/stem/IdentityN:0,efficientnet-b0/stem/mul:0">
					<dim>1</dim>
					<dim>32</dim>
					<dim>256</dim>
					<dim>256</dim>
				</port>
			</output>
		</layer>
		<layer id="23" name="efficientnet-b0/stem/mul/fq_output_0/input_low" type="Const" version="opset1">
			<data element_type="f32" shape="1, 32, 1, 1" offset="1108" size="128" />
			<output>
				<port id="0" precision="FP32">
					<dim>1</dim>
					<dim>32</dim>
					<dim>1</dim>
					<dim>1</dim>
				</port>
			</output>
		</layer>
		<layer id="24" name="efficientnet-b0/stem/mul/fq_output_0/input_high" type="Const" version="opset1">
			<data element_type="f32" shape="1, 32, 1, 1" offset="1236" size="128" />
			<output>
				<port id="0" precision="FP32">
					<dim>1</dim>
					<dim>32</dim>
					<dim>1</dim>
					<dim>1</dim>
				</port>
			</output>
		</layer>
		<layer id="25" name="efficientnet-b0/stem/mul/fq_output_0/output_low" type="Const" version="opset1">
			<data element_type="f32" shape="1, 32, 1, 1" offset="1108" size="128" />
			<output>
				<port id="0" precision="FP32">
					<dim>1</dim>
					<dim>32</dim>
					<dim>1</dim>
					<dim>1</dim>
				</port>
			</output>
		</layer>
		<layer id="26" name="efficientnet-b0/stem/mul/fq_output_0/output_high" type="Const" version="opset1">
			<data element_type="f32" shape="1, 32, 1, 1" offset="1236" size="128" />
			<output>
				<port id="0" precision="FP32">
					<dim>1</dim>
					<dim>32</dim>
					<dim>1</dim>
					<dim>1</dim>
				</port>
			</output>
		</layer>
		<layer id="27" name="efficientnet-b0/stem/mul/fq_output_0" type="FakeQuantize" version="opset1">
			<data levels="256" auto_broadcast="numpy" />
			<input>
				<port id="0" precision="FP32">
					<dim>1</dim>
					<dim>32</dim>
					<dim>256</dim>
					<dim>256</dim>
				</port>
				<port id="1" precision="FP32">
					<dim>1</dim>
					<dim>32</dim>
					<dim>1</dim>
					<dim>1</dim>
				</port>
				<port id="2" precision="FP32">
					<dim>1</dim>
					<dim>32</dim>
					<dim>1</dim>
					<dim>1</dim>
				</port>
				<port id="3" precision="FP32">
					<dim>1</dim>
					<dim>32</dim>
					<dim>1</dim>
					<dim>1</dim>
				</port>
				<port id="4" precision="FP32">
					<dim>1</dim>
					<dim>32</dim>
					<dim>1</dim>
					<dim>1</dim>
				</port>
			</input>
			<output>
				<port id="5" precision="FP32">
					<dim>1</dim>
					<dim>32</dim>
					<dim>256</dim>
					<dim>256</dim>
				</port>
			</output>
		</layer>
		<layer id="28" name="Constant_918283" type="Const" version="opset1">
			<data element_type="i8" shape="32, 1, 1, 3, 3" offset="1364" size="288" />
			<output>
				<port id="0" precision="I8">
					<dim>32</dim>
					<dim>1</dim>
					<dim>1</dim>
					<dim>3</dim>
					<dim>3</dim>
				</port>
			</output>
		</layer>
		<layer id="29" name="Convert_918284" type="Convert" version="opset1">
			<data destination_type="f32" />
			<input>
				<port id="0" precision="I8">
					<dim>32</dim>
					<dim>1</dim>
					<dim>1</dim>
					<dim>3</dim>
					<dim>3</dim>
				</port>
			</input>
			<output>
				<port id="1" precision="FP32">
					<dim>32</dim>
					<dim>1</dim>
					<dim>1</dim>
					<dim>3</dim>
					<dim>3</dim>
				</port>
			</output>
		</layer>
		<layer id="30" name="Constant_918285" type="Const" version="opset1">
			<data element_type="f32" shape="32, 1, 1, 1, 1" offset="1652" size="128" />
			<output>
				<port id="0" precision="FP32">
					<dim>32</dim>
					<dim>1</dim>
					<dim>1</dim>
					<dim>1</dim>
					<dim>1</dim>
				</port>
			</output>
		</layer>
		<layer id="31" name="efficientnet-b0/blocks_0/depthwise_conv2d/depthwise/fq_weights_1" type="Multiply" version="opset1">
			<data auto_broadcast="numpy" />
			<input>
				<port id="0" precision="FP32">
					<dim>32</dim>
					<dim>1</dim>
					<dim>1</dim>
					<dim>3</dim>
					<dim>3</dim>
				</port>
				<port id="1" precision="FP32">
					<dim>32</dim>
					<dim>1</dim>
					<dim>1</dim>
					<dim>1</dim>
					<dim>1</dim>
				</port>
			</input>
			<output>
				<port id="2" precision="FP32">
					<dim>32</dim>
					<dim>1</dim>
					<dim>1</dim>
					<dim>3</dim>
					<dim>3</dim>
				</port>
			</output>
		</layer>
		<layer id="32" name="efficientnet-b0/blocks_0/depthwise_conv2d/depthwise" type="GroupConvolution" version="opset1">
			<data strides="1, 1" pads_begin="0, 0" pads_end="0, 0" dilations="1, 1" auto_pad="same_upper" />
			<input>
				<port id="0" precision="FP32">
					<dim>1</dim>
					<dim>32</dim>
					<dim>256</dim>
					<dim>256</dim>
				</port>
				<port id="1" precision="FP32">
					<dim>32</dim>
					<dim>1</dim>
					<dim>1</dim>
					<dim>3</dim>
					<dim>3</dim>
				</port>
			</input>
			<output>
				<port id="2" precision="FP32" names="efficientnet-b0/blocks_0/depthwise_conv2d/depthwise:0">
					<dim>1</dim>
					<dim>32</dim>
					<dim>256</dim>
					<dim>256</dim>
				</port>
			</output>
		</layer>
		<layer id="33" name="efficientnet-b0/blocks_0/depthwise_conv2d/depthwise_bn_offset_compressed" type="Const" version="opset1">
			<data element_type="f16" shape="1, 32, 1, 1" offset="1780" size="64" />
			<output>
				<port id="0" precision="FP16">
					<dim>1</dim>
					<dim>32</dim>
					<dim>1</dim>
					<dim>1</dim>
				</port>
			</output>
		</layer>
		<layer id="34" name="efficientnet-b0/blocks_0/depthwise_conv2d/depthwise_bn_offset" type="Convert" version="opset1">
			<data destination_type="f32" />
			<rt_info>
				<attribute name="decompression" version="0" />
			</rt_info>
			<input>
				<port id="0" precision="FP16">
					<dim>1</dim>
					<dim>32</dim>
					<dim>1</dim>
					<dim>1</dim>
				</port>
			</input>
			<output>
				<port id="1" precision="FP32" names="efficientnet-b0/blocks_0/depthwise_conv2d/depthwise_bn_offset:0">
					<dim>1</dim>
					<dim>32</dim>
					<dim>1</dim>
					<dim>1</dim>
				</port>
			</output>
		</layer>
		<layer id="35" name="efficientnet-b0/blocks_0/tpu_batch_normalization/FusedBatchNormV3/Add" type="Add" version="opset1">
			<data auto_broadcast="numpy" />
			<input>
				<port id="0" precision="FP32">
					<dim>1</dim>
					<dim>32</dim>
					<dim>256</dim>
					<dim>256</dim>
				</port>
				<port id="1" precision="FP32">
					<dim>1</dim>
					<dim>32</dim>
					<dim>1</dim>
					<dim>1</dim>
				</port>
			</input>
			<output>
				<port id="2" precision="FP32" names="efficientnet-b0/blocks_0/tpu_batch_normalization/FusedBatchNormV3:0">
					<dim>1</dim>
					<dim>32</dim>
					<dim>256</dim>
					<dim>256</dim>
				</port>
			</output>
		</layer>
		<layer id="36" name="efficientnet-b0/blocks_0/mul" type="Swish" version="opset4">
			<input>
				<port id="0" precision="FP32">
					<dim>1</dim>
					<dim>32</dim>
					<dim>256</dim>
					<dim>256</dim>
				</port>
			</input>
			<output>
				<port id="1" precision="FP32" names="efficientnet-b0/blocks_0/IdentityN:0,efficientnet-b0/blocks_0/mul:0">
					<dim>1</dim>
					<dim>32</dim>
					<dim>256</dim>
					<dim>256</dim>
				</port>
			</output>
		</layer>
		<layer id="37" name="efficientnet-b0/blocks_0/mul/fq_output_0/input_low" type="Const" version="opset1">
			<data element_type="f32" shape="" offset="1844" size="4" />
			<output>
				<port id="0" precision="FP32" />
			</output>
		</layer>
		<layer id="38" name="efficientnet-b0/blocks_0/mul/fq_output_0/input_high" type="Const" version="opset1">
			<data element_type="f32" shape="" offset="1848" size="4" />
			<output>
				<port id="0" precision="FP32" />
			</output>
		</layer>
		<layer id="39" name="efficientnet-b0/blocks_0/mul/fq_output_0/output_low" type="Const" version="opset1">
			<data element_type="f32" shape="" offset="1844" size="4" />
			<output>
				<port id="0" precision="FP32" />
			</output>
		</layer>
		<layer id="40" name="efficientnet-b0/blocks_0/mul/fq_output_0/output_high" type="Const" version="opset1">
			<data element_type="f32" shape="" offset="1848" size="4" />
			<output>
				<port id="0" precision="FP32" />
			</output>
		</layer>
		<layer id="41" name="efficientnet-b0/blocks_0/mul/fq_output_0" type="FakeQuantize" version="opset1">
			<data levels="256" auto_broadcast="numpy" />
			<input>
				<port id="0" precision="FP32">
					<dim>1</dim>
					<dim>32</dim>
					<dim>256</dim>
					<dim>256</dim>
				</port>
				<port id="1" precision="FP32" />
				<port id="2" precision="FP32" />
				<port id="3" precision="FP32" />
				<port id="4" precision="FP32" />
			</input>
			<output>
				<port id="5" precision="FP32">
					<dim>1</dim>
					<dim>32</dim>
					<dim>256</dim>
					<dim>256</dim>
				</port>
			</output>
		</layer>
		<layer id="42" name="2911747538" type="Const" version="opset1">
			<data element_type="i64" shape="2" offset="1852" size="16" />
			<output>
				<port id="0" precision="I64">
					<dim>2</dim>
				</port>
			</output>
		</layer>
		<layer id="43" name="efficientnet-b0/blocks_0/se/Mean" type="ReduceMean" version="opset1">
			<data keep_dims="true" />
			<input>
				<port id="0" precision="FP32">
					<dim>1</dim>
					<dim>32</dim>
					<dim>256</dim>
					<dim>256</dim>
				</port>
				<port id="1" precision="I64">
					<dim>2</dim>
				</port>
			</input>
			<output>
				<port id="2" precision="FP32" names="efficientnet-b0/blocks_0/se/Mean:0">
					<dim>1</dim>
					<dim>32</dim>
					<dim>1</dim>
					<dim>1</dim>
				</port>
			</output>
		</layer>
		<layer id="44" name="efficientnet-b0/blocks_0/se/conv2d/kernel_compressed" type="Const" version="opset1">
			<data element_type="f16" shape="8, 32, 1, 1" offset="1868" size="512" />
			<output>
				<port id="0" precision="FP16">
					<dim>8</dim>
					<dim>32</dim>
					<dim>1</dim>
					<dim>1</dim>
				</port>
			</output>
		</layer>
		<layer id="45" name="efficientnet-b0/blocks_0/se/conv2d/kernel" type="Convert" version="opset1">
			<data destination_type="f32" />
			<rt_info>
				<attribute name="decompression" version="0" />
			</rt_info>
			<input>
				<port id="0" precision="FP16">
					<dim>8</dim>
					<dim>32</dim>
					<dim>1</dim>
					<dim>1</dim>
				</port>
			</input>
			<output>
				<port id="1" precision="FP32" names="efficientnet-b0/blocks_0/se/conv2d/kernel:0">
					<dim>8</dim>
					<dim>32</dim>
					<dim>1</dim>
					<dim>1</dim>
				</port>
			</output>
		</layer>
		<layer id="46" name="efficientnet-b0/blocks_0/se/conv2d/Conv2D" type="Convolution" version="opset1">
			<data strides="1, 1" dilations="1, 1" pads_begin="0, 0" pads_end="0, 0" auto_pad="same_upper" />
			<input>
				<port id="0" precision="FP32">
					<dim>1</dim>
					<dim>32</dim>
					<dim>1</dim>
					<dim>1</dim>
				</port>
				<port id="1" precision="FP32">
					<dim>8</dim>
					<dim>32</dim>
					<dim>1</dim>
					<dim>1</dim>
				</port>
			</input>
			<output>
				<port id="2" precision="FP32" names="efficientnet-b0/blocks_0/se/conv2d/Conv2D:0">
					<dim>1</dim>
					<dim>8</dim>
					<dim>1</dim>
					<dim>1</dim>
				</port>
			</output>
		</layer>
		<layer id="47" name="efficientnet-b0/blocks_0/se/conv2d/bias_compressed" type="Const" version="opset1">
			<data element_type="f16" shape="1, 8, 1, 1" offset="2380" size="16" />
			<output>
				<port id="0" precision="FP16">
					<dim>1</dim>
					<dim>8</dim>
					<dim>1</dim>
					<dim>1</dim>
				</port>
			</output>
		</layer>
		<layer id="48" name="efficientnet-b0/blocks_0/se/conv2d/bias" type="Convert" version="opset1">
			<data destination_type="f32" />
			<rt_info>
				<attribute name="decompression" version="0" />
			</rt_info>
			<input>
				<port id="0" precision="FP16">
					<dim>1</dim>
					<dim>8</dim>
					<dim>1</dim>
					<dim>1</dim>
				</port>
			</input>
			<output>
				<port id="1" precision="FP32" names="efficientnet-b0/blocks_0/se/conv2d/bias:0">
					<dim>1</dim>
					<dim>8</dim>
					<dim>1</dim>
					<dim>1</dim>
				</port>
			</output>
		</layer>
		<layer id="49" name="efficientnet-b0/blocks_0/se/conv2d/BiasAdd/Add" type="Add" version="opset1">
			<data auto_broadcast="numpy" />
			<input>
				<port id="0" precision="FP32">
					<dim>1</dim>
					<dim>8</dim>
					<dim>1</dim>
					<dim>1</dim>
				</port>
				<port id="1" precision="FP32">
					<dim>1</dim>
					<dim>8</dim>
					<dim>1</dim>
					<dim>1</dim>
				</port>
			</input>
			<output>
				<port id="2" precision="FP32" names="efficientnet-b0/blocks_0/se/conv2d/BiasAdd:0">
					<dim>1</dim>
					<dim>8</dim>
					<dim>1</dim>
					<dim>1</dim>
				</port>
			</output>
		</layer>
		<layer id="50" name="efficientnet-b0/blocks_0/se/mul" type="Swish" version="opset4">
			<input>
				<port id="0" precision="FP32">
					<dim>1</dim>
					<dim>8</dim>
					<dim>1</dim>
					<dim>1</dim>
				</port>
			</input>
			<output>
				<port id="1" precision="FP32" names="efficientnet-b0/blocks_0/se/IdentityN:0,efficientnet-b0/blocks_0/se/mul:0">
					<dim>1</dim>
					<dim>8</dim>
					<dim>1</dim>
					<dim>1</dim>
				</port>
			</output>
		</layer>
		<layer id="51" name="efficientnet-b0/blocks_0/se/conv2d_1/kernel_compressed" type="Const" version="opset1">
			<data element_type="f16" shape="32, 8, 1, 1" offset="2396" size="512" />
			<output>
				<port id="0" precision="FP16">
					<dim>32</dim>
					<dim>8</dim>
					<dim>1</dim>
					<dim>1</dim>
				</port>
			</output>
		</layer>
		<layer id="52" name="efficientnet-b0/blocks_0/se/conv2d_1/kernel" type="Convert" version="opset1">
			<data destination_type="f32" />
			<rt_info>
				<attribute name="decompression" version="0" />
			</rt_info>
			<input>
				<port id="0" precision="FP16">
					<dim>32</dim>
					<dim>8</dim>
					<dim>1</dim>
					<dim>1</dim>
				</port>
			</input>
			<output>
				<port id="1" precision="FP32" names="efficientnet-b0/blocks_0/se/conv2d_1/kernel:0">
					<dim>32</dim>
					<dim>8</dim>
					<dim>1</dim>
					<dim>1</dim>
				</port>
			</output>
		</layer>
		<layer id="53" name="efficientnet-b0/blocks_0/se/conv2d_1/Conv2D" type="Convolution" version="opset1">
			<data strides="1, 1" dilations="1, 1" pads_begin="0, 0" pads_end="0, 0" auto_pad="same_upper" />
			<input>
				<port id="0" precision="FP32">
					<dim>1</dim>
					<dim>8</dim>
					<dim>1</dim>
					<dim>1</dim>
				</port>
				<port id="1" precision="FP32">
					<dim>32</dim>
					<dim>8</dim>
					<dim>1</dim>
					<dim>1</dim>
				</port>
			</input>
			<output>
				<port id="2" precision="FP32" names="efficientnet-b0/blocks_0/se/conv2d_1/Conv2D:0">
					<dim>1</dim>
					<dim>32</dim>
					<dim>1</dim>
					<dim>1</dim>
				</port>
			</output>
		</layer>
		<layer id="54" name="efficientnet-b0/blocks_0/se/conv2d_1/bias_compressed" type="Const" version="opset1">
			<data element_type="f16" shape="1, 32, 1, 1" offset="2908" size="64" />
			<output>
				<port id="0" precision="FP16">
					<dim>1</dim>
					<dim>32</dim>
					<dim>1</dim>
					<dim>1</dim>
				</port>
			</output>
		</layer>
		<layer id="55" name="efficientnet-b0/blocks_0/se/conv2d_1/bias" type="Convert" version="opset1">
			<data destination_type="f32" />
			<rt_info>
				<attribute name="decompression" version="0" />
			</rt_info>
			<input>
				<port id="0" precision="FP16">
					<dim>1</dim>
					<dim>32</dim>
					<dim>1</dim>
					<dim>1</dim>
				</port>
			</input>
			<output>
				<port id="1" precision="FP32" names="efficientnet-b0/blocks_0/se/conv2d_1/bias:0">
					<dim>1</dim>
					<dim>32</dim>
					<dim>1</dim>
					<dim>1</dim>
				</port>
			</output>
		</layer>
		<layer id="56" name="efficientnet-b0/blocks_0/se/conv2d_1/BiasAdd/Add" type="Add" version="opset1">
			<data auto_broadcast="numpy" />
			<input>
				<port id="0" precision="FP32">
					<dim>1</dim>
					<dim>32</dim>
					<dim>1</dim>
					<dim>1</dim>
				</port>
				<port id="1" precision="FP32">
					<dim>1</dim>
					<dim>32</dim>
					<dim>1</dim>
					<dim>1</dim>
				</port>
			</input>
			<output>
				<port id="2" precision="FP32" names="efficientnet-b0/blocks_0/se/conv2d_1/BiasAdd:0">
					<dim>1</dim>
					<dim>32</dim>
					<dim>1</dim>
					<dim>1</dim>
				</port>
			</output>
		</layer>
		<layer id="57" name="efficientnet-b0/blocks_0/se/Sigmoid_1" type="Sigmoid" version="opset1">
			<input>
				<port id="0" precision="FP32">
					<dim>1</dim>
					<dim>32</dim>
					<dim>1</dim>
					<dim>1</dim>
				</port>
			</input>
			<output>
				<port id="1" precision="FP32" names="efficientnet-b0/blocks_0/se/Sigmoid_1:0">
					<dim>1</dim>
					<dim>32</dim>
					<dim>1</dim>
					<dim>1</dim>
				</port>
			</output>
		</layer>
		<layer id="58" name="efficientnet-b0/blocks_0/se/Sigmoid_1/fq_output_0/input_low" type="Const" version="opset1">
			<data element_type="f32" shape="" offset="2972" size="4" />
			<output>
				<port id="0" precision="FP32" />
			</output>
		</layer>
		<layer id="59" name="efficientnet-b0/blocks_0/se/Sigmoid_1/fq_output_0/input_high" type="Const" version="opset1">
			<data element_type="f32" shape="" offset="2976" size="4" />
			<output>
				<port id="0" precision="FP32" />
			</output>
		</layer>
		<layer id="60" name="efficientnet-b0/blocks_0/se/Sigmoid_1/fq_output_0/output_low" type="Const" version="opset1">
			<data element_type="f32" shape="" offset="2972" size="4" />
			<output>
				<port id="0" precision="FP32" />
			</output>
		</layer>
		<layer id="61" name="efficientnet-b0/blocks_0/se/Sigmoid_1/fq_output_0/output_high" type="Const" version="opset1">
			<data element_type="f32" shape="" offset="2976" size="4" />
			<output>
				<port id="0" precision="FP32" />
			</output>
		</layer>
		<layer id="62" name="efficientnet-b0/blocks_0/se/Sigmoid_1/fq_output_0" type="FakeQuantize" version="opset1">
			<data levels="256" auto_broadcast="numpy" />
			<input>
				<port id="0" precision="FP32">
					<dim>1</dim>
					<dim>32</dim>
					<dim>1</dim>
					<dim>1</dim>
				</port>
				<port id="1" precision="FP32" />
				<port id="2" precision="FP32" />
				<port id="3" precision="FP32" />
				<port id="4" precision="FP32" />
			</input>
			<output>
				<port id="5" precision="FP32">
					<dim>1</dim>
					<dim>32</dim>
					<dim>1</dim>
					<dim>1</dim>
				</port>
			</output>
		</layer>
		<layer id="63" name="efficientnet-b0/blocks_0/se/mul_1" type="Multiply" version="opset1">
			<data auto_broadcast="numpy" />
			<input>
				<port id="0" precision="FP32">
					<dim>1</dim>
					<dim>32</dim>
					<dim>1</dim>
					<dim>1</dim>
				</port>
				<port id="1" precision="FP32">
					<dim>1</dim>
					<dim>32</dim>
					<dim>256</dim>
					<dim>256</dim>
				</port>
			</input>
			<output>
				<port id="2" precision="FP32" names="efficientnet-b0/blocks_0/se/mul_1:0">
					<dim>1</dim>
					<dim>32</dim>
					<dim>256</dim>
					<dim>256</dim>
				</port>
			</output>
		</layer>
		<layer id="64" name="efficientnet-b0/blocks_0/se/mul_1/fq_output_0/input_low" type="Const" version="opset1">
			<data element_type="f32" shape="" offset="2980" size="4" />
			<output>
				<port id="0" precision="FP32" />
			</output>
		</layer>
		<layer id="65" name="efficientnet-b0/blocks_0/se/mul_1/fq_output_0/input_high" type="Const" version="opset1">
			<data element_type="f32" shape="" offset="2984" size="4" />
			<output>
				<port id="0" precision="FP32" />
			</output>
		</layer>
		<layer id="66" name="efficientnet-b0/blocks_0/se/mul_1/fq_output_0/output_low" type="Const" version="opset1">
			<data element_type="f32" shape="" offset="2980" size="4" />
			<output>
				<port id="0" precision="FP32" />
			</output>
		</layer>
		<layer id="67" name="efficientnet-b0/blocks_0/se/mul_1/fq_output_0/output_high" type="Const" version="opset1">
			<data element_type="f32" shape="" offset="2984" size="4" />
			<output>
				<port id="0" precision="FP32" />
			</output>
		</layer>
		<layer id="68" name="efficientnet-b0/blocks_0/se/mul_1/fq_output_0" type="FakeQuantize" version="opset1">
			<data levels="256" auto_broadcast="numpy" />
			<input>
				<port id="0" precision="FP32">
					<dim>1</dim>
					<dim>32</dim>
					<dim>256</dim>
					<dim>256</dim>
				</port>
				<port id="1" precision="FP32" />
				<port id="2" precision="FP32" />
				<port id="3" precision="FP32" />
				<port id="4" precision="FP32" />
			</input>
			<output>
				<port id="5" precision="FP32">
					<dim>1</dim>
					<dim>32</dim>
					<dim>256</dim>
					<dim>256</dim>
				</port>
			</output>
		</layer>
		<layer id="69" name="Constant_918288" type="Const" version="opset1">
			<data element_type="i8" shape="16, 32, 1, 1" offset="2988" size="512" />
			<output>
				<port id="0" precision="I8">
					<dim>16</dim>
					<dim>32</dim>
					<dim>1</dim>
					<dim>1</dim>
				</port>
			</output>
		</layer>
		<layer id="70" name="Convert_918289" type="Convert" version="opset1">
			<data destination_type="f32" />
			<input>
				<port id="0" precision="I8">
					<dim>16</dim>
					<dim>32</dim>
					<dim>1</dim>
					<dim>1</dim>
				</port>
			</input>
			<output>
				<port id="1" precision="FP32">
					<dim>16</dim>
					<dim>32</dim>
					<dim>1</dim>
					<dim>1</dim>
				</port>
			</output>
		</layer>
		<layer id="71" name="Constant_918290" type="Const" version="opset1">
			<data element_type="f32" shape="16, 1, 1, 1" offset="3500" size="64" />
			<output>
				<port id="0" precision="FP32">
					<dim>16</dim>
					<dim>1</dim>
					<dim>1</dim>
					<dim>1</dim>
				</port>
			</output>
		</layer>
		<layer id="72" name="efficientnet-b0/blocks_0/conv2d/Conv2D/fq_weights_1" type="Multiply" version="opset1">
			<data auto_broadcast="numpy" />
			<input>
				<port id="0" precision="FP32">
					<dim>16</dim>
					<dim>32</dim>
					<dim>1</dim>
					<dim>1</dim>
				</port>
				<port id="1" precision="FP32">
					<dim>16</dim>
					<dim>1</dim>
					<dim>1</dim>
					<dim>1</dim>
				</port>
			</input>
			<output>
				<port id="2" precision="FP32">
					<dim>16</dim>
					<dim>32</dim>
					<dim>1</dim>
					<dim>1</dim>
				</port>
			</output>
		</layer>
		<layer id="73" name="efficientnet-b0/blocks_0/conv2d/Conv2D" type="Convolution" version="opset1">
			<data strides="1, 1" dilations="1, 1" pads_begin="0, 0" pads_end="0, 0" auto_pad="same_upper" />
			<input>
				<port id="0" precision="FP32">
					<dim>1</dim>
					<dim>32</dim>
					<dim>256</dim>
					<dim>256</dim>
				</port>
				<port id="1" precision="FP32">
					<dim>16</dim>
					<dim>32</dim>
					<dim>1</dim>
					<dim>1</dim>
				</port>
			</input>
			<output>
				<port id="2" precision="FP32" names="efficientnet-b0/blocks_0/conv2d/Conv2D:0">
					<dim>1</dim>
					<dim>16</dim>
					<dim>256</dim>
					<dim>256</dim>
				</port>
			</output>
		</layer>
		<layer id="74" name="efficientnet-b0/blocks_0/conv2d/Conv2D_bn_offset_compressed" type="Const" version="opset1">
			<data element_type="f16" shape="1, 16, 1, 1" offset="3564" size="32" />
			<output>
				<port id="0" precision="FP16">
					<dim>1</dim>
					<dim>16</dim>
					<dim>1</dim>
					<dim>1</dim>
				</port>
			</output>
		</layer>
		<layer id="75" name="efficientnet-b0/blocks_0/conv2d/Conv2D_bn_offset" type="Convert" version="opset1">
			<data destination_type="f32" />
			<rt_info>
				<attribute name="decompression" version="0" />
			</rt_info>
			<input>
				<port id="0" precision="FP16">
					<dim>1</dim>
					<dim>16</dim>
					<dim>1</dim>
					<dim>1</dim>
				</port>
			</input>
			<output>
				<port id="1" precision="FP32" names="efficientnet-b0/blocks_0/conv2d/Conv2D_bn_offset:0">
					<dim>1</dim>
					<dim>16</dim>
					<dim>1</dim>
					<dim>1</dim>
				</port>
			</output>
		</layer>
		<layer id="76" name="efficientnet-b0/blocks_0/tpu_batch_normalization_1/FusedBatchNormV3/Add" type="Add" version="opset1">
			<data auto_broadcast="numpy" />
			<input>
				<port id="0" precision="FP32">
					<dim>1</dim>
					<dim>16</dim>
					<dim>256</dim>
					<dim>256</dim>
				</port>
				<port id="1" precision="FP32">
					<dim>1</dim>
					<dim>16</dim>
					<dim>1</dim>
					<dim>1</dim>
				</port>
			</input>
			<output>
				<port id="2" precision="FP32" names="efficientnet-b0/blocks_0/tpu_batch_normalization_1/FusedBatchNormV3:0">
					<dim>1</dim>
					<dim>16</dim>
					<dim>256</dim>
					<dim>256</dim>
				</port>
			</output>
		</layer>
		<layer id="77" name="efficientnet-b0/blocks_0/tpu_batch_normalization_1/FusedBatchNormV3/Add/fq_output_0/input_low" type="Const" version="opset1">
			<data element_type="f32" shape="" offset="3596" size="4" />
			<output>
				<port id="0" precision="FP32" />
			</output>
		</layer>
		<layer id="78" name="efficientnet-b0/blocks_0/tpu_batch_normalization_1/FusedBatchNormV3/Add/fq_output_0/input_high" type="Const" version="opset1">
			<data element_type="f32" shape="" offset="3600" size="4" />
			<output>
				<port id="0" precision="FP32" />
			</output>
		</layer>
		<layer id="79" name="efficientnet-b0/blocks_0/tpu_batch_normalization_1/FusedBatchNormV3/Add/fq_output_0/output_low" type="Const" version="opset1">
			<data element_type="f32" shape="" offset="3596" size="4" />
			<output>
				<port id="0" precision="FP32" />
			</output>
		</layer>
		<layer id="80" name="efficientnet-b0/blocks_0/tpu_batch_normalization_1/FusedBatchNormV3/Add/fq_output_0/output_high" type="Const" version="opset1">
			<data element_type="f32" shape="" offset="3600" size="4" />
			<output>
				<port id="0" precision="FP32" />
			</output>
		</layer>
		<layer id="81" name="efficientnet-b0/blocks_0/tpu_batch_normalization_1/FusedBatchNormV3/Add/fq_output_0" type="FakeQuantize" version="opset1">
			<data levels="256" auto_broadcast="numpy" />
			<input>
				<port id="0" precision="FP32">
					<dim>1</dim>
					<dim>16</dim>
					<dim>256</dim>
					<dim>256</dim>
				</port>
				<port id="1" precision="FP32" />
				<port id="2" precision="FP32" />
				<port id="3" precision="FP32" />
				<port id="4" precision="FP32" />
			</input>
			<output>
				<port id="5" precision="FP32">
					<dim>1</dim>
					<dim>16</dim>
					<dim>256</dim>
					<dim>256</dim>
				</port>
			</output>
		</layer>
		<layer id="82" name="Constant_918293" type="Const" version="opset1">
			<data element_type="i8" shape="96, 16, 1, 1" offset="3604" size="1536" />
			<output>
				<port id="0" precision="I8">
					<dim>96</dim>
					<dim>16</dim>
					<dim>1</dim>
					<dim>1</dim>
				</port>
			</output>
		</layer>
		<layer id="83" name="Convert_918294" type="Convert" version="opset1">
			<data destination_type="f32" />
			<input>
				<port id="0" precision="I8">
					<dim>96</dim>
					<dim>16</dim>
					<dim>1</dim>
					<dim>1</dim>
				</port>
			</input>
			<output>
				<port id="1" precision="FP32">
					<dim>96</dim>
					<dim>16</dim>
					<dim>1</dim>
					<dim>1</dim>
				</port>
			</output>
		</layer>
		<layer id="84" name="Constant_918295" type="Const" version="opset1">
			<data element_type="f32" shape="96, 1, 1, 1" offset="5140" size="384" />
			<output>
				<port id="0" precision="FP32">
					<dim>96</dim>
					<dim>1</dim>
					<dim>1</dim>
					<dim>1</dim>
				</port>
			</output>
		</layer>
		<layer id="85" name="efficientnet-b0/blocks_1/conv2d/Conv2D/fq_weights_1" type="Multiply" version="opset1">
			<data auto_broadcast="numpy" />
			<input>
				<port id="0" precision="FP32">
					<dim>96</dim>
					<dim>16</dim>
					<dim>1</dim>
					<dim>1</dim>
				</port>
				<port id="1" precision="FP32">
					<dim>96</dim>
					<dim>1</dim>
					<dim>1</dim>
					<dim>1</dim>
				</port>
			</input>
			<output>
				<port id="2" precision="FP32">
					<dim>96</dim>
					<dim>16</dim>
					<dim>1</dim>
					<dim>1</dim>
				</port>
			</output>
		</layer>
		<layer id="86" name="efficientnet-b0/blocks_1/conv2d/Conv2D" type="Convolution" version="opset1">
			<data strides="1, 1" dilations="1, 1" pads_begin="0, 0" pads_end="0, 0" auto_pad="same_upper" />
			<input>
				<port id="0" precision="FP32">
					<dim>1</dim>
					<dim>16</dim>
					<dim>256</dim>
					<dim>256</dim>
				</port>
				<port id="1" precision="FP32">
					<dim>96</dim>
					<dim>16</dim>
					<dim>1</dim>
					<dim>1</dim>
				</port>
			</input>
			<output>
				<port id="2" precision="FP32" names="efficientnet-b0/blocks_1/conv2d/Conv2D:0">
					<dim>1</dim>
					<dim>96</dim>
					<dim>256</dim>
					<dim>256</dim>
				</port>
			</output>
		</layer>
		<layer id="87" name="efficientnet-b0/blocks_1/conv2d/Conv2D_bn_offset_compressed" type="Const" version="opset1">
			<data element_type="f16" shape="1, 96, 1, 1" offset="5524" size="192" />
			<output>
				<port id="0" precision="FP16">
					<dim>1</dim>
					<dim>96</dim>
					<dim>1</dim>
					<dim>1</dim>
				</port>
			</output>
		</layer>
		<layer id="88" name="efficientnet-b0/blocks_1/conv2d/Conv2D_bn_offset" type="Convert" version="opset1">
			<data destination_type="f32" />
			<rt_info>
				<attribute name="decompression" version="0" />
			</rt_info>
			<input>
				<port id="0" precision="FP16">
					<dim>1</dim>
					<dim>96</dim>
					<dim>1</dim>
					<dim>1</dim>
				</port>
			</input>
			<output>
				<port id="1" precision="FP32" names="efficientnet-b0/blocks_1/conv2d/Conv2D_bn_offset:0">
					<dim>1</dim>
					<dim>96</dim>
					<dim>1</dim>
					<dim>1</dim>
				</port>
			</output>
		</layer>
		<layer id="89" name="efficientnet-b0/blocks_1/tpu_batch_normalization/FusedBatchNormV3/Add" type="Add" version="opset1">
			<data auto_broadcast="numpy" />
			<input>
				<port id="0" precision="FP32">
					<dim>1</dim>
					<dim>96</dim>
					<dim>256</dim>
					<dim>256</dim>
				</port>
				<port id="1" precision="FP32">
					<dim>1</dim>
					<dim>96</dim>
					<dim>1</dim>
					<dim>1</dim>
				</port>
			</input>
			<output>
				<port id="2" precision="FP32" names="efficientnet-b0/blocks_1/tpu_batch_normalization/FusedBatchNormV3:0">
					<dim>1</dim>
					<dim>96</dim>
					<dim>256</dim>
					<dim>256</dim>
				</port>
			</output>
		</layer>
		<layer id="90" name="efficientnet-b0/blocks_1/mul" type="Swish" version="opset4">
			<input>
				<port id="0" precision="FP32">
					<dim>1</dim>
					<dim>96</dim>
					<dim>256</dim>
					<dim>256</dim>
				</port>
			</input>
			<output>
				<port id="1" precision="FP32" names="efficientnet-b0/blocks_1/IdentityN:0,efficientnet-b0/blocks_1/mul:0">
					<dim>1</dim>
					<dim>96</dim>
					<dim>256</dim>
					<dim>256</dim>
				</port>
			</output>
		</layer>
		<layer id="91" name="efficientnet-b0/blocks_1/mul/fq_output_0/input_low" type="Const" version="opset1">
			<data element_type="f32" shape="1, 96, 1, 1" offset="5716" size="384" />
			<output>
				<port id="0" precision="FP32">
					<dim>1</dim>
					<dim>96</dim>
					<dim>1</dim>
					<dim>1</dim>
				</port>
			</output>
		</layer>
		<layer id="92" name="efficientnet-b0/blocks_1/mul/fq_output_0/input_high" type="Const" version="opset1">
			<data element_type="f32" shape="1, 96, 1, 1" offset="6100" size="384" />
			<output>
				<port id="0" precision="FP32">
					<dim>1</dim>
					<dim>96</dim>
					<dim>1</dim>
					<dim>1</dim>
				</port>
			</output>
		</layer>
		<layer id="93" name="efficientnet-b0/blocks_1/mul/fq_output_0/output_low" type="Const" version="opset1">
			<data element_type="f32" shape="1, 96, 1, 1" offset="5716" size="384" />
			<output>
				<port id="0" precision="FP32">
					<dim>1</dim>
					<dim>96</dim>
					<dim>1</dim>
					<dim>1</dim>
				</port>
			</output>
		</layer>
		<layer id="94" name="efficientnet-b0/blocks_1/mul/fq_output_0/output_high" type="Const" version="opset1">
			<data element_type="f32" shape="1, 96, 1, 1" offset="6100" size="384" />
			<output>
				<port id="0" precision="FP32">
					<dim>1</dim>
					<dim>96</dim>
					<dim>1</dim>
					<dim>1</dim>
				</port>
			</output>
		</layer>
		<layer id="95" name="efficientnet-b0/blocks_1/mul/fq_output_0" type="FakeQuantize" version="opset1">
			<data levels="256" auto_broadcast="numpy" />
			<input>
				<port id="0" precision="FP32">
					<dim>1</dim>
					<dim>96</dim>
					<dim>256</dim>
					<dim>256</dim>
				</port>
				<port id="1" precision="FP32">
					<dim>1</dim>
					<dim>96</dim>
					<dim>1</dim>
					<dim>1</dim>
				</port>
				<port id="2" precision="FP32">
					<dim>1</dim>
					<dim>96</dim>
					<dim>1</dim>
					<dim>1</dim>
				</port>
				<port id="3" precision="FP32">
					<dim>1</dim>
					<dim>96</dim>
					<dim>1</dim>
					<dim>1</dim>
				</port>
				<port id="4" precision="FP32">
					<dim>1</dim>
					<dim>96</dim>
					<dim>1</dim>
					<dim>1</dim>
				</port>
			</input>
			<output>
				<port id="5" precision="FP32">
					<dim>1</dim>
					<dim>96</dim>
					<dim>256</dim>
					<dim>256</dim>
				</port>
			</output>
		</layer>
		<layer id="96" name="Constant_918298" type="Const" version="opset1">
			<data element_type="i8" shape="96, 1, 1, 3, 3" offset="6484" size="864" />
			<output>
				<port id="0" precision="I8">
					<dim>96</dim>
					<dim>1</dim>
					<dim>1</dim>
					<dim>3</dim>
					<dim>3</dim>
				</port>
			</output>
		</layer>
		<layer id="97" name="Convert_918299" type="Convert" version="opset1">
			<data destination_type="f32" />
			<input>
				<port id="0" precision="I8">
					<dim>96</dim>
					<dim>1</dim>
					<dim>1</dim>
					<dim>3</dim>
					<dim>3</dim>
				</port>
			</input>
			<output>
				<port id="1" precision="FP32">
					<dim>96</dim>
					<dim>1</dim>
					<dim>1</dim>
					<dim>3</dim>
					<dim>3</dim>
				</port>
			</output>
		</layer>
		<layer id="98" name="Constant_918300" type="Const" version="opset1">
			<data element_type="f32" shape="96, 1, 1, 1, 1" offset="7348" size="384" />
			<output>
				<port id="0" precision="FP32">
					<dim>96</dim>
					<dim>1</dim>
					<dim>1</dim>
					<dim>1</dim>
					<dim>1</dim>
				</port>
			</output>
		</layer>
		<layer id="99" name="efficientnet-b0/blocks_1/depthwise_conv2d/depthwise/fq_weights_1" type="Multiply" version="opset1">
			<data auto_broadcast="numpy" />
			<input>
				<port id="0" precision="FP32">
					<dim>96</dim>
					<dim>1</dim>
					<dim>1</dim>
					<dim>3</dim>
					<dim>3</dim>
				</port>
				<port id="1" precision="FP32">
					<dim>96</dim>
					<dim>1</dim>
					<dim>1</dim>
					<dim>1</dim>
					<dim>1</dim>
				</port>
			</input>
			<output>
				<port id="2" precision="FP32">
					<dim>96</dim>
					<dim>1</dim>
					<dim>1</dim>
					<dim>3</dim>
					<dim>3</dim>
				</port>
			</output>
		</layer>
		<layer id="100" name="efficientnet-b0/blocks_1/depthwise_conv2d/depthwise" type="GroupConvolution" version="opset1">
			<data strides="2, 2" pads_begin="0, 0" pads_end="0, 0" dilations="1, 1" auto_pad="same_upper" />
			<input>
				<port id="0" precision="FP32">
					<dim>1</dim>
					<dim>96</dim>
					<dim>256</dim>
					<dim>256</dim>
				</port>
				<port id="1" precision="FP32">
					<dim>96</dim>
					<dim>1</dim>
					<dim>1</dim>
					<dim>3</dim>
					<dim>3</dim>
				</port>
			</input>
			<output>
				<port id="2" precision="FP32" names="efficientnet-b0/blocks_1/depthwise_conv2d/depthwise:0">
					<dim>1</dim>
					<dim>96</dim>
					<dim>128</dim>
					<dim>128</dim>
				</port>
			</output>
		</layer>
		<layer id="101" name="efficientnet-b0/blocks_1/depthwise_conv2d/depthwise_bn_offset_compressed" type="Const" version="opset1">
			<data element_type="f16" shape="1, 96, 1, 1" offset="7732" size="192" />
			<output>
				<port id="0" precision="FP16">
					<dim>1</dim>
					<dim>96</dim>
					<dim>1</dim>
					<dim>1</dim>
				</port>
			</output>
		</layer>
		<layer id="102" name="efficientnet-b0/blocks_1/depthwise_conv2d/depthwise_bn_offset" type="Convert" version="opset1">
			<data destination_type="f32" />
			<rt_info>
				<attribute name="decompression" version="0" />
			</rt_info>
			<input>
				<port id="0" precision="FP16">
					<dim>1</dim>
					<dim>96</dim>
					<dim>1</dim>
					<dim>1</dim>
				</port>
			</input>
			<output>
				<port id="1" precision="FP32" names="efficientnet-b0/blocks_1/depthwise_conv2d/depthwise_bn_offset:0">
					<dim>1</dim>
					<dim>96</dim>
					<dim>1</dim>
					<dim>1</dim>
				</port>
			</output>
		</layer>
		<layer id="103" name="efficientnet-b0/blocks_1/tpu_batch_normalization_1/FusedBatchNormV3/Add" type="Add" version="opset1">
			<data auto_broadcast="numpy" />
			<input>
				<port id="0" precision="FP32">
					<dim>1</dim>
					<dim>96</dim>
					<dim>128</dim>
					<dim>128</dim>
				</port>
				<port id="1" precision="FP32">
					<dim>1</dim>
					<dim>96</dim>
					<dim>1</dim>
					<dim>1</dim>
				</port>
			</input>
			<output>
				<port id="2" precision="FP32" names="efficientnet-b0/blocks_1/tpu_batch_normalization_1/FusedBatchNormV3:0">
					<dim>1</dim>
					<dim>96</dim>
					<dim>128</dim>
					<dim>128</dim>
				</port>
			</output>
		</layer>
		<layer id="104" name="efficientnet-b0/blocks_1/mul_1" type="Swish" version="opset4">
			<input>
				<port id="0" precision="FP32">
					<dim>1</dim>
					<dim>96</dim>
					<dim>128</dim>
					<dim>128</dim>
				</port>
			</input>
			<output>
				<port id="1" precision="FP32" names="efficientnet-b0/blocks_1/IdentityN_1:0,efficientnet-b0/blocks_1/mul_1:0">
					<dim>1</dim>
					<dim>96</dim>
					<dim>128</dim>
					<dim>128</dim>
				</port>
			</output>
		</layer>
		<layer id="105" name="efficientnet-b0/blocks_1/mul_1/fq_output_0/input_low" type="Const" version="opset1">
			<data element_type="f32" shape="" offset="7924" size="4" />
			<output>
				<port id="0" precision="FP32" />
			</output>
		</layer>
		<layer id="106" name="efficientnet-b0/blocks_1/mul_1/fq_output_0/input_high" type="Const" version="opset1">
			<data element_type="f32" shape="" offset="7928" size="4" />
			<output>
				<port id="0" precision="FP32" />
			</output>
		</layer>
		<layer id="107" name="efficientnet-b0/blocks_1/mul_1/fq_output_0/output_low" type="Const" version="opset1">
			<data element_type="f32" shape="" offset="7924" size="4" />
			<output>
				<port id="0" precision="FP32" />
			</output>
		</layer>
		<layer id="108" name="efficientnet-b0/blocks_1/mul_1/fq_output_0/output_high" type="Const" version="opset1">
			<data element_type="f32" shape="" offset="7928" size="4" />
			<output>
				<port id="0" precision="FP32" />
			</output>
		</layer>
		<layer id="109" name="efficientnet-b0/blocks_1/mul_1/fq_output_0" type="FakeQuantize" version="opset1">
			<data levels="256" auto_broadcast="numpy" />
			<input>
				<port id="0" precision="FP32">
					<dim>1</dim>
					<dim>96</dim>
					<dim>128</dim>
					<dim>128</dim>
				</port>
				<port id="1" precision="FP32" />
				<port id="2" precision="FP32" />
				<port id="3" precision="FP32" />
				<port id="4" precision="FP32" />
			</input>
			<output>
				<port id="5" precision="FP32">
					<dim>1</dim>
					<dim>96</dim>
					<dim>128</dim>
					<dim>128</dim>
				</port>
			</output>
		</layer>
		<layer id="110" name="2914346680" type="Const" version="opset1">
			<data element_type="i64" shape="2" offset="1852" size="16" />
			<output>
				<port id="0" precision="I64">
					<dim>2</dim>
				</port>
			</output>
		</layer>
		<layer id="111" name="efficientnet-b0/blocks_1/se/Mean" type="ReduceMean" version="opset1">
			<data keep_dims="true" />
			<input>
				<port id="0" precision="FP32">
					<dim>1</dim>
					<dim>96</dim>
					<dim>128</dim>
					<dim>128</dim>
				</port>
				<port id="1" precision="I64">
					<dim>2</dim>
				</port>
			</input>
			<output>
				<port id="2" precision="FP32" names="efficientnet-b0/blocks_1/se/Mean:0">
					<dim>1</dim>
					<dim>96</dim>
					<dim>1</dim>
					<dim>1</dim>
				</port>
			</output>
		</layer>
		<layer id="112" name="efficientnet-b0/blocks_1/se/conv2d/kernel_compressed" type="Const" version="opset1">
			<data element_type="f16" shape="4, 96, 1, 1" offset="7932" size="768" />
			<output>
				<port id="0" precision="FP16">
					<dim>4</dim>
					<dim>96</dim>
					<dim>1</dim>
					<dim>1</dim>
				</port>
			</output>
		</layer>
		<layer id="113" name="efficientnet-b0/blocks_1/se/conv2d/kernel" type="Convert" version="opset1">
			<data destination_type="f32" />
			<rt_info>
				<attribute name="decompression" version="0" />
			</rt_info>
			<input>
				<port id="0" precision="FP16">
					<dim>4</dim>
					<dim>96</dim>
					<dim>1</dim>
					<dim>1</dim>
				</port>
			</input>
			<output>
				<port id="1" precision="FP32" names="efficientnet-b0/blocks_1/se/conv2d/kernel:0">
					<dim>4</dim>
					<dim>96</dim>
					<dim>1</dim>
					<dim>1</dim>
				</port>
			</output>
		</layer>
		<layer id="114" name="efficientnet-b0/blocks_1/se/conv2d/Conv2D" type="Convolution" version="opset1">
			<data strides="1, 1" dilations="1, 1" pads_begin="0, 0" pads_end="0, 0" auto_pad="same_upper" />
			<input>
				<port id="0" precision="FP32">
					<dim>1</dim>
					<dim>96</dim>
					<dim>1</dim>
					<dim>1</dim>
				</port>
				<port id="1" precision="FP32">
					<dim>4</dim>
					<dim>96</dim>
					<dim>1</dim>
					<dim>1</dim>
				</port>
			</input>
			<output>
				<port id="2" precision="FP32" names="efficientnet-b0/blocks_1/se/conv2d/Conv2D:0">
					<dim>1</dim>
					<dim>4</dim>
					<dim>1</dim>
					<dim>1</dim>
				</port>
			</output>
		</layer>
		<layer id="115" name="efficientnet-b0/blocks_1/se/conv2d/bias_compressed" type="Const" version="opset1">
			<data element_type="f16" shape="1, 4, 1, 1" offset="8700" size="8" />
			<output>
				<port id="0" precision="FP16">
					<dim>1</dim>
					<dim>4</dim>
					<dim>1</dim>
					<dim>1</dim>
				</port>
			</output>
		</layer>
		<layer id="116" name="efficientnet-b0/blocks_1/se/conv2d/bias" type="Convert" version="opset1">
			<data destination_type="f32" />
			<rt_info>
				<attribute name="decompression" version="0" />
			</rt_info>
			<input>
				<port id="0" precision="FP16">
					<dim>1</dim>
					<dim>4</dim>
					<dim>1</dim>
					<dim>1</dim>
				</port>
			</input>
			<output>
				<port id="1" precision="FP32" names="efficientnet-b0/blocks_1/se/conv2d/bias:0">
					<dim>1</dim>
					<dim>4</dim>
					<dim>1</dim>
					<dim>1</dim>
				</port>
			</output>
		</layer>
		<layer id="117" name="efficientnet-b0/blocks_1/se/conv2d/BiasAdd/Add" type="Add" version="opset1">
			<data auto_broadcast="numpy" />
			<input>
				<port id="0" precision="FP32">
					<dim>1</dim>
					<dim>4</dim>
					<dim>1</dim>
					<dim>1</dim>
				</port>
				<port id="1" precision="FP32">
					<dim>1</dim>
					<dim>4</dim>
					<dim>1</dim>
					<dim>1</dim>
				</port>
			</input>
			<output>
				<port id="2" precision="FP32" names="efficientnet-b0/blocks_1/se/conv2d/BiasAdd:0">
					<dim>1</dim>
					<dim>4</dim>
					<dim>1</dim>
					<dim>1</dim>
				</port>
			</output>
		</layer>
		<layer id="118" name="efficientnet-b0/blocks_1/se/mul" type="Swish" version="opset4">
			<input>
				<port id="0" precision="FP32">
					<dim>1</dim>
					<dim>4</dim>
					<dim>1</dim>
					<dim>1</dim>
				</port>
			</input>
			<output>
				<port id="1" precision="FP32" names="efficientnet-b0/blocks_1/se/IdentityN:0,efficientnet-b0/blocks_1/se/mul:0">
					<dim>1</dim>
					<dim>4</dim>
					<dim>1</dim>
					<dim>1</dim>
				</port>
			</output>
		</layer>
		<layer id="119" name="efficientnet-b0/blocks_1/se/conv2d_1/kernel_compressed" type="Const" version="opset1">
			<data element_type="f16" shape="96, 4, 1, 1" offset="8708" size="768" />
			<output>
				<port id="0" precision="FP16">
					<dim>96</dim>
					<dim>4</dim>
					<dim>1</dim>
					<dim>1</dim>
				</port>
			</output>
		</layer>
		<layer id="120" name="efficientnet-b0/blocks_1/se/conv2d_1/kernel" type="Convert" version="opset1">
			<data destination_type="f32" />
			<rt_info>
				<attribute name="decompression" version="0" />
			</rt_info>
			<input>
				<port id="0" precision="FP16">
					<dim>96</dim>
					<dim>4</dim>
					<dim>1</dim>
					<dim>1</dim>
				</port>
			</input>
			<output>
				<port id="1" precision="FP32" names="efficientnet-b0/blocks_1/se/conv2d_1/kernel:0">
					<dim>96</dim>
					<dim>4</dim>
					<dim>1</dim>
					<dim>1</dim>
				</port>
			</output>
		</layer>
		<layer id="121" name="efficientnet-b0/blocks_1/se/conv2d_1/Conv2D" type="Convolution" version="opset1">
			<data strides="1, 1" dilations="1, 1" pads_begin="0, 0" pads_end="0, 0" auto_pad="same_upper" />
			<input>
				<port id="0" precision="FP32">
					<dim>1</dim>
					<dim>4</dim>
					<dim>1</dim>
					<dim>1</dim>
				</port>
				<port id="1" precision="FP32">
					<dim>96</dim>
					<dim>4</dim>
					<dim>1</dim>
					<dim>1</dim>
				</port>
			</input>
			<output>
				<port id="2" precision="FP32" names="efficientnet-b0/blocks_1/se/conv2d_1/Conv2D:0">
					<dim>1</dim>
					<dim>96</dim>
					<dim>1</dim>
					<dim>1</dim>
				</port>
			</output>
		</layer>
		<layer id="122" name="efficientnet-b0/blocks_1/se/conv2d_1/bias_compressed" type="Const" version="opset1">
			<data element_type="f16" shape="1, 96, 1, 1" offset="9476" size="192" />
			<output>
				<port id="0" precision="FP16">
					<dim>1</dim>
					<dim>96</dim>
					<dim>1</dim>
					<dim>1</dim>
				</port>
			</output>
		</layer>
		<layer id="123" name="efficientnet-b0/blocks_1/se/conv2d_1/bias" type="Convert" version="opset1">
			<data destination_type="f32" />
			<rt_info>
				<attribute name="decompression" version="0" />
			</rt_info>
			<input>
				<port id="0" precision="FP16">
					<dim>1</dim>
					<dim>96</dim>
					<dim>1</dim>
					<dim>1</dim>
				</port>
			</input>
			<output>
				<port id="1" precision="FP32" names="efficientnet-b0/blocks_1/se/conv2d_1/bias:0">
					<dim>1</dim>
					<dim>96</dim>
					<dim>1</dim>
					<dim>1</dim>
				</port>
			</output>
		</layer>
		<layer id="124" name="efficientnet-b0/blocks_1/se/conv2d_1/BiasAdd/Add" type="Add" version="opset1">
			<data auto_broadcast="numpy" />
			<input>
				<port id="0" precision="FP32">
					<dim>1</dim>
					<dim>96</dim>
					<dim>1</dim>
					<dim>1</dim>
				</port>
				<port id="1" precision="FP32">
					<dim>1</dim>
					<dim>96</dim>
					<dim>1</dim>
					<dim>1</dim>
				</port>
			</input>
			<output>
				<port id="2" precision="FP32" names="efficientnet-b0/blocks_1/se/conv2d_1/BiasAdd:0">
					<dim>1</dim>
					<dim>96</dim>
					<dim>1</dim>
					<dim>1</dim>
				</port>
			</output>
		</layer>
		<layer id="125" name="efficientnet-b0/blocks_1/se/Sigmoid_1" type="Sigmoid" version="opset1">
			<input>
				<port id="0" precision="FP32">
					<dim>1</dim>
					<dim>96</dim>
					<dim>1</dim>
					<dim>1</dim>
				</port>
			</input>
			<output>
				<port id="1" precision="FP32" names="efficientnet-b0/blocks_1/se/Sigmoid_1:0">
					<dim>1</dim>
					<dim>96</dim>
					<dim>1</dim>
					<dim>1</dim>
				</port>
			</output>
		</layer>
		<layer id="126" name="efficientnet-b0/blocks_1/se/Sigmoid_1/fq_output_0/input_low" type="Const" version="opset1">
			<data element_type="f32" shape="" offset="2972" size="4" />
			<output>
				<port id="0" precision="FP32" />
			</output>
		</layer>
		<layer id="127" name="efficientnet-b0/blocks_1/se/Sigmoid_1/fq_output_0/input_high" type="Const" version="opset1">
			<data element_type="f32" shape="" offset="9668" size="4" />
			<output>
				<port id="0" precision="FP32" />
			</output>
		</layer>
		<layer id="128" name="efficientnet-b0/blocks_1/se/Sigmoid_1/fq_output_0/output_low" type="Const" version="opset1">
			<data element_type="f32" shape="" offset="2972" size="4" />
			<output>
				<port id="0" precision="FP32" />
			</output>
		</layer>
		<layer id="129" name="efficientnet-b0/blocks_1/se/Sigmoid_1/fq_output_0/output_high" type="Const" version="opset1">
			<data element_type="f32" shape="" offset="9668" size="4" />
			<output>
				<port id="0" precision="FP32" />
			</output>
		</layer>
		<layer id="130" name="efficientnet-b0/blocks_1/se/Sigmoid_1/fq_output_0" type="FakeQuantize" version="opset1">
			<data levels="256" auto_broadcast="numpy" />
			<input>
				<port id="0" precision="FP32">
					<dim>1</dim>
					<dim>96</dim>
					<dim>1</dim>
					<dim>1</dim>
				</port>
				<port id="1" precision="FP32" />
				<port id="2" precision="FP32" />
				<port id="3" precision="FP32" />
				<port id="4" precision="FP32" />
			</input>
			<output>
				<port id="5" precision="FP32">
					<dim>1</dim>
					<dim>96</dim>
					<dim>1</dim>
					<dim>1</dim>
				</port>
			</output>
		</layer>
		<layer id="131" name="efficientnet-b0/blocks_1/se/mul_1" type="Multiply" version="opset1">
			<data auto_broadcast="numpy" />
			<input>
				<port id="0" precision="FP32">
					<dim>1</dim>
					<dim>96</dim>
					<dim>1</dim>
					<dim>1</dim>
				</port>
				<port id="1" precision="FP32">
					<dim>1</dim>
					<dim>96</dim>
					<dim>128</dim>
					<dim>128</dim>
				</port>
			</input>
			<output>
				<port id="2" precision="FP32" names="efficientnet-b0/blocks_1/se/mul_1:0">
					<dim>1</dim>
					<dim>96</dim>
					<dim>128</dim>
					<dim>128</dim>
				</port>
			</output>
		</layer>
		<layer id="132" name="efficientnet-b0/blocks_1/se/mul_1/fq_output_0/input_low" type="Const" version="opset1">
			<data element_type="f32" shape="" offset="9672" size="4" />
			<output>
				<port id="0" precision="FP32" />
			</output>
		</layer>
		<layer id="133" name="efficientnet-b0/blocks_1/se/mul_1/fq_output_0/input_high" type="Const" version="opset1">
			<data element_type="f32" shape="" offset="9676" size="4" />
			<output>
				<port id="0" precision="FP32" />
			</output>
		</layer>
		<layer id="134" name="efficientnet-b0/blocks_1/se/mul_1/fq_output_0/output_low" type="Const" version="opset1">
			<data element_type="f32" shape="" offset="9672" size="4" />
			<output>
				<port id="0" precision="FP32" />
			</output>
		</layer>
		<layer id="135" name="efficientnet-b0/blocks_1/se/mul_1/fq_output_0/output_high" type="Const" version="opset1">
			<data element_type="f32" shape="" offset="9676" size="4" />
			<output>
				<port id="0" precision="FP32" />
			</output>
		</layer>
		<layer id="136" name="efficientnet-b0/blocks_1/se/mul_1/fq_output_0" type="FakeQuantize" version="opset1">
			<data levels="256" auto_broadcast="numpy" />
			<input>
				<port id="0" precision="FP32">
					<dim>1</dim>
					<dim>96</dim>
					<dim>128</dim>
					<dim>128</dim>
				</port>
				<port id="1" precision="FP32" />
				<port id="2" precision="FP32" />
				<port id="3" precision="FP32" />
				<port id="4" precision="FP32" />
			</input>
			<output>
				<port id="5" precision="FP32">
					<dim>1</dim>
					<dim>96</dim>
					<dim>128</dim>
					<dim>128</dim>
				</port>
			</output>
		</layer>
		<layer id="137" name="Constant_918303" type="Const" version="opset1">
			<data element_type="i8" shape="24, 96, 1, 1" offset="9680" size="2304" />
			<output>
				<port id="0" precision="I8">
					<dim>24</dim>
					<dim>96</dim>
					<dim>1</dim>
					<dim>1</dim>
				</port>
			</output>
		</layer>
		<layer id="138" name="Convert_918304" type="Convert" version="opset1">
			<data destination_type="f32" />
			<input>
				<port id="0" precision="I8">
					<dim>24</dim>
					<dim>96</dim>
					<dim>1</dim>
					<dim>1</dim>
				</port>
			</input>
			<output>
				<port id="1" precision="FP32">
					<dim>24</dim>
					<dim>96</dim>
					<dim>1</dim>
					<dim>1</dim>
				</port>
			</output>
		</layer>
		<layer id="139" name="Constant_918305" type="Const" version="opset1">
			<data element_type="f32" shape="24, 1, 1, 1" offset="11984" size="96" />
			<output>
				<port id="0" precision="FP32">
					<dim>24</dim>
					<dim>1</dim>
					<dim>1</dim>
					<dim>1</dim>
				</port>
			</output>
		</layer>
		<layer id="140" name="efficientnet-b0/blocks_1/conv2d_1/Conv2D/fq_weights_1" type="Multiply" version="opset1">
			<data auto_broadcast="numpy" />
			<input>
				<port id="0" precision="FP32">
					<dim>24</dim>
					<dim>96</dim>
					<dim>1</dim>
					<dim>1</dim>
				</port>
				<port id="1" precision="FP32">
					<dim>24</dim>
					<dim>1</dim>
					<dim>1</dim>
					<dim>1</dim>
				</port>
			</input>
			<output>
				<port id="2" precision="FP32">
					<dim>24</dim>
					<dim>96</dim>
					<dim>1</dim>
					<dim>1</dim>
				</port>
			</output>
		</layer>
		<layer id="141" name="efficientnet-b0/blocks_1/conv2d_1/Conv2D" type="Convolution" version="opset1">
			<data strides="1, 1" dilations="1, 1" pads_begin="0, 0" pads_end="0, 0" auto_pad="same_upper" />
			<input>
				<port id="0" precision="FP32">
					<dim>1</dim>
					<dim>96</dim>
					<dim>128</dim>
					<dim>128</dim>
				</port>
				<port id="1" precision="FP32">
					<dim>24</dim>
					<dim>96</dim>
					<dim>1</dim>
					<dim>1</dim>
				</port>
			</input>
			<output>
				<port id="2" precision="FP32" names="efficientnet-b0/blocks_1/conv2d_1/Conv2D:0">
					<dim>1</dim>
					<dim>24</dim>
					<dim>128</dim>
					<dim>128</dim>
				</port>
			</output>
		</layer>
		<layer id="142" name="efficientnet-b0/blocks_1/conv2d_1/Conv2D_bn_offset_compressed" type="Const" version="opset1">
			<data element_type="f16" shape="1, 24, 1, 1" offset="12080" size="48" />
			<output>
				<port id="0" precision="FP16">
					<dim>1</dim>
					<dim>24</dim>
					<dim>1</dim>
					<dim>1</dim>
				</port>
			</output>
		</layer>
		<layer id="143" name="efficientnet-b0/blocks_1/conv2d_1/Conv2D_bn_offset" type="Convert" version="opset1">
			<data destination_type="f32" />
			<rt_info>
				<attribute name="decompression" version="0" />
			</rt_info>
			<input>
				<port id="0" precision="FP16">
					<dim>1</dim>
					<dim>24</dim>
					<dim>1</dim>
					<dim>1</dim>
				</port>
			</input>
			<output>
				<port id="1" precision="FP32" names="efficientnet-b0/blocks_1/conv2d_1/Conv2D_bn_offset:0">
					<dim>1</dim>
					<dim>24</dim>
					<dim>1</dim>
					<dim>1</dim>
				</port>
			</output>
		</layer>
		<layer id="144" name="efficientnet-b0/blocks_1/tpu_batch_normalization_2/FusedBatchNormV3/Add" type="Add" version="opset1">
			<data auto_broadcast="numpy" />
			<input>
				<port id="0" precision="FP32">
					<dim>1</dim>
					<dim>24</dim>
					<dim>128</dim>
					<dim>128</dim>
				</port>
				<port id="1" precision="FP32">
					<dim>1</dim>
					<dim>24</dim>
					<dim>1</dim>
					<dim>1</dim>
				</port>
			</input>
			<output>
				<port id="2" precision="FP32" names="efficientnet-b0/blocks_1/tpu_batch_normalization_2/FusedBatchNormV3:0">
					<dim>1</dim>
					<dim>24</dim>
					<dim>128</dim>
					<dim>128</dim>
				</port>
			</output>
		</layer>
		<layer id="145" name="efficientnet-b0/blocks_1/tpu_batch_normalization_2/FusedBatchNormV3/Add/fq_output_0/input_low" type="Const" version="opset1">
			<data element_type="f32" shape="" offset="12128" size="4" />
			<output>
				<port id="0" precision="FP32" />
			</output>
		</layer>
		<layer id="146" name="efficientnet-b0/blocks_1/tpu_batch_normalization_2/FusedBatchNormV3/Add/fq_output_0/input_high" type="Const" version="opset1">
			<data element_type="f32" shape="" offset="12132" size="4" />
			<output>
				<port id="0" precision="FP32" />
			</output>
		</layer>
		<layer id="147" name="efficientnet-b0/blocks_1/tpu_batch_normalization_2/FusedBatchNormV3/Add/fq_output_0/output_low" type="Const" version="opset1">
			<data element_type="f32" shape="" offset="12128" size="4" />
			<output>
				<port id="0" precision="FP32" />
			</output>
		</layer>
		<layer id="148" name="efficientnet-b0/blocks_1/tpu_batch_normalization_2/FusedBatchNormV3/Add/fq_output_0/output_high" type="Const" version="opset1">
			<data element_type="f32" shape="" offset="12132" size="4" />
			<output>
				<port id="0" precision="FP32" />
			</output>
		</layer>
		<layer id="149" name="efficientnet-b0/blocks_1/tpu_batch_normalization_2/FusedBatchNormV3/Add/fq_output_0" type="FakeQuantize" version="opset1">
			<data levels="256" auto_broadcast="numpy" />
			<input>
				<port id="0" precision="FP32">
					<dim>1</dim>
					<dim>24</dim>
					<dim>128</dim>
					<dim>128</dim>
				</port>
				<port id="1" precision="FP32" />
				<port id="2" precision="FP32" />
				<port id="3" precision="FP32" />
				<port id="4" precision="FP32" />
			</input>
			<output>
				<port id="5" precision="FP32">
					<dim>1</dim>
					<dim>24</dim>
					<dim>128</dim>
					<dim>128</dim>
				</port>
			</output>
		</layer>
		<layer id="150" name="Constant_918308" type="Const" version="opset1">
			<data element_type="i8" shape="144, 24, 1, 1" offset="12136" size="3456" />
			<output>
				<port id="0" precision="I8">
					<dim>144</dim>
					<dim>24</dim>
					<dim>1</dim>
					<dim>1</dim>
				</port>
			</output>
		</layer>
		<layer id="151" name="Convert_918309" type="Convert" version="opset1">
			<data destination_type="f32" />
			<input>
				<port id="0" precision="I8">
					<dim>144</dim>
					<dim>24</dim>
					<dim>1</dim>
					<dim>1</dim>
				</port>
			</input>
			<output>
				<port id="1" precision="FP32">
					<dim>144</dim>
					<dim>24</dim>
					<dim>1</dim>
					<dim>1</dim>
				</port>
			</output>
		</layer>
		<layer id="152" name="Constant_918310" type="Const" version="opset1">
			<data element_type="f32" shape="144, 1, 1, 1" offset="15592" size="576" />
			<output>
				<port id="0" precision="FP32">
					<dim>144</dim>
					<dim>1</dim>
					<dim>1</dim>
					<dim>1</dim>
				</port>
			</output>
		</layer>
		<layer id="153" name="efficientnet-b0/blocks_2/conv2d/Conv2D/fq_weights_1" type="Multiply" version="opset1">
			<data auto_broadcast="numpy" />
			<input>
				<port id="0" precision="FP32">
					<dim>144</dim>
					<dim>24</dim>
					<dim>1</dim>
					<dim>1</dim>
				</port>
				<port id="1" precision="FP32">
					<dim>144</dim>
					<dim>1</dim>
					<dim>1</dim>
					<dim>1</dim>
				</port>
			</input>
			<output>
				<port id="2" precision="FP32">
					<dim>144</dim>
					<dim>24</dim>
					<dim>1</dim>
					<dim>1</dim>
				</port>
			</output>
		</layer>
		<layer id="154" name="efficientnet-b0/blocks_2/conv2d/Conv2D" type="Convolution" version="opset1">
			<data strides="1, 1" dilations="1, 1" pads_begin="0, 0" pads_end="0, 0" auto_pad="same_upper" />
			<input>
				<port id="0" precision="FP32">
					<dim>1</dim>
					<dim>24</dim>
					<dim>128</dim>
					<dim>128</dim>
				</port>
				<port id="1" precision="FP32">
					<dim>144</dim>
					<dim>24</dim>
					<dim>1</dim>
					<dim>1</dim>
				</port>
			</input>
			<output>
				<port id="2" precision="FP32" names="efficientnet-b0/blocks_2/conv2d/Conv2D:0">
					<dim>1</dim>
					<dim>144</dim>
					<dim>128</dim>
					<dim>128</dim>
				</port>
			</output>
		</layer>
		<layer id="155" name="efficientnet-b0/blocks_2/conv2d/Conv2D_bn_offset_compressed" type="Const" version="opset1">
			<data element_type="f16" shape="1, 144, 1, 1" offset="16168" size="288" />
			<output>
				<port id="0" precision="FP16">
					<dim>1</dim>
					<dim>144</dim>
					<dim>1</dim>
					<dim>1</dim>
				</port>
			</output>
		</layer>
		<layer id="156" name="efficientnet-b0/blocks_2/conv2d/Conv2D_bn_offset" type="Convert" version="opset1">
			<data destination_type="f32" />
			<rt_info>
				<attribute name="decompression" version="0" />
			</rt_info>
			<input>
				<port id="0" precision="FP16">
					<dim>1</dim>
					<dim>144</dim>
					<dim>1</dim>
					<dim>1</dim>
				</port>
			</input>
			<output>
				<port id="1" precision="FP32" names="efficientnet-b0/blocks_2/conv2d/Conv2D_bn_offset:0">
					<dim>1</dim>
					<dim>144</dim>
					<dim>1</dim>
					<dim>1</dim>
				</port>
			</output>
		</layer>
		<layer id="157" name="efficientnet-b0/blocks_2/tpu_batch_normalization/FusedBatchNormV3/Add" type="Add" version="opset1">
			<data auto_broadcast="numpy" />
			<input>
				<port id="0" precision="FP32">
					<dim>1</dim>
					<dim>144</dim>
					<dim>128</dim>
					<dim>128</dim>
				</port>
				<port id="1" precision="FP32">
					<dim>1</dim>
					<dim>144</dim>
					<dim>1</dim>
					<dim>1</dim>
				</port>
			</input>
			<output>
				<port id="2" precision="FP32" names="efficientnet-b0/blocks_2/tpu_batch_normalization/FusedBatchNormV3:0">
					<dim>1</dim>
					<dim>144</dim>
					<dim>128</dim>
					<dim>128</dim>
				</port>
			</output>
		</layer>
		<layer id="158" name="efficientnet-b0/blocks_2/mul" type="Swish" version="opset4">
			<input>
				<port id="0" precision="FP32">
					<dim>1</dim>
					<dim>144</dim>
					<dim>128</dim>
					<dim>128</dim>
				</port>
			</input>
			<output>
				<port id="1" precision="FP32" names="efficientnet-b0/blocks_2/IdentityN:0,efficientnet-b0/blocks_2/mul:0">
					<dim>1</dim>
					<dim>144</dim>
					<dim>128</dim>
					<dim>128</dim>
				</port>
			</output>
		</layer>
		<layer id="159" name="efficientnet-b0/blocks_2/mul/fq_output_0/input_low" type="Const" version="opset1">
			<data element_type="f32" shape="1, 144, 1, 1" offset="16456" size="576" />
			<output>
				<port id="0" precision="FP32">
					<dim>1</dim>
					<dim>144</dim>
					<dim>1</dim>
					<dim>1</dim>
				</port>
			</output>
		</layer>
		<layer id="160" name="efficientnet-b0/blocks_2/mul/fq_output_0/input_high" type="Const" version="opset1">
			<data element_type="f32" shape="1, 144, 1, 1" offset="17032" size="576" />
			<output>
				<port id="0" precision="FP32">
					<dim>1</dim>
					<dim>144</dim>
					<dim>1</dim>
					<dim>1</dim>
				</port>
			</output>
		</layer>
		<layer id="161" name="efficientnet-b0/blocks_2/mul/fq_output_0/output_low" type="Const" version="opset1">
			<data element_type="f32" shape="1, 144, 1, 1" offset="16456" size="576" />
			<output>
				<port id="0" precision="FP32">
					<dim>1</dim>
					<dim>144</dim>
					<dim>1</dim>
					<dim>1</dim>
				</port>
			</output>
		</layer>
		<layer id="162" name="efficientnet-b0/blocks_2/mul/fq_output_0/output_high" type="Const" version="opset1">
			<data element_type="f32" shape="1, 144, 1, 1" offset="17032" size="576" />
			<output>
				<port id="0" precision="FP32">
					<dim>1</dim>
					<dim>144</dim>
					<dim>1</dim>
					<dim>1</dim>
				</port>
			</output>
		</layer>
		<layer id="163" name="efficientnet-b0/blocks_2/mul/fq_output_0" type="FakeQuantize" version="opset1">
			<data levels="256" auto_broadcast="numpy" />
			<input>
				<port id="0" precision="FP32">
					<dim>1</dim>
					<dim>144</dim>
					<dim>128</dim>
					<dim>128</dim>
				</port>
				<port id="1" precision="FP32">
					<dim>1</dim>
					<dim>144</dim>
					<dim>1</dim>
					<dim>1</dim>
				</port>
				<port id="2" precision="FP32">
					<dim>1</dim>
					<dim>144</dim>
					<dim>1</dim>
					<dim>1</dim>
				</port>
				<port id="3" precision="FP32">
					<dim>1</dim>
					<dim>144</dim>
					<dim>1</dim>
					<dim>1</dim>
				</port>
				<port id="4" precision="FP32">
					<dim>1</dim>
					<dim>144</dim>
					<dim>1</dim>
					<dim>1</dim>
				</port>
			</input>
			<output>
				<port id="5" precision="FP32">
					<dim>1</dim>
					<dim>144</dim>
					<dim>128</dim>
					<dim>128</dim>
				</port>
			</output>
		</layer>
		<layer id="164" name="Constant_918313" type="Const" version="opset1">
			<data element_type="i8" shape="144, 1, 1, 3, 3" offset="17608" size="1296" />
			<output>
				<port id="0" precision="I8">
					<dim>144</dim>
					<dim>1</dim>
					<dim>1</dim>
					<dim>3</dim>
					<dim>3</dim>
				</port>
			</output>
		</layer>
		<layer id="165" name="Convert_918314" type="Convert" version="opset1">
			<data destination_type="f32" />
			<input>
				<port id="0" precision="I8">
					<dim>144</dim>
					<dim>1</dim>
					<dim>1</dim>
					<dim>3</dim>
					<dim>3</dim>
				</port>
			</input>
			<output>
				<port id="1" precision="FP32">
					<dim>144</dim>
					<dim>1</dim>
					<dim>1</dim>
					<dim>3</dim>
					<dim>3</dim>
				</port>
			</output>
		</layer>
		<layer id="166" name="Constant_918315" type="Const" version="opset1">
			<data element_type="f32" shape="144, 1, 1, 1, 1" offset="18904" size="576" />
			<output>
				<port id="0" precision="FP32">
					<dim>144</dim>
					<dim>1</dim>
					<dim>1</dim>
					<dim>1</dim>
					<dim>1</dim>
				</port>
			</output>
		</layer>
		<layer id="167" name="efficientnet-b0/blocks_2/depthwise_conv2d/depthwise/fq_weights_1" type="Multiply" version="opset1">
			<data auto_broadcast="numpy" />
			<input>
				<port id="0" precision="FP32">
					<dim>144</dim>
					<dim>1</dim>
					<dim>1</dim>
					<dim>3</dim>
					<dim>3</dim>
				</port>
				<port id="1" precision="FP32">
					<dim>144</dim>
					<dim>1</dim>
					<dim>1</dim>
					<dim>1</dim>
					<dim>1</dim>
				</port>
			</input>
			<output>
				<port id="2" precision="FP32">
					<dim>144</dim>
					<dim>1</dim>
					<dim>1</dim>
					<dim>3</dim>
					<dim>3</dim>
				</port>
			</output>
		</layer>
		<layer id="168" name="efficientnet-b0/blocks_2/depthwise_conv2d/depthwise" type="GroupConvolution" version="opset1">
			<data strides="1, 1" pads_begin="0, 0" pads_end="0, 0" dilations="1, 1" auto_pad="same_upper" />
			<input>
				<port id="0" precision="FP32">
					<dim>1</dim>
					<dim>144</dim>
					<dim>128</dim>
					<dim>128</dim>
				</port>
				<port id="1" precision="FP32">
					<dim>144</dim>
					<dim>1</dim>
					<dim>1</dim>
					<dim>3</dim>
					<dim>3</dim>
				</port>
			</input>
			<output>
				<port id="2" precision="FP32" names="efficientnet-b0/blocks_2/depthwise_conv2d/depthwise:0">
					<dim>1</dim>
					<dim>144</dim>
					<dim>128</dim>
					<dim>128</dim>
				</port>
			</output>
		</layer>
		<layer id="169" name="efficientnet-b0/blocks_2/depthwise_conv2d/depthwise_bn_offset_compressed" type="Const" version="opset1">
			<data element_type="f16" shape="1, 144, 1, 1" offset="19480" size="288" />
			<output>
				<port id="0" precision="FP16">
					<dim>1</dim>
					<dim>144</dim>
					<dim>1</dim>
					<dim>1</dim>
				</port>
			</output>
		</layer>
		<layer id="170" name="efficientnet-b0/blocks_2/depthwise_conv2d/depthwise_bn_offset" type="Convert" version="opset1">
			<data destination_type="f32" />
			<rt_info>
				<attribute name="decompression" version="0" />
			</rt_info>
			<input>
				<port id="0" precision="FP16">
					<dim>1</dim>
					<dim>144</dim>
					<dim>1</dim>
					<dim>1</dim>
				</port>
			</input>
			<output>
				<port id="1" precision="FP32" names="efficientnet-b0/blocks_2/depthwise_conv2d/depthwise_bn_offset:0">
					<dim>1</dim>
					<dim>144</dim>
					<dim>1</dim>
					<dim>1</dim>
				</port>
			</output>
		</layer>
		<layer id="171" name="efficientnet-b0/blocks_2/tpu_batch_normalization_1/FusedBatchNormV3/Add" type="Add" version="opset1">
			<data auto_broadcast="numpy" />
			<input>
				<port id="0" precision="FP32">
					<dim>1</dim>
					<dim>144</dim>
					<dim>128</dim>
					<dim>128</dim>
				</port>
				<port id="1" precision="FP32">
					<dim>1</dim>
					<dim>144</dim>
					<dim>1</dim>
					<dim>1</dim>
				</port>
			</input>
			<output>
				<port id="2" precision="FP32" names="efficientnet-b0/blocks_2/tpu_batch_normalization_1/FusedBatchNormV3:0">
					<dim>1</dim>
					<dim>144</dim>
					<dim>128</dim>
					<dim>128</dim>
				</port>
			</output>
		</layer>
		<layer id="172" name="efficientnet-b0/blocks_2/mul_1" type="Swish" version="opset4">
			<input>
				<port id="0" precision="FP32">
					<dim>1</dim>
					<dim>144</dim>
					<dim>128</dim>
					<dim>128</dim>
				</port>
			</input>
			<output>
				<port id="1" precision="FP32" names="efficientnet-b0/blocks_2/IdentityN_1:0,efficientnet-b0/blocks_2/mul_1:0">
					<dim>1</dim>
					<dim>144</dim>
					<dim>128</dim>
					<dim>128</dim>
				</port>
			</output>
		</layer>
		<layer id="173" name="efficientnet-b0/blocks_2/mul_1/fq_output_0/input_low" type="Const" version="opset1">
			<data element_type="f32" shape="" offset="19768" size="4" />
			<output>
				<port id="0" precision="FP32" />
			</output>
		</layer>
		<layer id="174" name="efficientnet-b0/blocks_2/mul_1/fq_output_0/input_high" type="Const" version="opset1">
			<data element_type="f32" shape="" offset="19772" size="4" />
			<output>
				<port id="0" precision="FP32" />
			</output>
		</layer>
		<layer id="175" name="efficientnet-b0/blocks_2/mul_1/fq_output_0/output_low" type="Const" version="opset1">
			<data element_type="f32" shape="" offset="19768" size="4" />
			<output>
				<port id="0" precision="FP32" />
			</output>
		</layer>
		<layer id="176" name="efficientnet-b0/blocks_2/mul_1/fq_output_0/output_high" type="Const" version="opset1">
			<data element_type="f32" shape="" offset="19772" size="4" />
			<output>
				<port id="0" precision="FP32" />
			</output>
		</layer>
		<layer id="177" name="efficientnet-b0/blocks_2/mul_1/fq_output_0" type="FakeQuantize" version="opset1">
			<data levels="256" auto_broadcast="numpy" />
			<input>
				<port id="0" precision="FP32">
					<dim>1</dim>
					<dim>144</dim>
					<dim>128</dim>
					<dim>128</dim>
				</port>
				<port id="1" precision="FP32" />
				<port id="2" precision="FP32" />
				<port id="3" precision="FP32" />
				<port id="4" precision="FP32" />
			</input>
			<output>
				<port id="5" precision="FP32">
					<dim>1</dim>
					<dim>144</dim>
					<dim>128</dim>
					<dim>128</dim>
				</port>
			</output>
		</layer>
		<layer id="178" name="2916947439" type="Const" version="opset1">
			<data element_type="i64" shape="2" offset="1852" size="16" />
			<output>
				<port id="0" precision="I64">
					<dim>2</dim>
				</port>
			</output>
		</layer>
		<layer id="179" name="efficientnet-b0/blocks_2/se/Mean" type="ReduceMean" version="opset1">
			<data keep_dims="true" />
			<input>
				<port id="0" precision="FP32">
					<dim>1</dim>
					<dim>144</dim>
					<dim>128</dim>
					<dim>128</dim>
				</port>
				<port id="1" precision="I64">
					<dim>2</dim>
				</port>
			</input>
			<output>
				<port id="2" precision="FP32" names="efficientnet-b0/blocks_2/se/Mean:0">
					<dim>1</dim>
					<dim>144</dim>
					<dim>1</dim>
					<dim>1</dim>
				</port>
			</output>
		</layer>
		<layer id="180" name="efficientnet-b0/blocks_2/se/conv2d/kernel_compressed" type="Const" version="opset1">
			<data element_type="f16" shape="6, 144, 1, 1" offset="19776" size="1728" />
			<output>
				<port id="0" precision="FP16">
					<dim>6</dim>
					<dim>144</dim>
					<dim>1</dim>
					<dim>1</dim>
				</port>
			</output>
		</layer>
		<layer id="181" name="efficientnet-b0/blocks_2/se/conv2d/kernel" type="Convert" version="opset1">
			<data destination_type="f32" />
			<rt_info>
				<attribute name="decompression" version="0" />
			</rt_info>
			<input>
				<port id="0" precision="FP16">
					<dim>6</dim>
					<dim>144</dim>
					<dim>1</dim>
					<dim>1</dim>
				</port>
			</input>
			<output>
				<port id="1" precision="FP32" names="efficientnet-b0/blocks_2/se/conv2d/kernel:0">
					<dim>6</dim>
					<dim>144</dim>
					<dim>1</dim>
					<dim>1</dim>
				</port>
			</output>
		</layer>
		<layer id="182" name="efficientnet-b0/blocks_2/se/conv2d/Conv2D" type="Convolution" version="opset1">
			<data strides="1, 1" dilations="1, 1" pads_begin="0, 0" pads_end="0, 0" auto_pad="same_upper" />
			<input>
				<port id="0" precision="FP32">
					<dim>1</dim>
					<dim>144</dim>
					<dim>1</dim>
					<dim>1</dim>
				</port>
				<port id="1" precision="FP32">
					<dim>6</dim>
					<dim>144</dim>
					<dim>1</dim>
					<dim>1</dim>
				</port>
			</input>
			<output>
				<port id="2" precision="FP32" names="efficientnet-b0/blocks_2/se/conv2d/Conv2D:0">
					<dim>1</dim>
					<dim>6</dim>
					<dim>1</dim>
					<dim>1</dim>
				</port>
			</output>
		</layer>
		<layer id="183" name="efficientnet-b0/blocks_2/se/conv2d/bias_compressed" type="Const" version="opset1">
			<data element_type="f16" shape="1, 6, 1, 1" offset="21504" size="12" />
			<output>
				<port id="0" precision="FP16">
					<dim>1</dim>
					<dim>6</dim>
					<dim>1</dim>
					<dim>1</dim>
				</port>
			</output>
		</layer>
		<layer id="184" name="efficientnet-b0/blocks_2/se/conv2d/bias" type="Convert" version="opset1">
			<data destination_type="f32" />
			<rt_info>
				<attribute name="decompression" version="0" />
			</rt_info>
			<input>
				<port id="0" precision="FP16">
					<dim>1</dim>
					<dim>6</dim>
					<dim>1</dim>
					<dim>1</dim>
				</port>
			</input>
			<output>
				<port id="1" precision="FP32" names="efficientnet-b0/blocks_2/se/conv2d/bias:0">
					<dim>1</dim>
					<dim>6</dim>
					<dim>1</dim>
					<dim>1</dim>
				</port>
			</output>
		</layer>
		<layer id="185" name="efficientnet-b0/blocks_2/se/conv2d/BiasAdd/Add" type="Add" version="opset1">
			<data auto_broadcast="numpy" />
			<input>
				<port id="0" precision="FP32">
					<dim>1</dim>
					<dim>6</dim>
					<dim>1</dim>
					<dim>1</dim>
				</port>
				<port id="1" precision="FP32">
					<dim>1</dim>
					<dim>6</dim>
					<dim>1</dim>
					<dim>1</dim>
				</port>
			</input>
			<output>
				<port id="2" precision="FP32" names="efficientnet-b0/blocks_2/se/conv2d/BiasAdd:0">
					<dim>1</dim>
					<dim>6</dim>
					<dim>1</dim>
					<dim>1</dim>
				</port>
			</output>
		</layer>
		<layer id="186" name="efficientnet-b0/blocks_2/se/mul" type="Swish" version="opset4">
			<input>
				<port id="0" precision="FP32">
					<dim>1</dim>
					<dim>6</dim>
					<dim>1</dim>
					<dim>1</dim>
				</port>
			</input>
			<output>
				<port id="1" precision="FP32" names="efficientnet-b0/blocks_2/se/IdentityN:0,efficientnet-b0/blocks_2/se/mul:0">
					<dim>1</dim>
					<dim>6</dim>
					<dim>1</dim>
					<dim>1</dim>
				</port>
			</output>
		</layer>
		<layer id="187" name="efficientnet-b0/blocks_2/se/conv2d_1/kernel_compressed" type="Const" version="opset1">
			<data element_type="f16" shape="144, 6, 1, 1" offset="21516" size="1728" />
			<output>
				<port id="0" precision="FP16">
					<dim>144</dim>
					<dim>6</dim>
					<dim>1</dim>
					<dim>1</dim>
				</port>
			</output>
		</layer>
		<layer id="188" name="efficientnet-b0/blocks_2/se/conv2d_1/kernel" type="Convert" version="opset1">
			<data destination_type="f32" />
			<rt_info>
				<attribute name="decompression" version="0" />
			</rt_info>
			<input>
				<port id="0" precision="FP16">
					<dim>144</dim>
					<dim>6</dim>
					<dim>1</dim>
					<dim>1</dim>
				</port>
			</input>
			<output>
				<port id="1" precision="FP32" names="efficientnet-b0/blocks_2/se/conv2d_1/kernel:0">
					<dim>144</dim>
					<dim>6</dim>
					<dim>1</dim>
					<dim>1</dim>
				</port>
			</output>
		</layer>
		<layer id="189" name="efficientnet-b0/blocks_2/se/conv2d_1/Conv2D" type="Convolution" version="opset1">
			<data strides="1, 1" dilations="1, 1" pads_begin="0, 0" pads_end="0, 0" auto_pad="same_upper" />
			<input>
				<port id="0" precision="FP32">
					<dim>1</dim>
					<dim>6</dim>
					<dim>1</dim>
					<dim>1</dim>
				</port>
				<port id="1" precision="FP32">
					<dim>144</dim>
					<dim>6</dim>
					<dim>1</dim>
					<dim>1</dim>
				</port>
			</input>
			<output>
				<port id="2" precision="FP32" names="efficientnet-b0/blocks_2/se/conv2d_1/Conv2D:0">
					<dim>1</dim>
					<dim>144</dim>
					<dim>1</dim>
					<dim>1</dim>
				</port>
			</output>
		</layer>
		<layer id="190" name="efficientnet-b0/blocks_2/se/conv2d_1/bias_compressed" type="Const" version="opset1">
			<data element_type="f16" shape="1, 144, 1, 1" offset="23244" size="288" />
			<output>
				<port id="0" precision="FP16">
					<dim>1</dim>
					<dim>144</dim>
					<dim>1</dim>
					<dim>1</dim>
				</port>
			</output>
		</layer>
		<layer id="191" name="efficientnet-b0/blocks_2/se/conv2d_1/bias" type="Convert" version="opset1">
			<data destination_type="f32" />
			<rt_info>
				<attribute name="decompression" version="0" />
			</rt_info>
			<input>
				<port id="0" precision="FP16">
					<dim>1</dim>
					<dim>144</dim>
					<dim>1</dim>
					<dim>1</dim>
				</port>
			</input>
			<output>
				<port id="1" precision="FP32" names="efficientnet-b0/blocks_2/se/conv2d_1/bias:0">
					<dim>1</dim>
					<dim>144</dim>
					<dim>1</dim>
					<dim>1</dim>
				</port>
			</output>
		</layer>
		<layer id="192" name="efficientnet-b0/blocks_2/se/conv2d_1/BiasAdd/Add" type="Add" version="opset1">
			<data auto_broadcast="numpy" />
			<input>
				<port id="0" precision="FP32">
					<dim>1</dim>
					<dim>144</dim>
					<dim>1</dim>
					<dim>1</dim>
				</port>
				<port id="1" precision="FP32">
					<dim>1</dim>
					<dim>144</dim>
					<dim>1</dim>
					<dim>1</dim>
				</port>
			</input>
			<output>
				<port id="2" precision="FP32" names="efficientnet-b0/blocks_2/se/conv2d_1/BiasAdd:0">
					<dim>1</dim>
					<dim>144</dim>
					<dim>1</dim>
					<dim>1</dim>
				</port>
			</output>
		</layer>
		<layer id="193" name="efficientnet-b0/blocks_2/se/Sigmoid_1" type="Sigmoid" version="opset1">
			<input>
				<port id="0" precision="FP32">
					<dim>1</dim>
					<dim>144</dim>
					<dim>1</dim>
					<dim>1</dim>
				</port>
			</input>
			<output>
				<port id="1" precision="FP32" names="efficientnet-b0/blocks_2/se/Sigmoid_1:0">
					<dim>1</dim>
					<dim>144</dim>
					<dim>1</dim>
					<dim>1</dim>
				</port>
			</output>
		</layer>
		<layer id="194" name="efficientnet-b0/blocks_2/se/Sigmoid_1/fq_output_0/input_low" type="Const" version="opset1">
			<data element_type="f32" shape="" offset="2972" size="4" />
			<output>
				<port id="0" precision="FP32" />
			</output>
		</layer>
		<layer id="195" name="efficientnet-b0/blocks_2/se/Sigmoid_1/fq_output_0/input_high" type="Const" version="opset1">
			<data element_type="f32" shape="" offset="23532" size="4" />
			<output>
				<port id="0" precision="FP32" />
			</output>
		</layer>
		<layer id="196" name="efficientnet-b0/blocks_2/se/Sigmoid_1/fq_output_0/output_low" type="Const" version="opset1">
			<data element_type="f32" shape="" offset="2972" size="4" />
			<output>
				<port id="0" precision="FP32" />
			</output>
		</layer>
		<layer id="197" name="efficientnet-b0/blocks_2/se/Sigmoid_1/fq_output_0/output_high" type="Const" version="opset1">
			<data element_type="f32" shape="" offset="23532" size="4" />
			<output>
				<port id="0" precision="FP32" />
			</output>
		</layer>
		<layer id="198" name="efficientnet-b0/blocks_2/se/Sigmoid_1/fq_output_0" type="FakeQuantize" version="opset1">
			<data levels="256" auto_broadcast="numpy" />
			<input>
				<port id="0" precision="FP32">
					<dim>1</dim>
					<dim>144</dim>
					<dim>1</dim>
					<dim>1</dim>
				</port>
				<port id="1" precision="FP32" />
				<port id="2" precision="FP32" />
				<port id="3" precision="FP32" />
				<port id="4" precision="FP32" />
			</input>
			<output>
				<port id="5" precision="FP32">
					<dim>1</dim>
					<dim>144</dim>
					<dim>1</dim>
					<dim>1</dim>
				</port>
			</output>
		</layer>
		<layer id="199" name="efficientnet-b0/blocks_2/se/mul_1" type="Multiply" version="opset1">
			<data auto_broadcast="numpy" />
			<input>
				<port id="0" precision="FP32">
					<dim>1</dim>
					<dim>144</dim>
					<dim>1</dim>
					<dim>1</dim>
				</port>
				<port id="1" precision="FP32">
					<dim>1</dim>
					<dim>144</dim>
					<dim>128</dim>
					<dim>128</dim>
				</port>
			</input>
			<output>
				<port id="2" precision="FP32" names="efficientnet-b0/blocks_2/se/mul_1:0">
					<dim>1</dim>
					<dim>144</dim>
					<dim>128</dim>
					<dim>128</dim>
				</port>
			</output>
		</layer>
		<layer id="200" name="efficientnet-b0/blocks_2/se/mul_1/fq_output_0/input_low" type="Const" version="opset1">
			<data element_type="f32" shape="" offset="23536" size="4" />
			<output>
				<port id="0" precision="FP32" />
			</output>
		</layer>
		<layer id="201" name="efficientnet-b0/blocks_2/se/mul_1/fq_output_0/input_high" type="Const" version="opset1">
			<data element_type="f32" shape="" offset="23540" size="4" />
			<output>
				<port id="0" precision="FP32" />
			</output>
		</layer>
		<layer id="202" name="efficientnet-b0/blocks_2/se/mul_1/fq_output_0/output_low" type="Const" version="opset1">
			<data element_type="f32" shape="" offset="23536" size="4" />
			<output>
				<port id="0" precision="FP32" />
			</output>
		</layer>
		<layer id="203" name="efficientnet-b0/blocks_2/se/mul_1/fq_output_0/output_high" type="Const" version="opset1">
			<data element_type="f32" shape="" offset="23540" size="4" />
			<output>
				<port id="0" precision="FP32" />
			</output>
		</layer>
		<layer id="204" name="efficientnet-b0/blocks_2/se/mul_1/fq_output_0" type="FakeQuantize" version="opset1">
			<data levels="256" auto_broadcast="numpy" />
			<input>
				<port id="0" precision="FP32">
					<dim>1</dim>
					<dim>144</dim>
					<dim>128</dim>
					<dim>128</dim>
				</port>
				<port id="1" precision="FP32" />
				<port id="2" precision="FP32" />
				<port id="3" precision="FP32" />
				<port id="4" precision="FP32" />
			</input>
			<output>
				<port id="5" precision="FP32">
					<dim>1</dim>
					<dim>144</dim>
					<dim>128</dim>
					<dim>128</dim>
				</port>
			</output>
		</layer>
		<layer id="205" name="Constant_918318" type="Const" version="opset1">
			<data element_type="i8" shape="24, 144, 1, 1" offset="23544" size="3456" />
			<output>
				<port id="0" precision="I8">
					<dim>24</dim>
					<dim>144</dim>
					<dim>1</dim>
					<dim>1</dim>
				</port>
			</output>
		</layer>
		<layer id="206" name="Convert_918319" type="Convert" version="opset1">
			<data destination_type="f32" />
			<input>
				<port id="0" precision="I8">
					<dim>24</dim>
					<dim>144</dim>
					<dim>1</dim>
					<dim>1</dim>
				</port>
			</input>
			<output>
				<port id="1" precision="FP32">
					<dim>24</dim>
					<dim>144</dim>
					<dim>1</dim>
					<dim>1</dim>
				</port>
			</output>
		</layer>
		<layer id="207" name="Constant_918320" type="Const" version="opset1">
			<data element_type="f32" shape="24, 1, 1, 1" offset="27000" size="96" />
			<output>
				<port id="0" precision="FP32">
					<dim>24</dim>
					<dim>1</dim>
					<dim>1</dim>
					<dim>1</dim>
				</port>
			</output>
		</layer>
		<layer id="208" name="efficientnet-b0/blocks_2/conv2d_1/Conv2D/fq_weights_1" type="Multiply" version="opset1">
			<data auto_broadcast="numpy" />
			<input>
				<port id="0" precision="FP32">
					<dim>24</dim>
					<dim>144</dim>
					<dim>1</dim>
					<dim>1</dim>
				</port>
				<port id="1" precision="FP32">
					<dim>24</dim>
					<dim>1</dim>
					<dim>1</dim>
					<dim>1</dim>
				</port>
			</input>
			<output>
				<port id="2" precision="FP32">
					<dim>24</dim>
					<dim>144</dim>
					<dim>1</dim>
					<dim>1</dim>
				</port>
			</output>
		</layer>
		<layer id="209" name="efficientnet-b0/blocks_2/conv2d_1/Conv2D" type="Convolution" version="opset1">
			<data strides="1, 1" dilations="1, 1" pads_begin="0, 0" pads_end="0, 0" auto_pad="same_upper" />
			<input>
				<port id="0" precision="FP32">
					<dim>1</dim>
					<dim>144</dim>
					<dim>128</dim>
					<dim>128</dim>
				</port>
				<port id="1" precision="FP32">
					<dim>24</dim>
					<dim>144</dim>
					<dim>1</dim>
					<dim>1</dim>
				</port>
			</input>
			<output>
				<port id="2" precision="FP32" names="efficientnet-b0/blocks_2/conv2d_1/Conv2D:0">
					<dim>1</dim>
					<dim>24</dim>
					<dim>128</dim>
					<dim>128</dim>
				</port>
			</output>
		</layer>
		<layer id="210" name="efficientnet-b0/blocks_2/conv2d_1/Conv2D_bn_offset_compressed" type="Const" version="opset1">
			<data element_type="f16" shape="1, 24, 1, 1" offset="27096" size="48" />
			<output>
				<port id="0" precision="FP16">
					<dim>1</dim>
					<dim>24</dim>
					<dim>1</dim>
					<dim>1</dim>
				</port>
			</output>
		</layer>
		<layer id="211" name="efficientnet-b0/blocks_2/conv2d_1/Conv2D_bn_offset" type="Convert" version="opset1">
			<data destination_type="f32" />
			<rt_info>
				<attribute name="decompression" version="0" />
			</rt_info>
			<input>
				<port id="0" precision="FP16">
					<dim>1</dim>
					<dim>24</dim>
					<dim>1</dim>
					<dim>1</dim>
				</port>
			</input>
			<output>
				<port id="1" precision="FP32" names="efficientnet-b0/blocks_2/conv2d_1/Conv2D_bn_offset:0">
					<dim>1</dim>
					<dim>24</dim>
					<dim>1</dim>
					<dim>1</dim>
				</port>
			</output>
		</layer>
		<layer id="212" name="efficientnet-b0/blocks_2/tpu_batch_normalization_2/FusedBatchNormV3/Add" type="Add" version="opset1">
			<data auto_broadcast="numpy" />
			<input>
				<port id="0" precision="FP32">
					<dim>1</dim>
					<dim>24</dim>
					<dim>128</dim>
					<dim>128</dim>
				</port>
				<port id="1" precision="FP32">
					<dim>1</dim>
					<dim>24</dim>
					<dim>1</dim>
					<dim>1</dim>
				</port>
			</input>
			<output>
				<port id="2" precision="FP32" names="efficientnet-b0/blocks_2/tpu_batch_normalization_2/FusedBatchNormV3:0">
					<dim>1</dim>
					<dim>24</dim>
					<dim>128</dim>
					<dim>128</dim>
				</port>
			</output>
		</layer>
		<layer id="213" name="efficientnet-b0/blocks_2/tpu_batch_normalization_2/FusedBatchNormV3/Add/fq_output_0/input_low" type="Const" version="opset1">
			<data element_type="f32" shape="" offset="27144" size="4" />
			<output>
				<port id="0" precision="FP32" />
			</output>
		</layer>
		<layer id="214" name="efficientnet-b0/blocks_2/tpu_batch_normalization_2/FusedBatchNormV3/Add/fq_output_0/input_high" type="Const" version="opset1">
			<data element_type="f32" shape="" offset="27148" size="4" />
			<output>
				<port id="0" precision="FP32" />
			</output>
		</layer>
		<layer id="215" name="efficientnet-b0/blocks_2/tpu_batch_normalization_2/FusedBatchNormV3/Add/fq_output_0/output_low" type="Const" version="opset1">
			<data element_type="f32" shape="" offset="27144" size="4" />
			<output>
				<port id="0" precision="FP32" />
			</output>
		</layer>
		<layer id="216" name="efficientnet-b0/blocks_2/tpu_batch_normalization_2/FusedBatchNormV3/Add/fq_output_0/output_high" type="Const" version="opset1">
			<data element_type="f32" shape="" offset="27148" size="4" />
			<output>
				<port id="0" precision="FP32" />
			</output>
		</layer>
		<layer id="217" name="efficientnet-b0/blocks_2/tpu_batch_normalization_2/FusedBatchNormV3/Add/fq_output_0" type="FakeQuantize" version="opset1">
			<data levels="256" auto_broadcast="numpy" />
			<input>
				<port id="0" precision="FP32">
					<dim>1</dim>
					<dim>24</dim>
					<dim>128</dim>
					<dim>128</dim>
				</port>
				<port id="1" precision="FP32" />
				<port id="2" precision="FP32" />
				<port id="3" precision="FP32" />
				<port id="4" precision="FP32" />
			</input>
			<output>
				<port id="5" precision="FP32">
					<dim>1</dim>
					<dim>24</dim>
					<dim>128</dim>
					<dim>128</dim>
				</port>
			</output>
		</layer>
		<layer id="218" name="efficientnet-b0/blocks_2/Add" type="Add" version="opset1">
			<data auto_broadcast="numpy" />
			<input>
				<port id="0" precision="FP32">
					<dim>1</dim>
					<dim>24</dim>
					<dim>128</dim>
					<dim>128</dim>
				</port>
				<port id="1" precision="FP32">
					<dim>1</dim>
					<dim>24</dim>
					<dim>128</dim>
					<dim>128</dim>
				</port>
			</input>
			<output>
				<port id="2" precision="FP32" names="efficientnet-b0/blocks_2/Add:0">
					<dim>1</dim>
					<dim>24</dim>
					<dim>128</dim>
					<dim>128</dim>
				</port>
			</output>
		</layer>
		<layer id="219" name="efficientnet-b0/blocks_2/Add/fq_output_0/input_low" type="Const" version="opset1">
			<data element_type="f32" shape="" offset="27152" size="4" />
			<output>
				<port id="0" precision="FP32" />
			</output>
		</layer>
		<layer id="220" name="efficientnet-b0/blocks_2/Add/fq_output_0/input_high" type="Const" version="opset1">
			<data element_type="f32" shape="" offset="27156" size="4" />
			<output>
				<port id="0" precision="FP32" />
			</output>
		</layer>
		<layer id="221" name="efficientnet-b0/blocks_2/Add/fq_output_0/output_low" type="Const" version="opset1">
			<data element_type="f32" shape="" offset="27152" size="4" />
			<output>
				<port id="0" precision="FP32" />
			</output>
		</layer>
		<layer id="222" name="efficientnet-b0/blocks_2/Add/fq_output_0/output_high" type="Const" version="opset1">
			<data element_type="f32" shape="" offset="27156" size="4" />
			<output>
				<port id="0" precision="FP32" />
			</output>
		</layer>
		<layer id="223" name="efficientnet-b0/blocks_2/Add/fq_output_0" type="FakeQuantize" version="opset1">
			<data levels="256" auto_broadcast="numpy" />
			<input>
				<port id="0" precision="FP32">
					<dim>1</dim>
					<dim>24</dim>
					<dim>128</dim>
					<dim>128</dim>
				</port>
				<port id="1" precision="FP32" />
				<port id="2" precision="FP32" />
				<port id="3" precision="FP32" />
				<port id="4" precision="FP32" />
			</input>
			<output>
				<port id="5" precision="FP32">
					<dim>1</dim>
					<dim>24</dim>
					<dim>128</dim>
					<dim>128</dim>
				</port>
			</output>
		</layer>
		<layer id="224" name="Constant_918323" type="Const" version="opset1">
			<data element_type="i8" shape="144, 24, 1, 1" offset="27160" size="3456" />
			<output>
				<port id="0" precision="I8">
					<dim>144</dim>
					<dim>24</dim>
					<dim>1</dim>
					<dim>1</dim>
				</port>
			</output>
		</layer>
		<layer id="225" name="Convert_918324" type="Convert" version="opset1">
			<data destination_type="f32" />
			<input>
				<port id="0" precision="I8">
					<dim>144</dim>
					<dim>24</dim>
					<dim>1</dim>
					<dim>1</dim>
				</port>
			</input>
			<output>
				<port id="1" precision="FP32">
					<dim>144</dim>
					<dim>24</dim>
					<dim>1</dim>
					<dim>1</dim>
				</port>
			</output>
		</layer>
		<layer id="226" name="Constant_918325" type="Const" version="opset1">
			<data element_type="f32" shape="144, 1, 1, 1" offset="30616" size="576" />
			<output>
				<port id="0" precision="FP32">
					<dim>144</dim>
					<dim>1</dim>
					<dim>1</dim>
					<dim>1</dim>
				</port>
			</output>
		</layer>
		<layer id="227" name="efficientnet-b0/blocks_3/conv2d/Conv2D/fq_weights_1" type="Multiply" version="opset1">
			<data auto_broadcast="numpy" />
			<input>
				<port id="0" precision="FP32">
					<dim>144</dim>
					<dim>24</dim>
					<dim>1</dim>
					<dim>1</dim>
				</port>
				<port id="1" precision="FP32">
					<dim>144</dim>
					<dim>1</dim>
					<dim>1</dim>
					<dim>1</dim>
				</port>
			</input>
			<output>
				<port id="2" precision="FP32">
					<dim>144</dim>
					<dim>24</dim>
					<dim>1</dim>
					<dim>1</dim>
				</port>
			</output>
		</layer>
		<layer id="228" name="efficientnet-b0/blocks_3/conv2d/Conv2D" type="Convolution" version="opset1">
			<data strides="1, 1" dilations="1, 1" pads_begin="0, 0" pads_end="0, 0" auto_pad="same_upper" />
			<input>
				<port id="0" precision="FP32">
					<dim>1</dim>
					<dim>24</dim>
					<dim>128</dim>
					<dim>128</dim>
				</port>
				<port id="1" precision="FP32">
					<dim>144</dim>
					<dim>24</dim>
					<dim>1</dim>
					<dim>1</dim>
				</port>
			</input>
			<output>
				<port id="2" precision="FP32" names="efficientnet-b0/blocks_3/conv2d/Conv2D:0">
					<dim>1</dim>
					<dim>144</dim>
					<dim>128</dim>
					<dim>128</dim>
				</port>
			</output>
		</layer>
		<layer id="229" name="efficientnet-b0/blocks_3/conv2d/Conv2D_bn_offset_compressed" type="Const" version="opset1">
			<data element_type="f16" shape="1, 144, 1, 1" offset="31192" size="288" />
			<output>
				<port id="0" precision="FP16">
					<dim>1</dim>
					<dim>144</dim>
					<dim>1</dim>
					<dim>1</dim>
				</port>
			</output>
		</layer>
		<layer id="230" name="efficientnet-b0/blocks_3/conv2d/Conv2D_bn_offset" type="Convert" version="opset1">
			<data destination_type="f32" />
			<rt_info>
				<attribute name="decompression" version="0" />
			</rt_info>
			<input>
				<port id="0" precision="FP16">
					<dim>1</dim>
					<dim>144</dim>
					<dim>1</dim>
					<dim>1</dim>
				</port>
			</input>
			<output>
				<port id="1" precision="FP32" names="efficientnet-b0/blocks_3/conv2d/Conv2D_bn_offset:0">
					<dim>1</dim>
					<dim>144</dim>
					<dim>1</dim>
					<dim>1</dim>
				</port>
			</output>
		</layer>
		<layer id="231" name="efficientnet-b0/blocks_3/tpu_batch_normalization/FusedBatchNormV3/Add" type="Add" version="opset1">
			<data auto_broadcast="numpy" />
			<input>
				<port id="0" precision="FP32">
					<dim>1</dim>
					<dim>144</dim>
					<dim>128</dim>
					<dim>128</dim>
				</port>
				<port id="1" precision="FP32">
					<dim>1</dim>
					<dim>144</dim>
					<dim>1</dim>
					<dim>1</dim>
				</port>
			</input>
			<output>
				<port id="2" precision="FP32" names="efficientnet-b0/blocks_3/tpu_batch_normalization/FusedBatchNormV3:0">
					<dim>1</dim>
					<dim>144</dim>
					<dim>128</dim>
					<dim>128</dim>
				</port>
			</output>
		</layer>
		<layer id="232" name="efficientnet-b0/blocks_3/mul" type="Swish" version="opset4">
			<input>
				<port id="0" precision="FP32">
					<dim>1</dim>
					<dim>144</dim>
					<dim>128</dim>
					<dim>128</dim>
				</port>
			</input>
			<output>
				<port id="1" precision="FP32" names="efficientnet-b0/blocks_3/IdentityN:0,efficientnet-b0/blocks_3/mul:0">
					<dim>1</dim>
					<dim>144</dim>
					<dim>128</dim>
					<dim>128</dim>
				</port>
			</output>
		</layer>
		<layer id="233" name="efficientnet-b0/blocks_3/mul/fq_output_0/input_low" type="Const" version="opset1">
			<data element_type="f32" shape="1, 144, 1, 1" offset="31480" size="576" />
			<output>
				<port id="0" precision="FP32">
					<dim>1</dim>
					<dim>144</dim>
					<dim>1</dim>
					<dim>1</dim>
				</port>
			</output>
		</layer>
		<layer id="234" name="efficientnet-b0/blocks_3/mul/fq_output_0/input_high" type="Const" version="opset1">
			<data element_type="f32" shape="1, 144, 1, 1" offset="32056" size="576" />
			<output>
				<port id="0" precision="FP32">
					<dim>1</dim>
					<dim>144</dim>
					<dim>1</dim>
					<dim>1</dim>
				</port>
			</output>
		</layer>
		<layer id="235" name="efficientnet-b0/blocks_3/mul/fq_output_0/output_low" type="Const" version="opset1">
			<data element_type="f32" shape="1, 144, 1, 1" offset="31480" size="576" />
			<output>
				<port id="0" precision="FP32">
					<dim>1</dim>
					<dim>144</dim>
					<dim>1</dim>
					<dim>1</dim>
				</port>
			</output>
		</layer>
		<layer id="236" name="efficientnet-b0/blocks_3/mul/fq_output_0/output_high" type="Const" version="opset1">
			<data element_type="f32" shape="1, 144, 1, 1" offset="32056" size="576" />
			<output>
				<port id="0" precision="FP32">
					<dim>1</dim>
					<dim>144</dim>
					<dim>1</dim>
					<dim>1</dim>
				</port>
			</output>
		</layer>
		<layer id="237" name="efficientnet-b0/blocks_3/mul/fq_output_0" type="FakeQuantize" version="opset1">
			<data levels="256" auto_broadcast="numpy" />
			<input>
				<port id="0" precision="FP32">
					<dim>1</dim>
					<dim>144</dim>
					<dim>128</dim>
					<dim>128</dim>
				</port>
				<port id="1" precision="FP32">
					<dim>1</dim>
					<dim>144</dim>
					<dim>1</dim>
					<dim>1</dim>
				</port>
				<port id="2" precision="FP32">
					<dim>1</dim>
					<dim>144</dim>
					<dim>1</dim>
					<dim>1</dim>
				</port>
				<port id="3" precision="FP32">
					<dim>1</dim>
					<dim>144</dim>
					<dim>1</dim>
					<dim>1</dim>
				</port>
				<port id="4" precision="FP32">
					<dim>1</dim>
					<dim>144</dim>
					<dim>1</dim>
					<dim>1</dim>
				</port>
			</input>
			<output>
				<port id="5" precision="FP32">
					<dim>1</dim>
					<dim>144</dim>
					<dim>128</dim>
					<dim>128</dim>
				</port>
			</output>
		</layer>
		<layer id="238" name="Constant_918328" type="Const" version="opset1">
			<data element_type="i8" shape="144, 1, 1, 5, 5" offset="32632" size="3600" />
			<output>
				<port id="0" precision="I8">
					<dim>144</dim>
					<dim>1</dim>
					<dim>1</dim>
					<dim>5</dim>
					<dim>5</dim>
				</port>
			</output>
		</layer>
		<layer id="239" name="Convert_918329" type="Convert" version="opset1">
			<data destination_type="f32" />
			<input>
				<port id="0" precision="I8">
					<dim>144</dim>
					<dim>1</dim>
					<dim>1</dim>
					<dim>5</dim>
					<dim>5</dim>
				</port>
			</input>
			<output>
				<port id="1" precision="FP32">
					<dim>144</dim>
					<dim>1</dim>
					<dim>1</dim>
					<dim>5</dim>
					<dim>5</dim>
				</port>
			</output>
		</layer>
		<layer id="240" name="Constant_918330" type="Const" version="opset1">
			<data element_type="f32" shape="144, 1, 1, 1, 1" offset="36232" size="576" />
			<output>
				<port id="0" precision="FP32">
					<dim>144</dim>
					<dim>1</dim>
					<dim>1</dim>
					<dim>1</dim>
					<dim>1</dim>
				</port>
			</output>
		</layer>
		<layer id="241" name="efficientnet-b0/blocks_3/depthwise_conv2d/depthwise/fq_weights_1" type="Multiply" version="opset1">
			<data auto_broadcast="numpy" />
			<input>
				<port id="0" precision="FP32">
					<dim>144</dim>
					<dim>1</dim>
					<dim>1</dim>
					<dim>5</dim>
					<dim>5</dim>
				</port>
				<port id="1" precision="FP32">
					<dim>144</dim>
					<dim>1</dim>
					<dim>1</dim>
					<dim>1</dim>
					<dim>1</dim>
				</port>
			</input>
			<output>
				<port id="2" precision="FP32">
					<dim>144</dim>
					<dim>1</dim>
					<dim>1</dim>
					<dim>5</dim>
					<dim>5</dim>
				</port>
			</output>
		</layer>
		<layer id="242" name="efficientnet-b0/blocks_3/depthwise_conv2d/depthwise" type="GroupConvolution" version="opset1">
			<data strides="2, 2" pads_begin="0, 0" pads_end="0, 0" dilations="1, 1" auto_pad="same_upper" />
			<input>
				<port id="0" precision="FP32">
					<dim>1</dim>
					<dim>144</dim>
					<dim>128</dim>
					<dim>128</dim>
				</port>
				<port id="1" precision="FP32">
					<dim>144</dim>
					<dim>1</dim>
					<dim>1</dim>
					<dim>5</dim>
					<dim>5</dim>
				</port>
			</input>
			<output>
				<port id="2" precision="FP32" names="efficientnet-b0/blocks_3/depthwise_conv2d/depthwise:0">
					<dim>1</dim>
					<dim>144</dim>
					<dim>64</dim>
					<dim>64</dim>
				</port>
			</output>
		</layer>
		<layer id="243" name="efficientnet-b0/blocks_3/depthwise_conv2d/depthwise_bn_offset_compressed" type="Const" version="opset1">
			<data element_type="f16" shape="1, 144, 1, 1" offset="36808" size="288" />
			<output>
				<port id="0" precision="FP16">
					<dim>1</dim>
					<dim>144</dim>
					<dim>1</dim>
					<dim>1</dim>
				</port>
			</output>
		</layer>
		<layer id="244" name="efficientnet-b0/blocks_3/depthwise_conv2d/depthwise_bn_offset" type="Convert" version="opset1">
			<data destination_type="f32" />
			<rt_info>
				<attribute name="decompression" version="0" />
			</rt_info>
			<input>
				<port id="0" precision="FP16">
					<dim>1</dim>
					<dim>144</dim>
					<dim>1</dim>
					<dim>1</dim>
				</port>
			</input>
			<output>
				<port id="1" precision="FP32" names="efficientnet-b0/blocks_3/depthwise_conv2d/depthwise_bn_offset:0">
					<dim>1</dim>
					<dim>144</dim>
					<dim>1</dim>
					<dim>1</dim>
				</port>
			</output>
		</layer>
		<layer id="245" name="efficientnet-b0/blocks_3/tpu_batch_normalization_1/FusedBatchNormV3/Add" type="Add" version="opset1">
			<data auto_broadcast="numpy" />
			<input>
				<port id="0" precision="FP32">
					<dim>1</dim>
					<dim>144</dim>
					<dim>64</dim>
					<dim>64</dim>
				</port>
				<port id="1" precision="FP32">
					<dim>1</dim>
					<dim>144</dim>
					<dim>1</dim>
					<dim>1</dim>
				</port>
			</input>
			<output>
				<port id="2" precision="FP32" names="efficientnet-b0/blocks_3/tpu_batch_normalization_1/FusedBatchNormV3:0">
					<dim>1</dim>
					<dim>144</dim>
					<dim>64</dim>
					<dim>64</dim>
				</port>
			</output>
		</layer>
		<layer id="246" name="efficientnet-b0/blocks_3/mul_1" type="Swish" version="opset4">
			<input>
				<port id="0" precision="FP32">
					<dim>1</dim>
					<dim>144</dim>
					<dim>64</dim>
					<dim>64</dim>
				</port>
			</input>
			<output>
				<port id="1" precision="FP32" names="efficientnet-b0/blocks_3/IdentityN_1:0,efficientnet-b0/blocks_3/mul_1:0">
					<dim>1</dim>
					<dim>144</dim>
					<dim>64</dim>
					<dim>64</dim>
				</port>
			</output>
		</layer>
		<layer id="247" name="efficientnet-b0/blocks_3/mul_1/fq_output_0/input_low" type="Const" version="opset1">
			<data element_type="f32" shape="" offset="37096" size="4" />
			<output>
				<port id="0" precision="FP32" />
			</output>
		</layer>
		<layer id="248" name="efficientnet-b0/blocks_3/mul_1/fq_output_0/input_high" type="Const" version="opset1">
			<data element_type="f32" shape="" offset="37100" size="4" />
			<output>
				<port id="0" precision="FP32" />
			</output>
		</layer>
		<layer id="249" name="efficientnet-b0/blocks_3/mul_1/fq_output_0/output_low" type="Const" version="opset1">
			<data element_type="f32" shape="" offset="37096" size="4" />
			<output>
				<port id="0" precision="FP32" />
			</output>
		</layer>
		<layer id="250" name="efficientnet-b0/blocks_3/mul_1/fq_output_0/output_high" type="Const" version="opset1">
			<data element_type="f32" shape="" offset="37100" size="4" />
			<output>
				<port id="0" precision="FP32" />
			</output>
		</layer>
		<layer id="251" name="efficientnet-b0/blocks_3/mul_1/fq_output_0" type="FakeQuantize" version="opset1">
			<data levels="256" auto_broadcast="numpy" />
			<input>
				<port id="0" precision="FP32">
					<dim>1</dim>
					<dim>144</dim>
					<dim>64</dim>
					<dim>64</dim>
				</port>
				<port id="1" precision="FP32" />
				<port id="2" precision="FP32" />
				<port id="3" precision="FP32" />
				<port id="4" precision="FP32" />
			</input>
			<output>
				<port id="5" precision="FP32">
					<dim>1</dim>
					<dim>144</dim>
					<dim>64</dim>
					<dim>64</dim>
				</port>
			</output>
		</layer>
		<layer id="252" name="2919547649" type="Const" version="opset1">
			<data element_type="i64" shape="2" offset="1852" size="16" />
			<output>
				<port id="0" precision="I64">
					<dim>2</dim>
				</port>
			</output>
		</layer>
		<layer id="253" name="efficientnet-b0/blocks_3/se/Mean" type="ReduceMean" version="opset1">
			<data keep_dims="true" />
			<input>
				<port id="0" precision="FP32">
					<dim>1</dim>
					<dim>144</dim>
					<dim>64</dim>
					<dim>64</dim>
				</port>
				<port id="1" precision="I64">
					<dim>2</dim>
				</port>
			</input>
			<output>
				<port id="2" precision="FP32" names="efficientnet-b0/blocks_3/se/Mean:0">
					<dim>1</dim>
					<dim>144</dim>
					<dim>1</dim>
					<dim>1</dim>
				</port>
			</output>
		</layer>
		<layer id="254" name="efficientnet-b0/blocks_3/se/conv2d/kernel_compressed" type="Const" version="opset1">
			<data element_type="f16" shape="6, 144, 1, 1" offset="37104" size="1728" />
			<output>
				<port id="0" precision="FP16">
					<dim>6</dim>
					<dim>144</dim>
					<dim>1</dim>
					<dim>1</dim>
				</port>
			</output>
		</layer>
		<layer id="255" name="efficientnet-b0/blocks_3/se/conv2d/kernel" type="Convert" version="opset1">
			<data destination_type="f32" />
			<rt_info>
				<attribute name="decompression" version="0" />
			</rt_info>
			<input>
				<port id="0" precision="FP16">
					<dim>6</dim>
					<dim>144</dim>
					<dim>1</dim>
					<dim>1</dim>
				</port>
			</input>
			<output>
				<port id="1" precision="FP32" names="efficientnet-b0/blocks_3/se/conv2d/kernel:0">
					<dim>6</dim>
					<dim>144</dim>
					<dim>1</dim>
					<dim>1</dim>
				</port>
			</output>
		</layer>
		<layer id="256" name="efficientnet-b0/blocks_3/se/conv2d/Conv2D" type="Convolution" version="opset1">
			<data strides="1, 1" dilations="1, 1" pads_begin="0, 0" pads_end="0, 0" auto_pad="same_upper" />
			<input>
				<port id="0" precision="FP32">
					<dim>1</dim>
					<dim>144</dim>
					<dim>1</dim>
					<dim>1</dim>
				</port>
				<port id="1" precision="FP32">
					<dim>6</dim>
					<dim>144</dim>
					<dim>1</dim>
					<dim>1</dim>
				</port>
			</input>
			<output>
				<port id="2" precision="FP32" names="efficientnet-b0/blocks_3/se/conv2d/Conv2D:0">
					<dim>1</dim>
					<dim>6</dim>
					<dim>1</dim>
					<dim>1</dim>
				</port>
			</output>
		</layer>
		<layer id="257" name="efficientnet-b0/blocks_3/se/conv2d/bias_compressed" type="Const" version="opset1">
			<data element_type="f16" shape="1, 6, 1, 1" offset="38832" size="12" />
			<output>
				<port id="0" precision="FP16">
					<dim>1</dim>
					<dim>6</dim>
					<dim>1</dim>
					<dim>1</dim>
				</port>
			</output>
		</layer>
		<layer id="258" name="efficientnet-b0/blocks_3/se/conv2d/bias" type="Convert" version="opset1">
			<data destination_type="f32" />
			<rt_info>
				<attribute name="decompression" version="0" />
			</rt_info>
			<input>
				<port id="0" precision="FP16">
					<dim>1</dim>
					<dim>6</dim>
					<dim>1</dim>
					<dim>1</dim>
				</port>
			</input>
			<output>
				<port id="1" precision="FP32" names="efficientnet-b0/blocks_3/se/conv2d/bias:0">
					<dim>1</dim>
					<dim>6</dim>
					<dim>1</dim>
					<dim>1</dim>
				</port>
			</output>
		</layer>
		<layer id="259" name="efficientnet-b0/blocks_3/se/conv2d/BiasAdd/Add" type="Add" version="opset1">
			<data auto_broadcast="numpy" />
			<input>
				<port id="0" precision="FP32">
					<dim>1</dim>
					<dim>6</dim>
					<dim>1</dim>
					<dim>1</dim>
				</port>
				<port id="1" precision="FP32">
					<dim>1</dim>
					<dim>6</dim>
					<dim>1</dim>
					<dim>1</dim>
				</port>
			</input>
			<output>
				<port id="2" precision="FP32" names="efficientnet-b0/blocks_3/se/conv2d/BiasAdd:0">
					<dim>1</dim>
					<dim>6</dim>
					<dim>1</dim>
					<dim>1</dim>
				</port>
			</output>
		</layer>
		<layer id="260" name="efficientnet-b0/blocks_3/se/mul" type="Swish" version="opset4">
			<input>
				<port id="0" precision="FP32">
					<dim>1</dim>
					<dim>6</dim>
					<dim>1</dim>
					<dim>1</dim>
				</port>
			</input>
			<output>
				<port id="1" precision="FP32" names="efficientnet-b0/blocks_3/se/IdentityN:0,efficientnet-b0/blocks_3/se/mul:0">
					<dim>1</dim>
					<dim>6</dim>
					<dim>1</dim>
					<dim>1</dim>
				</port>
			</output>
		</layer>
		<layer id="261" name="efficientnet-b0/blocks_3/se/conv2d_1/kernel_compressed" type="Const" version="opset1">
			<data element_type="f16" shape="144, 6, 1, 1" offset="38844" size="1728" />
			<output>
				<port id="0" precision="FP16">
					<dim>144</dim>
					<dim>6</dim>
					<dim>1</dim>
					<dim>1</dim>
				</port>
			</output>
		</layer>
		<layer id="262" name="efficientnet-b0/blocks_3/se/conv2d_1/kernel" type="Convert" version="opset1">
			<data destination_type="f32" />
			<rt_info>
				<attribute name="decompression" version="0" />
			</rt_info>
			<input>
				<port id="0" precision="FP16">
					<dim>144</dim>
					<dim>6</dim>
					<dim>1</dim>
					<dim>1</dim>
				</port>
			</input>
			<output>
				<port id="1" precision="FP32" names="efficientnet-b0/blocks_3/se/conv2d_1/kernel:0">
					<dim>144</dim>
					<dim>6</dim>
					<dim>1</dim>
					<dim>1</dim>
				</port>
			</output>
		</layer>
		<layer id="263" name="efficientnet-b0/blocks_3/se/conv2d_1/Conv2D" type="Convolution" version="opset1">
			<data strides="1, 1" dilations="1, 1" pads_begin="0, 0" pads_end="0, 0" auto_pad="same_upper" />
			<input>
				<port id="0" precision="FP32">
					<dim>1</dim>
					<dim>6</dim>
					<dim>1</dim>
					<dim>1</dim>
				</port>
				<port id="1" precision="FP32">
					<dim>144</dim>
					<dim>6</dim>
					<dim>1</dim>
					<dim>1</dim>
				</port>
			</input>
			<output>
				<port id="2" precision="FP32" names="efficientnet-b0/blocks_3/se/conv2d_1/Conv2D:0">
					<dim>1</dim>
					<dim>144</dim>
					<dim>1</dim>
					<dim>1</dim>
				</port>
			</output>
		</layer>
		<layer id="264" name="efficientnet-b0/blocks_3/se/conv2d_1/bias_compressed" type="Const" version="opset1">
			<data element_type="f16" shape="1, 144, 1, 1" offset="40572" size="288" />
			<output>
				<port id="0" precision="FP16">
					<dim>1</dim>
					<dim>144</dim>
					<dim>1</dim>
					<dim>1</dim>
				</port>
			</output>
		</layer>
		<layer id="265" name="efficientnet-b0/blocks_3/se/conv2d_1/bias" type="Convert" version="opset1">
			<data destination_type="f32" />
			<rt_info>
				<attribute name="decompression" version="0" />
			</rt_info>
			<input>
				<port id="0" precision="FP16">
					<dim>1</dim>
					<dim>144</dim>
					<dim>1</dim>
					<dim>1</dim>
				</port>
			</input>
			<output>
				<port id="1" precision="FP32" names="efficientnet-b0/blocks_3/se/conv2d_1/bias:0">
					<dim>1</dim>
					<dim>144</dim>
					<dim>1</dim>
					<dim>1</dim>
				</port>
			</output>
		</layer>
		<layer id="266" name="efficientnet-b0/blocks_3/se/conv2d_1/BiasAdd/Add" type="Add" version="opset1">
			<data auto_broadcast="numpy" />
			<input>
				<port id="0" precision="FP32">
					<dim>1</dim>
					<dim>144</dim>
					<dim>1</dim>
					<dim>1</dim>
				</port>
				<port id="1" precision="FP32">
					<dim>1</dim>
					<dim>144</dim>
					<dim>1</dim>
					<dim>1</dim>
				</port>
			</input>
			<output>
				<port id="2" precision="FP32" names="efficientnet-b0/blocks_3/se/conv2d_1/BiasAdd:0">
					<dim>1</dim>
					<dim>144</dim>
					<dim>1</dim>
					<dim>1</dim>
				</port>
			</output>
		</layer>
		<layer id="267" name="efficientnet-b0/blocks_3/se/Sigmoid_1" type="Sigmoid" version="opset1">
			<input>
				<port id="0" precision="FP32">
					<dim>1</dim>
					<dim>144</dim>
					<dim>1</dim>
					<dim>1</dim>
				</port>
			</input>
			<output>
				<port id="1" precision="FP32" names="efficientnet-b0/blocks_3/se/Sigmoid_1:0">
					<dim>1</dim>
					<dim>144</dim>
					<dim>1</dim>
					<dim>1</dim>
				</port>
			</output>
		</layer>
		<layer id="268" name="efficientnet-b0/blocks_3/se/Sigmoid_1/fq_output_0/input_low" type="Const" version="opset1">
			<data element_type="f32" shape="" offset="2972" size="4" />
			<output>
				<port id="0" precision="FP32" />
			</output>
		</layer>
		<layer id="269" name="efficientnet-b0/blocks_3/se/Sigmoid_1/fq_output_0/input_high" type="Const" version="opset1">
			<data element_type="f32" shape="" offset="40860" size="4" />
			<output>
				<port id="0" precision="FP32" />
			</output>
		</layer>
		<layer id="270" name="efficientnet-b0/blocks_3/se/Sigmoid_1/fq_output_0/output_low" type="Const" version="opset1">
			<data element_type="f32" shape="" offset="2972" size="4" />
			<output>
				<port id="0" precision="FP32" />
			</output>
		</layer>
		<layer id="271" name="efficientnet-b0/blocks_3/se/Sigmoid_1/fq_output_0/output_high" type="Const" version="opset1">
			<data element_type="f32" shape="" offset="40860" size="4" />
			<output>
				<port id="0" precision="FP32" />
			</output>
		</layer>
		<layer id="272" name="efficientnet-b0/blocks_3/se/Sigmoid_1/fq_output_0" type="FakeQuantize" version="opset1">
			<data levels="256" auto_broadcast="numpy" />
			<input>
				<port id="0" precision="FP32">
					<dim>1</dim>
					<dim>144</dim>
					<dim>1</dim>
					<dim>1</dim>
				</port>
				<port id="1" precision="FP32" />
				<port id="2" precision="FP32" />
				<port id="3" precision="FP32" />
				<port id="4" precision="FP32" />
			</input>
			<output>
				<port id="5" precision="FP32">
					<dim>1</dim>
					<dim>144</dim>
					<dim>1</dim>
					<dim>1</dim>
				</port>
			</output>
		</layer>
		<layer id="273" name="efficientnet-b0/blocks_3/se/mul_1" type="Multiply" version="opset1">
			<data auto_broadcast="numpy" />
			<input>
				<port id="0" precision="FP32">
					<dim>1</dim>
					<dim>144</dim>
					<dim>1</dim>
					<dim>1</dim>
				</port>
				<port id="1" precision="FP32">
					<dim>1</dim>
					<dim>144</dim>
					<dim>64</dim>
					<dim>64</dim>
				</port>
			</input>
			<output>
				<port id="2" precision="FP32" names="efficientnet-b0/blocks_3/se/mul_1:0">
					<dim>1</dim>
					<dim>144</dim>
					<dim>64</dim>
					<dim>64</dim>
				</port>
			</output>
		</layer>
		<layer id="274" name="efficientnet-b0/blocks_3/se/mul_1/fq_output_0/input_low" type="Const" version="opset1">
			<data element_type="f32" shape="" offset="40864" size="4" />
			<output>
				<port id="0" precision="FP32" />
			</output>
		</layer>
		<layer id="275" name="efficientnet-b0/blocks_3/se/mul_1/fq_output_0/input_high" type="Const" version="opset1">
			<data element_type="f32" shape="" offset="40868" size="4" />
			<output>
				<port id="0" precision="FP32" />
			</output>
		</layer>
		<layer id="276" name="efficientnet-b0/blocks_3/se/mul_1/fq_output_0/output_low" type="Const" version="opset1">
			<data element_type="f32" shape="" offset="40864" size="4" />
			<output>
				<port id="0" precision="FP32" />
			</output>
		</layer>
		<layer id="277" name="efficientnet-b0/blocks_3/se/mul_1/fq_output_0/output_high" type="Const" version="opset1">
			<data element_type="f32" shape="" offset="40868" size="4" />
			<output>
				<port id="0" precision="FP32" />
			</output>
		</layer>
		<layer id="278" name="efficientnet-b0/blocks_3/se/mul_1/fq_output_0" type="FakeQuantize" version="opset1">
			<data levels="256" auto_broadcast="numpy" />
			<input>
				<port id="0" precision="FP32">
					<dim>1</dim>
					<dim>144</dim>
					<dim>64</dim>
					<dim>64</dim>
				</port>
				<port id="1" precision="FP32" />
				<port id="2" precision="FP32" />
				<port id="3" precision="FP32" />
				<port id="4" precision="FP32" />
			</input>
			<output>
				<port id="5" precision="FP32">
					<dim>1</dim>
					<dim>144</dim>
					<dim>64</dim>
					<dim>64</dim>
				</port>
			</output>
		</layer>
		<layer id="279" name="Constant_918333" type="Const" version="opset1">
			<data element_type="i8" shape="40, 144, 1, 1" offset="40872" size="5760" />
			<output>
				<port id="0" precision="I8">
					<dim>40</dim>
					<dim>144</dim>
					<dim>1</dim>
					<dim>1</dim>
				</port>
			</output>
		</layer>
		<layer id="280" name="Convert_918334" type="Convert" version="opset1">
			<data destination_type="f32" />
			<input>
				<port id="0" precision="I8">
					<dim>40</dim>
					<dim>144</dim>
					<dim>1</dim>
					<dim>1</dim>
				</port>
			</input>
			<output>
				<port id="1" precision="FP32">
					<dim>40</dim>
					<dim>144</dim>
					<dim>1</dim>
					<dim>1</dim>
				</port>
			</output>
		</layer>
		<layer id="281" name="Constant_918335" type="Const" version="opset1">
			<data element_type="f32" shape="40, 1, 1, 1" offset="46632" size="160" />
			<output>
				<port id="0" precision="FP32">
					<dim>40</dim>
					<dim>1</dim>
					<dim>1</dim>
					<dim>1</dim>
				</port>
			</output>
		</layer>
		<layer id="282" name="efficientnet-b0/blocks_3/conv2d_1/Conv2D/fq_weights_1" type="Multiply" version="opset1">
			<data auto_broadcast="numpy" />
			<input>
				<port id="0" precision="FP32">
					<dim>40</dim>
					<dim>144</dim>
					<dim>1</dim>
					<dim>1</dim>
				</port>
				<port id="1" precision="FP32">
					<dim>40</dim>
					<dim>1</dim>
					<dim>1</dim>
					<dim>1</dim>
				</port>
			</input>
			<output>
				<port id="2" precision="FP32">
					<dim>40</dim>
					<dim>144</dim>
					<dim>1</dim>
					<dim>1</dim>
				</port>
			</output>
		</layer>
		<layer id="283" name="efficientnet-b0/blocks_3/conv2d_1/Conv2D" type="Convolution" version="opset1">
			<data strides="1, 1" dilations="1, 1" pads_begin="0, 0" pads_end="0, 0" auto_pad="same_upper" />
			<input>
				<port id="0" precision="FP32">
					<dim>1</dim>
					<dim>144</dim>
					<dim>64</dim>
					<dim>64</dim>
				</port>
				<port id="1" precision="FP32">
					<dim>40</dim>
					<dim>144</dim>
					<dim>1</dim>
					<dim>1</dim>
				</port>
			</input>
			<output>
				<port id="2" precision="FP32" names="efficientnet-b0/blocks_3/conv2d_1/Conv2D:0">
					<dim>1</dim>
					<dim>40</dim>
					<dim>64</dim>
					<dim>64</dim>
				</port>
			</output>
		</layer>
		<layer id="284" name="efficientnet-b0/blocks_3/conv2d_1/Conv2D_bn_offset_compressed" type="Const" version="opset1">
			<data element_type="f16" shape="1, 40, 1, 1" offset="46792" size="80" />
			<output>
				<port id="0" precision="FP16">
					<dim>1</dim>
					<dim>40</dim>
					<dim>1</dim>
					<dim>1</dim>
				</port>
			</output>
		</layer>
		<layer id="285" name="efficientnet-b0/blocks_3/conv2d_1/Conv2D_bn_offset" type="Convert" version="opset1">
			<data destination_type="f32" />
			<rt_info>
				<attribute name="decompression" version="0" />
			</rt_info>
			<input>
				<port id="0" precision="FP16">
					<dim>1</dim>
					<dim>40</dim>
					<dim>1</dim>
					<dim>1</dim>
				</port>
			</input>
			<output>
				<port id="1" precision="FP32" names="efficientnet-b0/blocks_3/conv2d_1/Conv2D_bn_offset:0">
					<dim>1</dim>
					<dim>40</dim>
					<dim>1</dim>
					<dim>1</dim>
				</port>
			</output>
		</layer>
		<layer id="286" name="efficientnet-b0/blocks_3/tpu_batch_normalization_2/FusedBatchNormV3/Add" type="Add" version="opset1">
			<data auto_broadcast="numpy" />
			<input>
				<port id="0" precision="FP32">
					<dim>1</dim>
					<dim>40</dim>
					<dim>64</dim>
					<dim>64</dim>
				</port>
				<port id="1" precision="FP32">
					<dim>1</dim>
					<dim>40</dim>
					<dim>1</dim>
					<dim>1</dim>
				</port>
			</input>
			<output>
				<port id="2" precision="FP32" names="efficientnet-b0/blocks_3/tpu_batch_normalization_2/FusedBatchNormV3:0">
					<dim>1</dim>
					<dim>40</dim>
					<dim>64</dim>
					<dim>64</dim>
				</port>
			</output>
		</layer>
		<layer id="287" name="efficientnet-b0/blocks_3/tpu_batch_normalization_2/FusedBatchNormV3/Add/fq_output_0/input_low" type="Const" version="opset1">
			<data element_type="f32" shape="" offset="46872" size="4" />
			<output>
				<port id="0" precision="FP32" />
			</output>
		</layer>
		<layer id="288" name="efficientnet-b0/blocks_3/tpu_batch_normalization_2/FusedBatchNormV3/Add/fq_output_0/input_high" type="Const" version="opset1">
			<data element_type="f32" shape="" offset="46876" size="4" />
			<output>
				<port id="0" precision="FP32" />
			</output>
		</layer>
		<layer id="289" name="efficientnet-b0/blocks_3/tpu_batch_normalization_2/FusedBatchNormV3/Add/fq_output_0/output_low" type="Const" version="opset1">
			<data element_type="f32" shape="" offset="46872" size="4" />
			<output>
				<port id="0" precision="FP32" />
			</output>
		</layer>
		<layer id="290" name="efficientnet-b0/blocks_3/tpu_batch_normalization_2/FusedBatchNormV3/Add/fq_output_0/output_high" type="Const" version="opset1">
			<data element_type="f32" shape="" offset="46876" size="4" />
			<output>
				<port id="0" precision="FP32" />
			</output>
		</layer>
		<layer id="291" name="efficientnet-b0/blocks_3/tpu_batch_normalization_2/FusedBatchNormV3/Add/fq_output_0" type="FakeQuantize" version="opset1">
			<data levels="256" auto_broadcast="numpy" />
			<input>
				<port id="0" precision="FP32">
					<dim>1</dim>
					<dim>40</dim>
					<dim>64</dim>
					<dim>64</dim>
				</port>
				<port id="1" precision="FP32" />
				<port id="2" precision="FP32" />
				<port id="3" precision="FP32" />
				<port id="4" precision="FP32" />
			</input>
			<output>
				<port id="5" precision="FP32">
					<dim>1</dim>
					<dim>40</dim>
					<dim>64</dim>
					<dim>64</dim>
				</port>
			</output>
		</layer>
		<layer id="292" name="Constant_918338" type="Const" version="opset1">
			<data element_type="i8" shape="240, 40, 1, 1" offset="46880" size="9600" />
			<output>
				<port id="0" precision="I8">
					<dim>240</dim>
					<dim>40</dim>
					<dim>1</dim>
					<dim>1</dim>
				</port>
			</output>
		</layer>
		<layer id="293" name="Convert_918339" type="Convert" version="opset1">
			<data destination_type="f32" />
			<input>
				<port id="0" precision="I8">
					<dim>240</dim>
					<dim>40</dim>
					<dim>1</dim>
					<dim>1</dim>
				</port>
			</input>
			<output>
				<port id="1" precision="FP32">
					<dim>240</dim>
					<dim>40</dim>
					<dim>1</dim>
					<dim>1</dim>
				</port>
			</output>
		</layer>
		<layer id="294" name="Constant_918340" type="Const" version="opset1">
			<data element_type="f32" shape="240, 1, 1, 1" offset="56480" size="960" />
			<output>
				<port id="0" precision="FP32">
					<dim>240</dim>
					<dim>1</dim>
					<dim>1</dim>
					<dim>1</dim>
				</port>
			</output>
		</layer>
		<layer id="295" name="efficientnet-b0/blocks_4/conv2d/Conv2D/fq_weights_1" type="Multiply" version="opset1">
			<data auto_broadcast="numpy" />
			<input>
				<port id="0" precision="FP32">
					<dim>240</dim>
					<dim>40</dim>
					<dim>1</dim>
					<dim>1</dim>
				</port>
				<port id="1" precision="FP32">
					<dim>240</dim>
					<dim>1</dim>
					<dim>1</dim>
					<dim>1</dim>
				</port>
			</input>
			<output>
				<port id="2" precision="FP32">
					<dim>240</dim>
					<dim>40</dim>
					<dim>1</dim>
					<dim>1</dim>
				</port>
			</output>
		</layer>
		<layer id="296" name="efficientnet-b0/blocks_4/conv2d/Conv2D" type="Convolution" version="opset1">
			<data strides="1, 1" dilations="1, 1" pads_begin="0, 0" pads_end="0, 0" auto_pad="same_upper" />
			<input>
				<port id="0" precision="FP32">
					<dim>1</dim>
					<dim>40</dim>
					<dim>64</dim>
					<dim>64</dim>
				</port>
				<port id="1" precision="FP32">
					<dim>240</dim>
					<dim>40</dim>
					<dim>1</dim>
					<dim>1</dim>
				</port>
			</input>
			<output>
				<port id="2" precision="FP32" names="efficientnet-b0/blocks_4/conv2d/Conv2D:0">
					<dim>1</dim>
					<dim>240</dim>
					<dim>64</dim>
					<dim>64</dim>
				</port>
			</output>
		</layer>
		<layer id="297" name="efficientnet-b0/blocks_4/conv2d/Conv2D_bn_offset_compressed" type="Const" version="opset1">
			<data element_type="f16" shape="1, 240, 1, 1" offset="57440" size="480" />
			<output>
				<port id="0" precision="FP16">
					<dim>1</dim>
					<dim>240</dim>
					<dim>1</dim>
					<dim>1</dim>
				</port>
			</output>
		</layer>
		<layer id="298" name="efficientnet-b0/blocks_4/conv2d/Conv2D_bn_offset" type="Convert" version="opset1">
			<data destination_type="f32" />
			<rt_info>
				<attribute name="decompression" version="0" />
			</rt_info>
			<input>
				<port id="0" precision="FP16">
					<dim>1</dim>
					<dim>240</dim>
					<dim>1</dim>
					<dim>1</dim>
				</port>
			</input>
			<output>
				<port id="1" precision="FP32" names="efficientnet-b0/blocks_4/conv2d/Conv2D_bn_offset:0">
					<dim>1</dim>
					<dim>240</dim>
					<dim>1</dim>
					<dim>1</dim>
				</port>
			</output>
		</layer>
		<layer id="299" name="efficientnet-b0/blocks_4/tpu_batch_normalization/FusedBatchNormV3/Add" type="Add" version="opset1">
			<data auto_broadcast="numpy" />
			<input>
				<port id="0" precision="FP32">
					<dim>1</dim>
					<dim>240</dim>
					<dim>64</dim>
					<dim>64</dim>
				</port>
				<port id="1" precision="FP32">
					<dim>1</dim>
					<dim>240</dim>
					<dim>1</dim>
					<dim>1</dim>
				</port>
			</input>
			<output>
				<port id="2" precision="FP32" names="efficientnet-b0/blocks_4/tpu_batch_normalization/FusedBatchNormV3:0">
					<dim>1</dim>
					<dim>240</dim>
					<dim>64</dim>
					<dim>64</dim>
				</port>
			</output>
		</layer>
		<layer id="300" name="efficientnet-b0/blocks_4/mul" type="Swish" version="opset4">
			<input>
				<port id="0" precision="FP32">
					<dim>1</dim>
					<dim>240</dim>
					<dim>64</dim>
					<dim>64</dim>
				</port>
			</input>
			<output>
				<port id="1" precision="FP32" names="efficientnet-b0/blocks_4/IdentityN:0,efficientnet-b0/blocks_4/mul:0">
					<dim>1</dim>
					<dim>240</dim>
					<dim>64</dim>
					<dim>64</dim>
				</port>
			</output>
		</layer>
		<layer id="301" name="efficientnet-b0/blocks_4/mul/fq_output_0/input_low" type="Const" version="opset1">
			<data element_type="f32" shape="1, 240, 1, 1" offset="57920" size="960" />
			<output>
				<port id="0" precision="FP32">
					<dim>1</dim>
					<dim>240</dim>
					<dim>1</dim>
					<dim>1</dim>
				</port>
			</output>
		</layer>
		<layer id="302" name="efficientnet-b0/blocks_4/mul/fq_output_0/input_high" type="Const" version="opset1">
			<data element_type="f32" shape="1, 240, 1, 1" offset="58880" size="960" />
			<output>
				<port id="0" precision="FP32">
					<dim>1</dim>
					<dim>240</dim>
					<dim>1</dim>
					<dim>1</dim>
				</port>
			</output>
		</layer>
		<layer id="303" name="efficientnet-b0/blocks_4/mul/fq_output_0/output_low" type="Const" version="opset1">
			<data element_type="f32" shape="1, 240, 1, 1" offset="57920" size="960" />
			<output>
				<port id="0" precision="FP32">
					<dim>1</dim>
					<dim>240</dim>
					<dim>1</dim>
					<dim>1</dim>
				</port>
			</output>
		</layer>
		<layer id="304" name="efficientnet-b0/blocks_4/mul/fq_output_0/output_high" type="Const" version="opset1">
			<data element_type="f32" shape="1, 240, 1, 1" offset="58880" size="960" />
			<output>
				<port id="0" precision="FP32">
					<dim>1</dim>
					<dim>240</dim>
					<dim>1</dim>
					<dim>1</dim>
				</port>
			</output>
		</layer>
		<layer id="305" name="efficientnet-b0/blocks_4/mul/fq_output_0" type="FakeQuantize" version="opset1">
			<data levels="256" auto_broadcast="numpy" />
			<input>
				<port id="0" precision="FP32">
					<dim>1</dim>
					<dim>240</dim>
					<dim>64</dim>
					<dim>64</dim>
				</port>
				<port id="1" precision="FP32">
					<dim>1</dim>
					<dim>240</dim>
					<dim>1</dim>
					<dim>1</dim>
				</port>
				<port id="2" precision="FP32">
					<dim>1</dim>
					<dim>240</dim>
					<dim>1</dim>
					<dim>1</dim>
				</port>
				<port id="3" precision="FP32">
					<dim>1</dim>
					<dim>240</dim>
					<dim>1</dim>
					<dim>1</dim>
				</port>
				<port id="4" precision="FP32">
					<dim>1</dim>
					<dim>240</dim>
					<dim>1</dim>
					<dim>1</dim>
				</port>
			</input>
			<output>
				<port id="5" precision="FP32">
					<dim>1</dim>
					<dim>240</dim>
					<dim>64</dim>
					<dim>64</dim>
				</port>
			</output>
		</layer>
		<layer id="306" name="Constant_918343" type="Const" version="opset1">
			<data element_type="i8" shape="240, 1, 1, 5, 5" offset="59840" size="6000" />
			<output>
				<port id="0" precision="I8">
					<dim>240</dim>
					<dim>1</dim>
					<dim>1</dim>
					<dim>5</dim>
					<dim>5</dim>
				</port>
			</output>
		</layer>
		<layer id="307" name="Convert_918344" type="Convert" version="opset1">
			<data destination_type="f32" />
			<input>
				<port id="0" precision="I8">
					<dim>240</dim>
					<dim>1</dim>
					<dim>1</dim>
					<dim>5</dim>
					<dim>5</dim>
				</port>
			</input>
			<output>
				<port id="1" precision="FP32">
					<dim>240</dim>
					<dim>1</dim>
					<dim>1</dim>
					<dim>5</dim>
					<dim>5</dim>
				</port>
			</output>
		</layer>
		<layer id="308" name="Constant_918345" type="Const" version="opset1">
			<data element_type="f32" shape="240, 1, 1, 1, 1" offset="65840" size="960" />
			<output>
				<port id="0" precision="FP32">
					<dim>240</dim>
					<dim>1</dim>
					<dim>1</dim>
					<dim>1</dim>
					<dim>1</dim>
				</port>
			</output>
		</layer>
		<layer id="309" name="efficientnet-b0/blocks_4/depthwise_conv2d/depthwise/fq_weights_1" type="Multiply" version="opset1">
			<data auto_broadcast="numpy" />
			<input>
				<port id="0" precision="FP32">
					<dim>240</dim>
					<dim>1</dim>
					<dim>1</dim>
					<dim>5</dim>
					<dim>5</dim>
				</port>
				<port id="1" precision="FP32">
					<dim>240</dim>
					<dim>1</dim>
					<dim>1</dim>
					<dim>1</dim>
					<dim>1</dim>
				</port>
			</input>
			<output>
				<port id="2" precision="FP32">
					<dim>240</dim>
					<dim>1</dim>
					<dim>1</dim>
					<dim>5</dim>
					<dim>5</dim>
				</port>
			</output>
		</layer>
		<layer id="310" name="efficientnet-b0/blocks_4/depthwise_conv2d/depthwise" type="GroupConvolution" version="opset1">
			<data strides="1, 1" pads_begin="0, 0" pads_end="0, 0" dilations="1, 1" auto_pad="same_upper" />
			<input>
				<port id="0" precision="FP32">
					<dim>1</dim>
					<dim>240</dim>
					<dim>64</dim>
					<dim>64</dim>
				</port>
				<port id="1" precision="FP32">
					<dim>240</dim>
					<dim>1</dim>
					<dim>1</dim>
					<dim>5</dim>
					<dim>5</dim>
				</port>
			</input>
			<output>
				<port id="2" precision="FP32" names="efficientnet-b0/blocks_4/depthwise_conv2d/depthwise:0">
					<dim>1</dim>
					<dim>240</dim>
					<dim>64</dim>
					<dim>64</dim>
				</port>
			</output>
		</layer>
		<layer id="311" name="efficientnet-b0/blocks_4/depthwise_conv2d/depthwise_bn_offset_compressed" type="Const" version="opset1">
			<data element_type="f16" shape="1, 240, 1, 1" offset="66800" size="480" />
			<output>
				<port id="0" precision="FP16">
					<dim>1</dim>
					<dim>240</dim>
					<dim>1</dim>
					<dim>1</dim>
				</port>
			</output>
		</layer>
		<layer id="312" name="efficientnet-b0/blocks_4/depthwise_conv2d/depthwise_bn_offset" type="Convert" version="opset1">
			<data destination_type="f32" />
			<rt_info>
				<attribute name="decompression" version="0" />
			</rt_info>
			<input>
				<port id="0" precision="FP16">
					<dim>1</dim>
					<dim>240</dim>
					<dim>1</dim>
					<dim>1</dim>
				</port>
			</input>
			<output>
				<port id="1" precision="FP32" names="efficientnet-b0/blocks_4/depthwise_conv2d/depthwise_bn_offset:0">
					<dim>1</dim>
					<dim>240</dim>
					<dim>1</dim>
					<dim>1</dim>
				</port>
			</output>
		</layer>
		<layer id="313" name="efficientnet-b0/blocks_4/tpu_batch_normalization_1/FusedBatchNormV3/Add" type="Add" version="opset1">
			<data auto_broadcast="numpy" />
			<input>
				<port id="0" precision="FP32">
					<dim>1</dim>
					<dim>240</dim>
					<dim>64</dim>
					<dim>64</dim>
				</port>
				<port id="1" precision="FP32">
					<dim>1</dim>
					<dim>240</dim>
					<dim>1</dim>
					<dim>1</dim>
				</port>
			</input>
			<output>
				<port id="2" precision="FP32" names="efficientnet-b0/blocks_4/tpu_batch_normalization_1/FusedBatchNormV3:0">
					<dim>1</dim>
					<dim>240</dim>
					<dim>64</dim>
					<dim>64</dim>
				</port>
			</output>
		</layer>
		<layer id="314" name="efficientnet-b0/blocks_4/mul_1" type="Swish" version="opset4">
			<input>
				<port id="0" precision="FP32">
					<dim>1</dim>
					<dim>240</dim>
					<dim>64</dim>
					<dim>64</dim>
				</port>
			</input>
			<output>
				<port id="1" precision="FP32" names="efficientnet-b0/blocks_4/IdentityN_1:0,efficientnet-b0/blocks_4/mul_1:0">
					<dim>1</dim>
					<dim>240</dim>
					<dim>64</dim>
					<dim>64</dim>
				</port>
			</output>
		</layer>
		<layer id="315" name="efficientnet-b0/blocks_4/mul_1/fq_output_0/input_low" type="Const" version="opset1">
			<data element_type="f32" shape="" offset="67280" size="4" />
			<output>
				<port id="0" precision="FP32" />
			</output>
		</layer>
		<layer id="316" name="efficientnet-b0/blocks_4/mul_1/fq_output_0/input_high" type="Const" version="opset1">
			<data element_type="f32" shape="" offset="67284" size="4" />
			<output>
				<port id="0" precision="FP32" />
			</output>
		</layer>
		<layer id="317" name="efficientnet-b0/blocks_4/mul_1/fq_output_0/output_low" type="Const" version="opset1">
			<data element_type="f32" shape="" offset="67280" size="4" />
			<output>
				<port id="0" precision="FP32" />
			</output>
		</layer>
		<layer id="318" name="efficientnet-b0/blocks_4/mul_1/fq_output_0/output_high" type="Const" version="opset1">
			<data element_type="f32" shape="" offset="67284" size="4" />
			<output>
				<port id="0" precision="FP32" />
			</output>
		</layer>
		<layer id="319" name="efficientnet-b0/blocks_4/mul_1/fq_output_0" type="FakeQuantize" version="opset1">
			<data levels="256" auto_broadcast="numpy" />
			<input>
				<port id="0" precision="FP32">
					<dim>1</dim>
					<dim>240</dim>
					<dim>64</dim>
					<dim>64</dim>
				</port>
				<port id="1" precision="FP32" />
				<port id="2" precision="FP32" />
				<port id="3" precision="FP32" />
				<port id="4" precision="FP32" />
			</input>
			<output>
				<port id="5" precision="FP32">
					<dim>1</dim>
					<dim>240</dim>
					<dim>64</dim>
					<dim>64</dim>
				</port>
			</output>
		</layer>
		<layer id="320" name="2922148336" type="Const" version="opset1">
			<data element_type="i64" shape="2" offset="1852" size="16" />
			<output>
				<port id="0" precision="I64">
					<dim>2</dim>
				</port>
			</output>
		</layer>
		<layer id="321" name="efficientnet-b0/blocks_4/se/Mean" type="ReduceMean" version="opset1">
			<data keep_dims="true" />
			<input>
				<port id="0" precision="FP32">
					<dim>1</dim>
					<dim>240</dim>
					<dim>64</dim>
					<dim>64</dim>
				</port>
				<port id="1" precision="I64">
					<dim>2</dim>
				</port>
			</input>
			<output>
				<port id="2" precision="FP32" names="efficientnet-b0/blocks_4/se/Mean:0">
					<dim>1</dim>
					<dim>240</dim>
					<dim>1</dim>
					<dim>1</dim>
				</port>
			</output>
		</layer>
		<layer id="322" name="efficientnet-b0/blocks_4/se/conv2d/kernel_compressed" type="Const" version="opset1">
			<data element_type="f16" shape="10, 240, 1, 1" offset="67288" size="4800" />
			<output>
				<port id="0" precision="FP16">
					<dim>10</dim>
					<dim>240</dim>
					<dim>1</dim>
					<dim>1</dim>
				</port>
			</output>
		</layer>
		<layer id="323" name="efficientnet-b0/blocks_4/se/conv2d/kernel" type="Convert" version="opset1">
			<data destination_type="f32" />
			<rt_info>
				<attribute name="decompression" version="0" />
			</rt_info>
			<input>
				<port id="0" precision="FP16">
					<dim>10</dim>
					<dim>240</dim>
					<dim>1</dim>
					<dim>1</dim>
				</port>
			</input>
			<output>
				<port id="1" precision="FP32" names="efficientnet-b0/blocks_4/se/conv2d/kernel:0">
					<dim>10</dim>
					<dim>240</dim>
					<dim>1</dim>
					<dim>1</dim>
				</port>
			</output>
		</layer>
		<layer id="324" name="efficientnet-b0/blocks_4/se/conv2d/Conv2D" type="Convolution" version="opset1">
			<data strides="1, 1" dilations="1, 1" pads_begin="0, 0" pads_end="0, 0" auto_pad="same_upper" />
			<input>
				<port id="0" precision="FP32">
					<dim>1</dim>
					<dim>240</dim>
					<dim>1</dim>
					<dim>1</dim>
				</port>
				<port id="1" precision="FP32">
					<dim>10</dim>
					<dim>240</dim>
					<dim>1</dim>
					<dim>1</dim>
				</port>
			</input>
			<output>
				<port id="2" precision="FP32" names="efficientnet-b0/blocks_4/se/conv2d/Conv2D:0">
					<dim>1</dim>
					<dim>10</dim>
					<dim>1</dim>
					<dim>1</dim>
				</port>
			</output>
		</layer>
		<layer id="325" name="efficientnet-b0/blocks_4/se/conv2d/bias_compressed" type="Const" version="opset1">
			<data element_type="f16" shape="1, 10, 1, 1" offset="72088" size="20" />
			<output>
				<port id="0" precision="FP16">
					<dim>1</dim>
					<dim>10</dim>
					<dim>1</dim>
					<dim>1</dim>
				</port>
			</output>
		</layer>
		<layer id="326" name="efficientnet-b0/blocks_4/se/conv2d/bias" type="Convert" version="opset1">
			<data destination_type="f32" />
			<rt_info>
				<attribute name="decompression" version="0" />
			</rt_info>
			<input>
				<port id="0" precision="FP16">
					<dim>1</dim>
					<dim>10</dim>
					<dim>1</dim>
					<dim>1</dim>
				</port>
			</input>
			<output>
				<port id="1" precision="FP32" names="efficientnet-b0/blocks_4/se/conv2d/bias:0">
					<dim>1</dim>
					<dim>10</dim>
					<dim>1</dim>
					<dim>1</dim>
				</port>
			</output>
		</layer>
		<layer id="327" name="efficientnet-b0/blocks_4/se/conv2d/BiasAdd/Add" type="Add" version="opset1">
			<data auto_broadcast="numpy" />
			<input>
				<port id="0" precision="FP32">
					<dim>1</dim>
					<dim>10</dim>
					<dim>1</dim>
					<dim>1</dim>
				</port>
				<port id="1" precision="FP32">
					<dim>1</dim>
					<dim>10</dim>
					<dim>1</dim>
					<dim>1</dim>
				</port>
			</input>
			<output>
				<port id="2" precision="FP32" names="efficientnet-b0/blocks_4/se/conv2d/BiasAdd:0">
					<dim>1</dim>
					<dim>10</dim>
					<dim>1</dim>
					<dim>1</dim>
				</port>
			</output>
		</layer>
		<layer id="328" name="efficientnet-b0/blocks_4/se/mul" type="Swish" version="opset4">
			<input>
				<port id="0" precision="FP32">
					<dim>1</dim>
					<dim>10</dim>
					<dim>1</dim>
					<dim>1</dim>
				</port>
			</input>
			<output>
				<port id="1" precision="FP32" names="efficientnet-b0/blocks_4/se/IdentityN:0,efficientnet-b0/blocks_4/se/mul:0">
					<dim>1</dim>
					<dim>10</dim>
					<dim>1</dim>
					<dim>1</dim>
				</port>
			</output>
		</layer>
		<layer id="329" name="efficientnet-b0/blocks_4/se/conv2d_1/kernel_compressed" type="Const" version="opset1">
			<data element_type="f16" shape="240, 10, 1, 1" offset="72108" size="4800" />
			<output>
				<port id="0" precision="FP16">
					<dim>240</dim>
					<dim>10</dim>
					<dim>1</dim>
					<dim>1</dim>
				</port>
			</output>
		</layer>
		<layer id="330" name="efficientnet-b0/blocks_4/se/conv2d_1/kernel" type="Convert" version="opset1">
			<data destination_type="f32" />
			<rt_info>
				<attribute name="decompression" version="0" />
			</rt_info>
			<input>
				<port id="0" precision="FP16">
					<dim>240</dim>
					<dim>10</dim>
					<dim>1</dim>
					<dim>1</dim>
				</port>
			</input>
			<output>
				<port id="1" precision="FP32" names="efficientnet-b0/blocks_4/se/conv2d_1/kernel:0">
					<dim>240</dim>
					<dim>10</dim>
					<dim>1</dim>
					<dim>1</dim>
				</port>
			</output>
		</layer>
		<layer id="331" name="efficientnet-b0/blocks_4/se/conv2d_1/Conv2D" type="Convolution" version="opset1">
			<data strides="1, 1" dilations="1, 1" pads_begin="0, 0" pads_end="0, 0" auto_pad="same_upper" />
			<input>
				<port id="0" precision="FP32">
					<dim>1</dim>
					<dim>10</dim>
					<dim>1</dim>
					<dim>1</dim>
				</port>
				<port id="1" precision="FP32">
					<dim>240</dim>
					<dim>10</dim>
					<dim>1</dim>
					<dim>1</dim>
				</port>
			</input>
			<output>
				<port id="2" precision="FP32" names="efficientnet-b0/blocks_4/se/conv2d_1/Conv2D:0">
					<dim>1</dim>
					<dim>240</dim>
					<dim>1</dim>
					<dim>1</dim>
				</port>
			</output>
		</layer>
		<layer id="332" name="efficientnet-b0/blocks_4/se/conv2d_1/bias_compressed" type="Const" version="opset1">
			<data element_type="f16" shape="1, 240, 1, 1" offset="76908" size="480" />
			<output>
				<port id="0" precision="FP16">
					<dim>1</dim>
					<dim>240</dim>
					<dim>1</dim>
					<dim>1</dim>
				</port>
			</output>
		</layer>
		<layer id="333" name="efficientnet-b0/blocks_4/se/conv2d_1/bias" type="Convert" version="opset1">
			<data destination_type="f32" />
			<rt_info>
				<attribute name="decompression" version="0" />
			</rt_info>
			<input>
				<port id="0" precision="FP16">
					<dim>1</dim>
					<dim>240</dim>
					<dim>1</dim>
					<dim>1</dim>
				</port>
			</input>
			<output>
				<port id="1" precision="FP32" names="efficientnet-b0/blocks_4/se/conv2d_1/bias:0">
					<dim>1</dim>
					<dim>240</dim>
					<dim>1</dim>
					<dim>1</dim>
				</port>
			</output>
		</layer>
		<layer id="334" name="efficientnet-b0/blocks_4/se/conv2d_1/BiasAdd/Add" type="Add" version="opset1">
			<data auto_broadcast="numpy" />
			<input>
				<port id="0" precision="FP32">
					<dim>1</dim>
					<dim>240</dim>
					<dim>1</dim>
					<dim>1</dim>
				</port>
				<port id="1" precision="FP32">
					<dim>1</dim>
					<dim>240</dim>
					<dim>1</dim>
					<dim>1</dim>
				</port>
			</input>
			<output>
				<port id="2" precision="FP32" names="efficientnet-b0/blocks_4/se/conv2d_1/BiasAdd:0">
					<dim>1</dim>
					<dim>240</dim>
					<dim>1</dim>
					<dim>1</dim>
				</port>
			</output>
		</layer>
		<layer id="335" name="efficientnet-b0/blocks_4/se/Sigmoid_1" type="Sigmoid" version="opset1">
			<input>
				<port id="0" precision="FP32">
					<dim>1</dim>
					<dim>240</dim>
					<dim>1</dim>
					<dim>1</dim>
				</port>
			</input>
			<output>
				<port id="1" precision="FP32" names="efficientnet-b0/blocks_4/se/Sigmoid_1:0">
					<dim>1</dim>
					<dim>240</dim>
					<dim>1</dim>
					<dim>1</dim>
				</port>
			</output>
		</layer>
		<layer id="336" name="efficientnet-b0/blocks_4/se/Sigmoid_1/fq_output_0/input_low" type="Const" version="opset1">
			<data element_type="f32" shape="" offset="2972" size="4" />
			<output>
				<port id="0" precision="FP32" />
			</output>
		</layer>
		<layer id="337" name="efficientnet-b0/blocks_4/se/Sigmoid_1/fq_output_0/input_high" type="Const" version="opset1">
			<data element_type="f32" shape="" offset="77388" size="4" />
			<output>
				<port id="0" precision="FP32" />
			</output>
		</layer>
		<layer id="338" name="efficientnet-b0/blocks_4/se/Sigmoid_1/fq_output_0/output_low" type="Const" version="opset1">
			<data element_type="f32" shape="" offset="2972" size="4" />
			<output>
				<port id="0" precision="FP32" />
			</output>
		</layer>
		<layer id="339" name="efficientnet-b0/blocks_4/se/Sigmoid_1/fq_output_0/output_high" type="Const" version="opset1">
…
		<edge from-layer="2918" from-port="0" to-layer="2922" to-port="1" />
		<edge from-layer="2919" from-port="0" to-layer="2922" to-port="2" />
		<edge from-layer="2920" from-port="0" to-layer="2922" to-port="3" />
		<edge from-layer="2921" from-port="0" to-layer="2922" to-port="4" />
		<edge from-layer="2922" from-port="5" to-layer="2927" to-port="0" />
		<edge from-layer="2923" from-port="0" to-layer="2924" to-port="0" />
		<edge from-layer="2924" from-port="1" to-layer="2926" to-port="0" />
		<edge from-layer="2925" from-port="0" to-layer="2926" to-port="1" />
		<edge from-layer="2926" from-port="2" to-layer="2927" to-port="1" />
		<edge from-layer="2927" from-port="2" to-layer="2930" to-port="0" />
		<edge from-layer="2928" from-port="0" to-layer="2929" to-port="0" />
		<edge from-layer="2929" from-port="1" to-layer="2930" to-port="1" />
		<edge from-layer="2930" from-port="2" to-layer="3582" to-port="0" />
		<edge from-layer="2930" from-port="2" to-layer="2932" to-port="0" />
		<edge from-layer="2931" from-port="0" to-layer="2932" to-port="1" />
		<edge from-layer="2932" from-port="2" to-layer="2934" to-port="0" />
		<edge from-layer="2933" from-port="0" to-layer="2934" to-port="1" />
		<edge from-layer="2934" from-port="2" to-layer="3076" to-port="3" />
		<edge from-layer="2935" from-port="0" to-layer="2936" to-port="0" />
		<edge from-layer="2936" from-port="1" to-layer="2937" to-port="1" />
		<edge from-layer="2937" from-port="2" to-layer="2942" to-port="0" />
		<edge from-layer="2938" from-port="0" to-layer="2942" to-port="1" />
		<edge from-layer="2939" from-port="0" to-layer="2942" to-port="2" />
		<edge from-layer="2940" from-port="0" to-layer="2942" to-port="3" />
		<edge from-layer="2941" from-port="0" to-layer="2942" to-port="4" />
		<edge from-layer="2942" from-port="5" to-layer="2952" to-port="0" />
		<edge from-layer="2943" from-port="1" to-layer="2946" to-port="0" />
		<edge from-layer="2944" from-port="0" to-layer="2945" to-port="0" />
		<edge from-layer="2945" from-port="1" to-layer="2946" to-port="1" />
		<edge from-layer="2946" from-port="2" to-layer="2951" to-port="0" />
		<edge from-layer="2947" from-port="0" to-layer="2951" to-port="1" />
		<edge from-layer="2948" from-port="0" to-layer="2951" to-port="2" />
		<edge from-layer="2949" from-port="0" to-layer="2951" to-port="3" />
		<edge from-layer="2950" from-port="0" to-layer="2951" to-port="4" />
		<edge from-layer="2951" from-port="5" to-layer="2952" to-port="1" />
		<edge from-layer="2952" from-port="2" to-layer="2953" to-port="0" />
		<edge from-layer="2953" from-port="1" to-layer="2958" to-port="0" />
		<edge from-layer="2954" from-port="0" to-layer="2958" to-port="1" />
		<edge from-layer="2955" from-port="0" to-layer="2958" to-port="2" />
		<edge from-layer="2956" from-port="0" to-layer="2958" to-port="3" />
		<edge from-layer="2957" from-port="0" to-layer="2958" to-port="4" />
		<edge from-layer="2958" from-port="5" to-layer="2963" to-port="0" />
		<edge from-layer="2959" from-port="0" to-layer="2960" to-port="0" />
		<edge from-layer="2960" from-port="1" to-layer="2962" to-port="0" />
		<edge from-layer="2961" from-port="0" to-layer="2962" to-port="1" />
		<edge from-layer="2962" from-port="2" to-layer="2963" to-port="1" />
		<edge from-layer="2963" from-port="2" to-layer="2968" to-port="0" />
		<edge from-layer="2964" from-port="0" to-layer="2968" to-port="1" />
		<edge from-layer="2965" from-port="0" to-layer="2968" to-port="2" />
		<edge from-layer="2966" from-port="0" to-layer="2968" to-port="3" />
		<edge from-layer="2967" from-port="0" to-layer="2968" to-port="4" />
		<edge from-layer="2968" from-port="5" to-layer="2973" to-port="0" />
		<edge from-layer="2969" from-port="0" to-layer="2970" to-port="0" />
		<edge from-layer="2970" from-port="1" to-layer="2972" to-port="0" />
		<edge from-layer="2971" from-port="0" to-layer="2972" to-port="1" />
		<edge from-layer="2972" from-port="2" to-layer="2973" to-port="1" />
		<edge from-layer="2973" from-port="2" to-layer="2976" to-port="0" />
		<edge from-layer="2974" from-port="0" to-layer="2975" to-port="0" />
		<edge from-layer="2975" from-port="1" to-layer="2976" to-port="1" />
		<edge from-layer="2976" from-port="2" to-layer="2981" to-port="0" />
		<edge from-layer="2977" from-port="0" to-layer="2981" to-port="1" />
		<edge from-layer="2978" from-port="0" to-layer="2981" to-port="2" />
		<edge from-layer="2979" from-port="0" to-layer="2981" to-port="3" />
		<edge from-layer="2980" from-port="0" to-layer="2981" to-port="4" />
		<edge from-layer="2981" from-port="5" to-layer="2986" to-port="0" />
		<edge from-layer="2981" from-port="5" to-layer="3459" to-port="0" />
		<edge from-layer="2982" from-port="0" to-layer="2983" to-port="0" />
		<edge from-layer="2983" from-port="1" to-layer="2985" to-port="0" />
		<edge from-layer="2984" from-port="0" to-layer="2985" to-port="1" />
		<edge from-layer="2985" from-port="2" to-layer="2986" to-port="1" />
		<edge from-layer="2986" from-port="2" to-layer="2991" to-port="0" />
		<edge from-layer="2987" from-port="0" to-layer="2991" to-port="1" />
		<edge from-layer="2988" from-port="0" to-layer="2991" to-port="2" />
		<edge from-layer="2989" from-port="0" to-layer="2991" to-port="3" />
		<edge from-layer="2990" from-port="0" to-layer="2991" to-port="4" />
		<edge from-layer="2991" from-port="5" to-layer="2996" to-port="0" />
		<edge from-layer="2992" from-port="0" to-layer="2993" to-port="0" />
		<edge from-layer="2993" from-port="1" to-layer="2995" to-port="0" />
		<edge from-layer="2994" from-port="0" to-layer="2995" to-port="1" />
		<edge from-layer="2995" from-port="2" to-layer="2996" to-port="1" />
		<edge from-layer="2996" from-port="2" to-layer="2999" to-port="0" />
		<edge from-layer="2997" from-port="0" to-layer="2998" to-port="0" />
		<edge from-layer="2998" from-port="1" to-layer="2999" to-port="1" />
		<edge from-layer="2999" from-port="2" to-layer="3000" to-port="0" />
		<edge from-layer="3000" from-port="1" to-layer="3005" to-port="0" />
		<edge from-layer="3001" from-port="0" to-layer="3005" to-port="1" />
		<edge from-layer="3002" from-port="0" to-layer="3005" to-port="2" />
		<edge from-layer="3003" from-port="0" to-layer="3005" to-port="3" />
		<edge from-layer="3004" from-port="0" to-layer="3005" to-port="4" />
		<edge from-layer="3005" from-port="5" to-layer="3010" to-port="0" />
		<edge from-layer="3006" from-port="0" to-layer="3007" to-port="0" />
		<edge from-layer="3007" from-port="1" to-layer="3009" to-port="0" />
		<edge from-layer="3008" from-port="0" to-layer="3009" to-port="1" />
		<edge from-layer="3009" from-port="2" to-layer="3010" to-port="1" />
		<edge from-layer="3010" from-port="2" to-layer="3015" to-port="0" />
		<edge from-layer="3011" from-port="0" to-layer="3015" to-port="1" />
		<edge from-layer="3012" from-port="0" to-layer="3015" to-port="2" />
		<edge from-layer="3013" from-port="0" to-layer="3015" to-port="3" />
		<edge from-layer="3014" from-port="0" to-layer="3015" to-port="4" />
		<edge from-layer="3015" from-port="5" to-layer="3020" to-port="0" />
		<edge from-layer="3016" from-port="0" to-layer="3017" to-port="0" />
		<edge from-layer="3017" from-port="1" to-layer="3019" to-port="0" />
		<edge from-layer="3018" from-port="0" to-layer="3019" to-port="1" />
		<edge from-layer="3019" from-port="2" to-layer="3020" to-port="1" />
		<edge from-layer="3020" from-port="2" to-layer="3023" to-port="0" />
		<edge from-layer="3021" from-port="0" to-layer="3022" to-port="0" />
		<edge from-layer="3022" from-port="1" to-layer="3023" to-port="1" />
		<edge from-layer="3023" from-port="2" to-layer="3024" to-port="0" />
		<edge from-layer="3024" from-port="1" to-layer="3029" to-port="0" />
		<edge from-layer="3025" from-port="0" to-layer="3029" to-port="1" />
		<edge from-layer="3026" from-port="0" to-layer="3029" to-port="2" />
		<edge from-layer="3027" from-port="0" to-layer="3029" to-port="3" />
		<edge from-layer="3028" from-port="0" to-layer="3029" to-port="4" />
		<edge from-layer="3029" from-port="5" to-layer="3034" to-port="0" />
		<edge from-layer="3030" from-port="0" to-layer="3031" to-port="0" />
		<edge from-layer="3031" from-port="1" to-layer="3033" to-port="0" />
		<edge from-layer="3032" from-port="0" to-layer="3033" to-port="1" />
		<edge from-layer="3033" from-port="2" to-layer="3034" to-port="1" />
		<edge from-layer="3034" from-port="2" to-layer="3039" to-port="0" />
		<edge from-layer="3035" from-port="0" to-layer="3039" to-port="1" />
		<edge from-layer="3036" from-port="0" to-layer="3039" to-port="2" />
		<edge from-layer="3037" from-port="0" to-layer="3039" to-port="3" />
		<edge from-layer="3038" from-port="0" to-layer="3039" to-port="4" />
		<edge from-layer="3039" from-port="5" to-layer="3044" to-port="0" />
		<edge from-layer="3040" from-port="0" to-layer="3041" to-port="0" />
		<edge from-layer="3041" from-port="1" to-layer="3043" to-port="0" />
		<edge from-layer="3042" from-port="0" to-layer="3043" to-port="1" />
		<edge from-layer="3043" from-port="2" to-layer="3044" to-port="1" />
		<edge from-layer="3044" from-port="2" to-layer="3047" to-port="0" />
		<edge from-layer="3045" from-port="0" to-layer="3046" to-port="0" />
		<edge from-layer="3046" from-port="1" to-layer="3047" to-port="1" />
		<edge from-layer="3047" from-port="2" to-layer="3048" to-port="0" />
		<edge from-layer="3048" from-port="1" to-layer="3053" to-port="0" />
		<edge from-layer="3049" from-port="0" to-layer="3053" to-port="1" />
		<edge from-layer="3050" from-port="0" to-layer="3053" to-port="2" />
		<edge from-layer="3051" from-port="0" to-layer="3053" to-port="3" />
		<edge from-layer="3052" from-port="0" to-layer="3053" to-port="4" />
		<edge from-layer="3053" from-port="5" to-layer="3058" to-port="0" />
		<edge from-layer="3054" from-port="0" to-layer="3055" to-port="0" />
		<edge from-layer="3055" from-port="1" to-layer="3057" to-port="0" />
		<edge from-layer="3056" from-port="0" to-layer="3057" to-port="1" />
		<edge from-layer="3057" from-port="2" to-layer="3058" to-port="1" />
		<edge from-layer="3058" from-port="2" to-layer="3063" to-port="0" />
		<edge from-layer="3059" from-port="0" to-layer="3063" to-port="1" />
		<edge from-layer="3060" from-port="0" to-layer="3063" to-port="2" />
		<edge from-layer="3061" from-port="0" to-layer="3063" to-port="3" />
		<edge from-layer="3062" from-port="0" to-layer="3063" to-port="4" />
		<edge from-layer="3063" from-port="5" to-layer="3068" to-port="0" />
		<edge from-layer="3064" from-port="0" to-layer="3065" to-port="0" />
		<edge from-layer="3065" from-port="1" to-layer="3067" to-port="0" />
		<edge from-layer="3066" from-port="0" to-layer="3067" to-port="1" />
		<edge from-layer="3067" from-port="2" to-layer="3068" to-port="1" />
		<edge from-layer="3068" from-port="2" to-layer="3071" to-port="0" />
		<edge from-layer="3069" from-port="0" to-layer="3070" to-port="0" />
		<edge from-layer="3070" from-port="1" to-layer="3071" to-port="1" />
		<edge from-layer="3071" from-port="2" to-layer="3073" to-port="0" />
		<edge from-layer="3071" from-port="2" to-layer="3590" to-port="0" />
		<edge from-layer="3072" from-port="0" to-layer="3073" to-port="1" />
		<edge from-layer="3073" from-port="2" to-layer="3075" to-port="0" />
		<edge from-layer="3074" from-port="0" to-layer="3075" to-port="1" />
		<edge from-layer="3075" from-port="2" to-layer="3076" to-port="4" />
		<edge from-layer="3076" from-port="5" to-layer="3078" to-port="0" />
		<edge from-layer="3077" from-port="0" to-layer="3078" to-port="1" />
		<edge from-layer="3078" from-port="2" to-layer="3599" to-port="0" />
		<edge from-layer="3079" from-port="0" to-layer="3080" to-port="0" />
		<edge from-layer="3080" from-port="1" to-layer="3082" to-port="0" />
		<edge from-layer="3081" from-port="0" to-layer="3082" to-port="1" />
		<edge from-layer="3082" from-port="2" to-layer="3083" to-port="1" />
		<edge from-layer="3083" from-port="2" to-layer="3088" to-port="0" />
		<edge from-layer="3084" from-port="0" to-layer="3088" to-port="1" />
		<edge from-layer="3085" from-port="0" to-layer="3088" to-port="2" />
		<edge from-layer="3086" from-port="0" to-layer="3088" to-port="3" />
		<edge from-layer="3087" from-port="0" to-layer="3088" to-port="4" />
		<edge from-layer="3088" from-port="5" to-layer="3093" to-port="0" />
		<edge from-layer="3089" from-port="0" to-layer="3090" to-port="0" />
		<edge from-layer="3090" from-port="1" to-layer="3092" to-port="0" />
		<edge from-layer="3091" from-port="0" to-layer="3092" to-port="1" />
		<edge from-layer="3092" from-port="2" to-layer="3093" to-port="1" />
		<edge from-layer="3093" from-port="2" to-layer="3096" to-port="0" />
		<edge from-layer="3094" from-port="0" to-layer="3095" to-port="0" />
		<edge from-layer="3095" from-port="1" to-layer="3096" to-port="1" />
		<edge from-layer="3096" from-port="2" to-layer="3097" to-port="0" />
		<edge from-layer="3097" from-port="1" to-layer="3102" to-port="0" />
		<edge from-layer="3098" from-port="0" to-layer="3102" to-port="1" />
		<edge from-layer="3099" from-port="0" to-layer="3102" to-port="2" />
		<edge from-layer="3100" from-port="0" to-layer="3102" to-port="3" />
		<edge from-layer="3101" from-port="0" to-layer="3102" to-port="4" />
		<edge from-layer="3102" from-port="5" to-layer="3107" to-port="0" />
		<edge from-layer="3103" from-port="0" to-layer="3104" to-port="0" />
		<edge from-layer="3104" from-port="1" to-layer="3106" to-port="0" />
		<edge from-layer="3105" from-port="0" to-layer="3106" to-port="1" />
		<edge from-layer="3106" from-port="2" to-layer="3107" to-port="1" />
		<edge from-layer="3107" from-port="2" to-layer="3112" to-port="0" />
		<edge from-layer="3108" from-port="0" to-layer="3112" to-port="1" />
		<edge from-layer="3109" from-port="0" to-layer="3112" to-port="2" />
		<edge from-layer="3110" from-port="0" to-layer="3112" to-port="3" />
		<edge from-layer="3111" from-port="0" to-layer="3112" to-port="4" />
		<edge from-layer="3112" from-port="5" to-layer="3117" to-port="0" />
		<edge from-layer="3113" from-port="0" to-layer="3114" to-port="0" />
		<edge from-layer="3114" from-port="1" to-layer="3116" to-port="0" />
		<edge from-layer="3115" from-port="0" to-layer="3116" to-port="1" />
		<edge from-layer="3116" from-port="2" to-layer="3117" to-port="1" />
		<edge from-layer="3117" from-port="2" to-layer="3120" to-port="0" />
		<edge from-layer="3118" from-port="0" to-layer="3119" to-port="0" />
		<edge from-layer="3119" from-port="1" to-layer="3120" to-port="1" />
		<edge from-layer="3120" from-port="2" to-layer="3121" to-port="0" />
		<edge from-layer="3121" from-port="1" to-layer="3126" to-port="0" />
		<edge from-layer="3122" from-port="0" to-layer="3126" to-port="1" />
		<edge from-layer="3123" from-port="0" to-layer="3126" to-port="2" />
		<edge from-layer="3124" from-port="0" to-layer="3126" to-port="3" />
		<edge from-layer="3125" from-port="0" to-layer="3126" to-port="4" />
		<edge from-layer="3126" from-port="5" to-layer="3131" to-port="0" />
		<edge from-layer="3127" from-port="0" to-layer="3128" to-port="0" />
		<edge from-layer="3128" from-port="1" to-layer="3130" to-port="0" />
		<edge from-layer="3129" from-port="0" to-layer="3130" to-port="1" />
		<edge from-layer="3130" from-port="2" to-layer="3131" to-port="1" />
		<edge from-layer="3131" from-port="2" to-layer="3136" to-port="0" />
		<edge from-layer="3132" from-port="0" to-layer="3136" to-port="1" />
		<edge from-layer="3133" from-port="0" to-layer="3136" to-port="2" />
		<edge from-layer="3134" from-port="0" to-layer="3136" to-port="3" />
		<edge from-layer="3135" from-port="0" to-layer="3136" to-port="4" />
		<edge from-layer="3136" from-port="5" to-layer="3141" to-port="0" />
		<edge from-layer="3137" from-port="0" to-layer="3138" to-port="0" />
		<edge from-layer="3138" from-port="1" to-layer="3140" to-port="0" />
		<edge from-layer="3139" from-port="0" to-layer="3140" to-port="1" />
		<edge from-layer="3140" from-port="2" to-layer="3141" to-port="1" />
		<edge from-layer="3141" from-port="2" to-layer="3144" to-port="0" />
		<edge from-layer="3142" from-port="0" to-layer="3143" to-port="0" />
		<edge from-layer="3143" from-port="1" to-layer="3144" to-port="1" />
		<edge from-layer="3144" from-port="2" to-layer="3145" to-port="0" />
		<edge from-layer="3145" from-port="1" to-layer="3150" to-port="0" />
		<edge from-layer="3146" from-port="0" to-layer="3150" to-port="1" />
		<edge from-layer="3147" from-port="0" to-layer="3150" to-port="2" />
		<edge from-layer="3148" from-port="0" to-layer="3150" to-port="3" />
		<edge from-layer="3149" from-port="0" to-layer="3150" to-port="4" />
		<edge from-layer="3150" from-port="5" to-layer="3155" to-port="0" />
		<edge from-layer="3151" from-port="0" to-layer="3152" to-port="0" />
		<edge from-layer="3152" from-port="1" to-layer="3154" to-port="0" />
		<edge from-layer="3153" from-port="0" to-layer="3154" to-port="1" />
		<edge from-layer="3154" from-port="2" to-layer="3155" to-port="1" />
		<edge from-layer="3155" from-port="2" to-layer="3160" to-port="0" />
		<edge from-layer="3156" from-port="0" to-layer="3160" to-port="1" />
		<edge from-layer="3157" from-port="0" to-layer="3160" to-port="2" />
		<edge from-layer="3158" from-port="0" to-layer="3160" to-port="3" />
		<edge from-layer="3159" from-port="0" to-layer="3160" to-port="4" />
		<edge from-layer="3160" from-port="5" to-layer="3165" to-port="0" />
		<edge from-layer="3161" from-port="0" to-layer="3162" to-port="0" />
		<edge from-layer="3162" from-port="1" to-layer="3164" to-port="0" />
		<edge from-layer="3163" from-port="0" to-layer="3164" to-port="1" />
		<edge from-layer="3164" from-port="2" to-layer="3165" to-port="1" />
		<edge from-layer="3165" from-port="2" to-layer="3168" to-port="0" />
		<edge from-layer="3166" from-port="0" to-layer="3167" to-port="0" />
		<edge from-layer="3167" from-port="1" to-layer="3168" to-port="1" />
		<edge from-layer="3168" from-port="2" to-layer="3170" to-port="0" />
		<edge from-layer="3169" from-port="0" to-layer="3170" to-port="1" />
		<edge from-layer="3170" from-port="2" to-layer="3172" to-port="0" />
		<edge from-layer="3171" from-port="0" to-layer="3172" to-port="1" />
		<edge from-layer="3172" from-port="2" to-layer="3549" to-port="0" />
		<edge from-layer="3173" from-port="0" to-layer="3174" to-port="0" />
		<edge from-layer="3174" from-port="1" to-layer="3176" to-port="0" />
		<edge from-layer="3175" from-port="0" to-layer="3176" to-port="1" />
		<edge from-layer="3176" from-port="2" to-layer="3177" to-port="1" />
		<edge from-layer="3177" from-port="2" to-layer="3182" to-port="0" />
		<edge from-layer="3178" from-port="0" to-layer="3182" to-port="1" />
		<edge from-layer="3179" from-port="0" to-layer="3182" to-port="2" />
		<edge from-layer="3180" from-port="0" to-layer="3182" to-port="3" />
		<edge from-layer="3181" from-port="0" to-layer="3182" to-port="4" />
		<edge from-layer="3182" from-port="5" to-layer="3187" to-port="0" />
		<edge from-layer="3183" from-port="0" to-layer="3184" to-port="0" />
		<edge from-layer="3184" from-port="1" to-layer="3186" to-port="0" />
		<edge from-layer="3185" from-port="0" to-layer="3186" to-port="1" />
		<edge from-layer="3186" from-port="2" to-layer="3187" to-port="1" />
		<edge from-layer="3187" from-port="2" to-layer="3190" to-port="0" />
		<edge from-layer="3188" from-port="0" to-layer="3189" to-port="0" />
		<edge from-layer="3189" from-port="1" to-layer="3190" to-port="1" />
		<edge from-layer="3190" from-port="2" to-layer="3191" to-port="0" />
		<edge from-layer="3191" from-port="1" to-layer="3196" to-port="0" />
		<edge from-layer="3192" from-port="0" to-layer="3196" to-port="1" />
		<edge from-layer="3193" from-port="0" to-layer="3196" to-port="2" />
		<edge from-layer="3194" from-port="0" to-layer="3196" to-port="3" />
		<edge from-layer="3195" from-port="0" to-layer="3196" to-port="4" />
		<edge from-layer="3196" from-port="5" to-layer="3201" to-port="0" />
		<edge from-layer="3197" from-port="0" to-layer="3198" to-port="0" />
		<edge from-layer="3198" from-port="1" to-layer="3200" to-port="0" />
		<edge from-layer="3199" from-port="0" to-layer="3200" to-port="1" />
		<edge from-layer="3200" from-port="2" to-layer="3201" to-port="1" />
		<edge from-layer="3201" from-port="2" to-layer="3206" to-port="0" />
		<edge from-layer="3202" from-port="0" to-layer="3206" to-port="1" />
		<edge from-layer="3203" from-port="0" to-layer="3206" to-port="2" />
		<edge from-layer="3204" from-port="0" to-layer="3206" to-port="3" />
		<edge from-layer="3205" from-port="0" to-layer="3206" to-port="4" />
		<edge from-layer="3206" from-port="5" to-layer="3211" to-port="0" />
		<edge from-layer="3207" from-port="0" to-layer="3208" to-port="0" />
		<edge from-layer="3208" from-port="1" to-layer="3210" to-port="0" />
		<edge from-layer="3209" from-port="0" to-layer="3210" to-port="1" />
		<edge from-layer="3210" from-port="2" to-layer="3211" to-port="1" />
		<edge from-layer="3211" from-port="2" to-layer="3214" to-port="0" />
		<edge from-layer="3212" from-port="0" to-layer="3213" to-port="0" />
		<edge from-layer="3213" from-port="1" to-layer="3214" to-port="1" />
		<edge from-layer="3214" from-port="2" to-layer="3215" to-port="0" />
		<edge from-layer="3215" from-port="1" to-layer="3220" to-port="0" />
		<edge from-layer="3216" from-port="0" to-layer="3220" to-port="1" />
		<edge from-layer="3217" from-port="0" to-layer="3220" to-port="2" />
		<edge from-layer="3218" from-port="0" to-layer="3220" to-port="3" />
		<edge from-layer="3219" from-port="0" to-layer="3220" to-port="4" />
		<edge from-layer="3220" from-port="5" to-layer="3225" to-port="0" />
		<edge from-layer="3221" from-port="0" to-layer="3222" to-port="0" />
		<edge from-layer="3222" from-port="1" to-layer="3224" to-port="0" />
		<edge from-layer="3223" from-port="0" to-layer="3224" to-port="1" />
		<edge from-layer="3224" from-port="2" to-layer="3225" to-port="1" />
		<edge from-layer="3225" from-port="2" to-layer="3230" to-port="0" />
		<edge from-layer="3226" from-port="0" to-layer="3230" to-port="1" />
		<edge from-layer="3227" from-port="0" to-layer="3230" to-port="2" />
		<edge from-layer="3228" from-port="0" to-layer="3230" to-port="3" />
		<edge from-layer="3229" from-port="0" to-layer="3230" to-port="4" />
		<edge from-layer="3230" from-port="5" to-layer="3235" to-port="0" />
		<edge from-layer="3231" from-port="0" to-layer="3232" to-port="0" />
		<edge from-layer="3232" from-port="1" to-layer="3234" to-port="0" />
		<edge from-layer="3233" from-port="0" to-layer="3234" to-port="1" />
		<edge from-layer="3234" from-port="2" to-layer="3235" to-port="1" />
		<edge from-layer="3235" from-port="2" to-layer="3238" to-port="0" />
		<edge from-layer="3236" from-port="0" to-layer="3237" to-port="0" />
		<edge from-layer="3237" from-port="1" to-layer="3238" to-port="1" />
		<edge from-layer="3238" from-port="2" to-layer="3239" to-port="0" />
		<edge from-layer="3239" from-port="1" to-layer="3244" to-port="0" />
		<edge from-layer="3240" from-port="0" to-layer="3244" to-port="1" />
		<edge from-layer="3241" from-port="0" to-layer="3244" to-port="2" />
		<edge from-layer="3242" from-port="0" to-layer="3244" to-port="3" />
		<edge from-layer="3243" from-port="0" to-layer="3244" to-port="4" />
		<edge from-layer="3244" from-port="5" to-layer="3249" to-port="0" />
		<edge from-layer="3245" from-port="0" to-layer="3246" to-port="0" />
		<edge from-layer="3246" from-port="1" to-layer="3248" to-port="0" />
		<edge from-layer="3247" from-port="0" to-layer="3248" to-port="1" />
		<edge from-layer="3248" from-port="2" to-layer="3249" to-port="1" />
		<edge from-layer="3249" from-port="2" to-layer="3254" to-port="0" />
		<edge from-layer="3250" from-port="0" to-layer="3254" to-port="1" />
		<edge from-layer="3251" from-port="0" to-layer="3254" to-port="2" />
		<edge from-layer="3252" from-port="0" to-layer="3254" to-port="3" />
		<edge from-layer="3253" from-port="0" to-layer="3254" to-port="4" />
		<edge from-layer="3254" from-port="5" to-layer="3259" to-port="0" />
		<edge from-layer="3255" from-port="0" to-layer="3256" to-port="0" />
		<edge from-layer="3256" from-port="1" to-layer="3258" to-port="0" />
		<edge from-layer="3257" from-port="0" to-layer="3258" to-port="1" />
		<edge from-layer="3258" from-port="2" to-layer="3259" to-port="1" />
		<edge from-layer="3259" from-port="2" to-layer="3262" to-port="0" />
		<edge from-layer="3260" from-port="0" to-layer="3261" to-port="0" />
		<edge from-layer="3261" from-port="1" to-layer="3262" to-port="1" />
		<edge from-layer="3262" from-port="2" to-layer="3264" to-port="0" />
		<edge from-layer="3263" from-port="0" to-layer="3264" to-port="1" />
		<edge from-layer="3264" from-port="2" to-layer="3266" to-port="0" />
		<edge from-layer="3265" from-port="0" to-layer="3266" to-port="1" />
		<edge from-layer="3266" from-port="2" to-layer="3549" to-port="1" />
		<edge from-layer="3267" from-port="0" to-layer="3268" to-port="0" />
		<edge from-layer="3268" from-port="1" to-layer="3270" to-port="0" />
		<edge from-layer="3269" from-port="0" to-layer="3270" to-port="1" />
		<edge from-layer="3270" from-port="2" to-layer="3271" to-port="1" />
		<edge from-layer="3271" from-port="2" to-layer="3276" to-port="0" />
		<edge from-layer="3272" from-port="0" to-layer="3276" to-port="1" />
		<edge from-layer="3273" from-port="0" to-layer="3276" to-port="2" />
		<edge from-layer="3274" from-port="0" to-layer="3276" to-port="3" />
		<edge from-layer="3275" from-port="0" to-layer="3276" to-port="4" />
		<edge from-layer="3276" from-port="5" to-layer="3281" to-port="0" />
		<edge from-layer="3277" from-port="0" to-layer="3278" to-port="0" />
		<edge from-layer="3278" from-port="1" to-layer="3280" to-port="0" />
		<edge from-layer="3279" from-port="0" to-layer="3280" to-port="1" />
		<edge from-layer="3280" from-port="2" to-layer="3281" to-port="1" />
		<edge from-layer="3281" from-port="2" to-layer="3284" to-port="0" />
		<edge from-layer="3282" from-port="0" to-layer="3283" to-port="0" />
		<edge from-layer="3283" from-port="1" to-layer="3284" to-port="1" />
		<edge from-layer="3284" from-port="2" to-layer="3285" to-port="0" />
		<edge from-layer="3285" from-port="1" to-layer="3290" to-port="0" />
		<edge from-layer="3286" from-port="0" to-layer="3290" to-port="1" />
		<edge from-layer="3287" from-port="0" to-layer="3290" to-port="2" />
		<edge from-layer="3288" from-port="0" to-layer="3290" to-port="3" />
		<edge from-layer="3289" from-port="0" to-layer="3290" to-port="4" />
		<edge from-layer="3290" from-port="5" to-layer="3295" to-port="0" />
		<edge from-layer="3291" from-port="0" to-layer="3292" to-port="0" />
		<edge from-layer="3292" from-port="1" to-layer="3294" to-port="0" />
		<edge from-layer="3293" from-port="0" to-layer="3294" to-port="1" />
		<edge from-layer="3294" from-port="2" to-layer="3295" to-port="1" />
		<edge from-layer="3295" from-port="2" to-layer="3300" to-port="0" />
		<edge from-layer="3296" from-port="0" to-layer="3300" to-port="1" />
		<edge from-layer="3297" from-port="0" to-layer="3300" to-port="2" />
		<edge from-layer="3298" from-port="0" to-layer="3300" to-port="3" />
		<edge from-layer="3299" from-port="0" to-layer="3300" to-port="4" />
		<edge from-layer="3300" from-port="5" to-layer="3305" to-port="0" />
		<edge from-layer="3301" from-port="0" to-layer="3302" to-port="0" />
		<edge from-layer="3302" from-port="1" to-layer="3304" to-port="0" />
		<edge from-layer="3303" from-port="0" to-layer="3304" to-port="1" />
		<edge from-layer="3304" from-port="2" to-layer="3305" to-port="1" />
		<edge from-layer="3305" from-port="2" to-layer="3308" to-port="0" />
		<edge from-layer="3306" from-port="0" to-layer="3307" to-port="0" />
		<edge from-layer="3307" from-port="1" to-layer="3308" to-port="1" />
		<edge from-layer="3308" from-port="2" to-layer="3309" to-port="0" />
		<edge from-layer="3309" from-port="1" to-layer="3314" to-port="0" />
		<edge from-layer="3310" from-port="0" to-layer="3314" to-port="1" />
		<edge from-layer="3311" from-port="0" to-layer="3314" to-port="2" />
		<edge from-layer="3312" from-port="0" to-layer="3314" to-port="3" />
		<edge from-layer="3313" from-port="0" to-layer="3314" to-port="4" />
		<edge from-layer="3314" from-port="5" to-layer="3319" to-port="0" />
		<edge from-layer="3315" from-port="0" to-layer="3316" to-port="0" />
		<edge from-layer="3316" from-port="1" to-layer="3318" to-port="0" />
		<edge from-layer="3317" from-port="0" to-layer="3318" to-port="1" />
		<edge from-layer="3318" from-port="2" to-layer="3319" to-port="1" />
		<edge from-layer="3319" from-port="2" to-layer="3324" to-port="0" />
		<edge from-layer="3320" from-port="0" to-layer="3324" to-port="1" />
		<edge from-layer="3321" from-port="0" to-layer="3324" to-port="2" />
		<edge from-layer="3322" from-port="0" to-layer="3324" to-port="3" />
		<edge from-layer="3323" from-port="0" to-layer="3324" to-port="4" />
		<edge from-layer="3324" from-port="5" to-layer="3329" to-port="0" />
		<edge from-layer="3325" from-port="0" to-layer="3326" to-port="0" />
		<edge from-layer="3326" from-port="1" to-layer="3328" to-port="0" />
		<edge from-layer="3327" from-port="0" to-layer="3328" to-port="1" />
		<edge from-layer="3328" from-port="2" to-layer="3329" to-port="1" />
		<edge from-layer="3329" from-port="2" to-layer="3332" to-port="0" />
		<edge from-layer="3330" from-port="0" to-layer="3331" to-port="0" />
		<edge from-layer="3331" from-port="1" to-layer="3332" to-port="1" />
		<edge from-layer="3332" from-port="2" to-layer="3333" to-port="0" />
		<edge from-layer="3333" from-port="1" to-layer="3338" to-port="0" />
		<edge from-layer="3334" from-port="0" to-layer="3338" to-port="1" />
		<edge from-layer="3335" from-port="0" to-layer="3338" to-port="2" />
		<edge from-layer="3336" from-port="0" to-layer="3338" to-port="3" />
		<edge from-layer="3337" from-port="0" to-layer="3338" to-port="4" />
		<edge from-layer="3338" from-port="5" to-layer="3343" to-port="0" />
		<edge from-layer="3339" from-port="0" to-layer="3340" to-port="0" />
		<edge from-layer="3340" from-port="1" to-layer="3342" to-port="0" />
		<edge from-layer="3341" from-port="0" to-layer="3342" to-port="1" />
		<edge from-layer="3342" from-port="2" to-layer="3343" to-port="1" />
		<edge from-layer="3343" from-port="2" to-layer="3348" to-port="0" />
		<edge from-layer="3344" from-port="0" to-layer="3348" to-port="1" />
		<edge from-layer="3345" from-port="0" to-layer="3348" to-port="2" />
		<edge from-layer="3346" from-port="0" to-layer="3348" to-port="3" />
		<edge from-layer="3347" from-port="0" to-layer="3348" to-port="4" />
		<edge from-layer="3348" from-port="5" to-layer="3353" to-port="0" />
		<edge from-layer="3349" from-port="0" to-layer="3350" to-port="0" />
		<edge from-layer="3350" from-port="1" to-layer="3352" to-port="0" />
		<edge from-layer="3351" from-port="0" to-layer="3352" to-port="1" />
		<edge from-layer="3352" from-port="2" to-layer="3353" to-port="1" />
		<edge from-layer="3353" from-port="2" to-layer="3356" to-port="0" />
		<edge from-layer="3354" from-port="0" to-layer="3355" to-port="0" />
		<edge from-layer="3355" from-port="1" to-layer="3356" to-port="1" />
		<edge from-layer="3356" from-port="2" to-layer="3358" to-port="0" />
		<edge from-layer="3357" from-port="0" to-layer="3358" to-port="1" />
		<edge from-layer="3358" from-port="2" to-layer="3360" to-port="0" />
		<edge from-layer="3359" from-port="0" to-layer="3360" to-port="1" />
		<edge from-layer="3360" from-port="2" to-layer="3549" to-port="2" />
		<edge from-layer="3361" from-port="0" to-layer="3362" to-port="0" />
		<edge from-layer="3362" from-port="1" to-layer="3364" to-port="0" />
		<edge from-layer="3363" from-port="0" to-layer="3364" to-port="1" />
		<edge from-layer="3364" from-port="2" to-layer="3365" to-port="1" />
		<edge from-layer="3365" from-port="2" to-layer="3370" to-port="0" />
		<edge from-layer="3366" from-port="0" to-layer="3370" to-port="1" />
		<edge from-layer="3367" from-port="0" to-layer="3370" to-port="2" />
		<edge from-layer="3368" from-port="0" to-layer="3370" to-port="3" />
		<edge from-layer="3369" from-port="0" to-layer="3370" to-port="4" />
		<edge from-layer="3370" from-port="5" to-layer="3375" to-port="0" />
		<edge from-layer="3371" from-port="0" to-layer="3372" to-port="0" />
		<edge from-layer="3372" from-port="1" to-layer="3374" to-port="0" />
		<edge from-layer="3373" from-port="0" to-layer="3374" to-port="1" />
		<edge from-layer="3374" from-port="2" to-layer="3375" to-port="1" />
		<edge from-layer="3375" from-port="2" to-layer="3378" to-port="0" />
		<edge from-layer="3376" from-port="0" to-layer="3377" to-port="0" />
		<edge from-layer="3377" from-port="1" to-layer="3378" to-port="1" />
		<edge from-layer="3378" from-port="2" to-layer="3379" to-port="0" />
		<edge from-layer="3379" from-port="1" to-layer="3384" to-port="0" />
		<edge from-layer="3380" from-port="0" to-layer="3384" to-port="1" />
		<edge from-layer="3381" from-port="0" to-layer="3384" to-port="2" />
		<edge from-layer="3382" from-port="0" to-layer="3384" to-port="3" />
		<edge from-layer="3383" from-port="0" to-layer="3384" to-port="4" />
		<edge from-layer="3384" from-port="5" to-layer="3389" to-port="0" />
		<edge from-layer="3385" from-port="0" to-layer="3386" to-port="0" />
		<edge from-layer="3386" from-port="1" to-layer="3388" to-port="0" />
		<edge from-layer="3387" from-port="0" to-layer="3388" to-port="1" />
		<edge from-layer="3388" from-port="2" to-layer="3389" to-port="1" />
		<edge from-layer="3389" from-port="2" to-layer="3394" to-port="0" />
		<edge from-layer="3390" from-port="0" to-layer="3394" to-port="1" />
		<edge from-layer="3391" from-port="0" to-layer="3394" to-port="2" />
		<edge from-layer="3392" from-port="0" to-layer="3394" to-port="3" />
		<edge from-layer="3393" from-port="0" to-layer="3394" to-port="4" />
		<edge from-layer="3394" from-port="5" to-layer="3399" to-port="0" />
		<edge from-layer="3395" from-port="0" to-layer="3396" to-port="0" />
		<edge from-layer="3396" from-port="1" to-layer="3398" to-port="0" />
		<edge from-layer="3397" from-port="0" to-layer="3398" to-port="1" />
		<edge from-layer="3398" from-port="2" to-layer="3399" to-port="1" />
		<edge from-layer="3399" from-port="2" to-layer="3402" to-port="0" />
		<edge from-layer="3400" from-port="0" to-layer="3401" to-port="0" />
		<edge from-layer="3401" from-port="1" to-layer="3402" to-port="1" />
		<edge from-layer="3402" from-port="2" to-layer="3403" to-port="0" />
		<edge from-layer="3403" from-port="1" to-layer="3408" to-port="0" />
		<edge from-layer="3404" from-port="0" to-layer="3408" to-port="1" />
		<edge from-layer="3405" from-port="0" to-layer="3408" to-port="2" />
		<edge from-layer="3406" from-port="0" to-layer="3408" to-port="3" />
		<edge from-layer="3407" from-port="0" to-layer="3408" to-port="4" />
		<edge from-layer="3408" from-port="5" to-layer="3413" to-port="0" />
		<edge from-layer="3409" from-port="0" to-layer="3410" to-port="0" />
		<edge from-layer="3410" from-port="1" to-layer="3412" to-port="0" />
		<edge from-layer="3411" from-port="0" to-layer="3412" to-port="1" />
		<edge from-layer="3412" from-port="2" to-layer="3413" to-port="1" />
		<edge from-layer="3413" from-port="2" to-layer="3418" to-port="0" />
		<edge from-layer="3414" from-port="0" to-layer="3418" to-port="1" />
		<edge from-layer="3415" from-port="0" to-layer="3418" to-port="2" />
		<edge from-layer="3416" from-port="0" to-layer="3418" to-port="3" />
		<edge from-layer="3417" from-port="0" to-layer="3418" to-port="4" />
		<edge from-layer="3418" from-port="5" to-layer="3423" to-port="0" />
		<edge from-layer="3419" from-port="0" to-layer="3420" to-port="0" />
		<edge from-layer="3420" from-port="1" to-layer="3422" to-port="0" />
		<edge from-layer="3421" from-port="0" to-layer="3422" to-port="1" />
		<edge from-layer="3422" from-port="2" to-layer="3423" to-port="1" />
		<edge from-layer="3423" from-port="2" to-layer="3426" to-port="0" />
		<edge from-layer="3424" from-port="0" to-layer="3425" to-port="0" />
		<edge from-layer="3425" from-port="1" to-layer="3426" to-port="1" />
		<edge from-layer="3426" from-port="2" to-layer="3427" to-port="0" />
		<edge from-layer="3427" from-port="1" to-layer="3432" to-port="0" />
		<edge from-layer="3428" from-port="0" to-layer="3432" to-port="1" />
		<edge from-layer="3429" from-port="0" to-layer="3432" to-port="2" />
		<edge from-layer="3430" from-port="0" to-layer="3432" to-port="3" />
		<edge from-layer="3431" from-port="0" to-layer="3432" to-port="4" />
		<edge from-layer="3432" from-port="5" to-layer="3437" to-port="0" />
		<edge from-layer="3433" from-port="0" to-layer="3434" to-port="0" />
		<edge from-layer="3434" from-port="1" to-layer="3436" to-port="0" />
		<edge from-layer="3435" from-port="0" to-layer="3436" to-port="1" />
		<edge from-layer="3436" from-port="2" to-layer="3437" to-port="1" />
		<edge from-layer="3437" from-port="2" to-layer="3442" to-port="0" />
		<edge from-layer="3438" from-port="0" to-layer="3442" to-port="1" />
		<edge from-layer="3439" from-port="0" to-layer="3442" to-port="2" />
		<edge from-layer="3440" from-port="0" to-layer="3442" to-port="3" />
		<edge from-layer="3441" from-port="0" to-layer="3442" to-port="4" />
		<edge from-layer="3442" from-port="5" to-layer="3447" to-port="0" />
		<edge from-layer="3443" from-port="0" to-layer="3444" to-port="0" />
		<edge from-layer="3444" from-port="1" to-layer="3446" to-port="0" />
		<edge from-layer="3445" from-port="0" to-layer="3446" to-port="1" />
		<edge from-layer="3446" from-port="2" to-layer="3447" to-port="1" />
		<edge from-layer="3447" from-port="2" to-layer="3450" to-port="0" />
		<edge from-layer="3448" from-port="0" to-layer="3449" to-port="0" />
		<edge from-layer="3449" from-port="1" to-layer="3450" to-port="1" />
		<edge from-layer="3450" from-port="2" to-layer="3452" to-port="0" />
		<edge from-layer="3451" from-port="0" to-layer="3452" to-port="1" />
		<edge from-layer="3452" from-port="2" to-layer="3454" to-port="0" />
		<edge from-layer="3453" from-port="0" to-layer="3454" to-port="1" />
		<edge from-layer="3454" from-port="2" to-layer="3549" to-port="3" />
		<edge from-layer="3455" from-port="0" to-layer="3456" to-port="0" />
		<edge from-layer="3456" from-port="1" to-layer="3458" to-port="0" />
		<edge from-layer="3457" from-port="0" to-layer="3458" to-port="1" />
		<edge from-layer="3458" from-port="2" to-layer="3459" to-port="1" />
		<edge from-layer="3459" from-port="2" to-layer="3464" to-port="0" />
		<edge from-layer="3460" from-port="0" to-layer="3464" to-port="1" />
		<edge from-layer="3461" from-port="0" to-layer="3464" to-port="2" />
		<edge from-layer="3462" from-port="0" to-layer="3464" to-port="3" />
		<edge from-layer="3463" from-port="0" to-layer="3464" to-port="4" />
		<edge from-layer="3464" from-port="5" to-layer="3469" to-port="0" />
		<edge from-layer="3465" from-port="0" to-layer="3466" to-port="0" />
		<edge from-layer="3466" from-port="1" to-layer="3468" to-port="0" />
		<edge from-layer="3467" from-port="0" to-layer="3468" to-port="1" />
		<edge from-layer="3468" from-port="2" to-layer="3469" to-port="1" />
		<edge from-layer="3469" from-port="2" to-layer="3472" to-port="0" />
		<edge from-layer="3470" from-port="0" to-layer="3471" to-port="0" />
		<edge from-layer="3471" from-port="1" to-layer="3472" to-port="1" />
		<edge from-layer="3472" from-port="2" to-layer="3473" to-port="0" />
		<edge from-layer="3473" from-port="1" to-layer="3478" to-port="0" />
		<edge from-layer="3474" from-port="0" to-layer="3478" to-port="1" />
		<edge from-layer="3475" from-port="0" to-layer="3478" to-port="2" />
		<edge from-layer="3476" from-port="0" to-layer="3478" to-port="3" />
		<edge from-layer="3477" from-port="0" to-layer="3478" to-port="4" />
		<edge from-layer="3478" from-port="5" to-layer="3483" to-port="0" />
		<edge from-layer="3479" from-port="0" to-layer="3480" to-port="0" />
		<edge from-layer="3480" from-port="1" to-layer="3482" to-port="0" />
		<edge from-layer="3481" from-port="0" to-layer="3482" to-port="1" />
		<edge from-layer="3482" from-port="2" to-layer="3483" to-port="1" />
		<edge from-layer="3483" from-port="2" to-layer="3488" to-port="0" />
		<edge from-layer="3484" from-port="0" to-layer="3488" to-port="1" />
		<edge from-layer="3485" from-port="0" to-layer="3488" to-port="2" />
		<edge from-layer="3486" from-port="0" to-layer="3488" to-port="3" />
		<edge from-layer="3487" from-port="0" to-layer="3488" to-port="4" />
		<edge from-layer="3488" from-port="5" to-layer="3493" to-port="0" />
		<edge from-layer="3489" from-port="0" to-layer="3490" to-port="0" />
		<edge from-layer="3490" from-port="1" to-layer="3492" to-port="0" />
		<edge from-layer="3491" from-port="0" to-layer="3492" to-port="1" />
		<edge from-layer="3492" from-port="2" to-layer="3493" to-port="1" />
		<edge from-layer="3493" from-port="2" to-layer="3496" to-port="0" />
		<edge from-layer="3494" from-port="0" to-layer="3495" to-port="0" />
		<edge from-layer="3495" from-port="1" to-layer="3496" to-port="1" />
		<edge from-layer="3496" from-port="2" to-layer="3497" to-port="0" />
		<edge from-layer="3497" from-port="1" to-layer="3502" to-port="0" />
		<edge from-layer="3498" from-port="0" to-layer="3502" to-port="1" />
		<edge from-layer="3499" from-port="0" to-layer="3502" to-port="2" />
		<edge from-layer="3500" from-port="0" to-layer="3502" to-port="3" />
		<edge from-layer="3501" from-port="0" to-layer="3502" to-port="4" />
		<edge from-layer="3502" from-port="5" to-layer="3507" to-port="0" />
		<edge from-layer="3503" from-port="0" to-layer="3504" to-port="0" />
		<edge from-layer="3504" from-port="1" to-layer="3506" to-port="0" />
		<edge from-layer="3505" from-port="0" to-layer="3506" to-port="1" />
		<edge from-layer="3506" from-port="2" to-layer="3507" to-port="1" />
		<edge from-layer="3507" from-port="2" to-layer="3512" to-port="0" />
		<edge from-layer="3508" from-port="0" to-layer="3512" to-port="1" />
		<edge from-layer="3509" from-port="0" to-layer="3512" to-port="2" />
		<edge from-layer="3510" from-port="0" to-layer="3512" to-port="3" />
		<edge from-layer="3511" from-port="0" to-layer="3512" to-port="4" />
		<edge from-layer="3512" from-port="5" to-layer="3517" to-port="0" />
		<edge from-layer="3513" from-port="0" to-layer="3514" to-port="0" />
		<edge from-layer="3514" from-port="1" to-layer="3516" to-port="0" />
		<edge from-layer="3515" from-port="0" to-layer="3516" to-port="1" />
		<edge from-layer="3516" from-port="2" to-layer="3517" to-port="1" />
		<edge from-layer="3517" from-port="2" to-layer="3520" to-port="0" />
		<edge from-layer="3518" from-port="0" to-layer="3519" to-port="0" />
		<edge from-layer="3519" from-port="1" to-layer="3520" to-port="1" />
		<edge from-layer="3520" from-port="2" to-layer="3521" to-port="0" />
		<edge from-layer="3521" from-port="1" to-layer="3526" to-port="0" />
		<edge from-layer="3522" from-port="0" to-layer="3526" to-port="1" />
		<edge from-layer="3523" from-port="0" to-layer="3526" to-port="2" />
		<edge from-layer="3524" from-port="0" to-layer="3526" to-port="3" />
		<edge from-layer="3525" from-port="0" to-layer="3526" to-port="4" />
		<edge from-layer="3526" from-port="5" to-layer="3531" to-port="0" />
		<edge from-layer="3527" from-port="0" to-layer="3528" to-port="0" />
		<edge from-layer="3528" from-port="1" to-layer="3530" to-port="0" />
		<edge from-layer="3529" from-port="0" to-layer="3530" to-port="1" />
		<edge from-layer="3530" from-port="2" to-layer="3531" to-port="1" />
		<edge from-layer="3531" from-port="2" to-layer="3536" to-port="0" />
		<edge from-layer="3532" from-port="0" to-layer="3536" to-port="1" />
		<edge from-layer="3533" from-port="0" to-layer="3536" to-port="2" />
		<edge from-layer="3534" from-port="0" to-layer="3536" to-port="3" />
		<edge from-layer="3535" from-port="0" to-layer="3536" to-port="4" />
		<edge from-layer="3536" from-port="5" to-layer="3541" to-port="0" />
		<edge from-layer="3537" from-port="0" to-layer="3538" to-port="0" />
		<edge from-layer="3538" from-port="1" to-layer="3540" to-port="0" />
		<edge from-layer="3539" from-port="0" to-layer="3540" to-port="1" />
		<edge from-layer="3540" from-port="2" to-layer="3541" to-port="1" />
		<edge from-layer="3541" from-port="2" to-layer="3544" to-port="0" />
		<edge from-layer="3542" from-port="0" to-layer="3543" to-port="0" />
		<edge from-layer="3543" from-port="1" to-layer="3544" to-port="1" />
		<edge from-layer="3544" from-port="2" to-layer="3546" to-port="0" />
		<edge from-layer="3545" from-port="0" to-layer="3546" to-port="1" />
		<edge from-layer="3546" from-port="2" to-layer="3548" to-port="0" />
		<edge from-layer="3547" from-port="0" to-layer="3548" to-port="1" />
		<edge from-layer="3548" from-port="2" to-layer="3549" to-port="4" />
		<edge from-layer="3549" from-port="5" to-layer="3550" to-port="0" />
		<edge from-layer="3550" from-port="1" to-layer="3552" to-port="0" />
		<edge from-layer="3551" from-port="0" to-layer="3552" to-port="1" />
		<edge from-layer="3552" from-port="2" to-layer="3599" to-port="1" />
		<edge from-layer="3553" from-port="1" to-layer="3557" to-port="0" />
		<edge from-layer="3554" from-port="0" to-layer="3557" to-port="1" />
		<edge from-layer="3555" from-port="0" to-layer="3557" to-port="2" />
		<edge from-layer="3556" from-port="0" to-layer="3557" to-port="3" />
		<edge from-layer="3557" from-port="4" to-layer="3563" to-port="0" />
		<edge from-layer="3558" from-port="1" to-layer="3562" to-port="0" />
		<edge from-layer="3559" from-port="0" to-layer="3562" to-port="1" />
		<edge from-layer="3560" from-port="0" to-layer="3562" to-port="2" />
		<edge from-layer="3561" from-port="0" to-layer="3562" to-port="3" />
		<edge from-layer="3562" from-port="4" to-layer="3563" to-port="1" />
		<edge from-layer="3562" from-port="4" to-layer="3595" to-port="1" />
		<edge from-layer="3562" from-port="4" to-layer="3587" to-port="1" />
		<edge from-layer="3562" from-port="4" to-layer="3571" to-port="1" />
		<edge from-layer="3562" from-port="4" to-layer="3579" to-port="1" />
		<edge from-layer="3563" from-port="2" to-layer="3565" to-port="0" />
		<edge from-layer="3564" from-port="0" to-layer="3565" to-port="1" />
		<edge from-layer="3565" from-port="2" to-layer="3598" to-port="0" />
		<edge from-layer="3566" from-port="1" to-layer="3570" to-port="0" />
		<edge from-layer="3567" from-port="0" to-layer="3570" to-port="1" />
		<edge from-layer="3568" from-port="0" to-layer="3570" to-port="2" />
		<edge from-layer="3569" from-port="0" to-layer="3570" to-port="3" />
		<edge from-layer="3570" from-port="4" to-layer="3571" to-port="0" />
		<edge from-layer="3571" from-port="2" to-layer="3573" to-port="0" />
		<edge from-layer="3572" from-port="0" to-layer="3573" to-port="1" />
		<edge from-layer="3573" from-port="2" to-layer="3598" to-port="1" />
		<edge from-layer="3574" from-port="1" to-layer="3578" to-port="0" />
		<edge from-layer="3575" from-port="0" to-layer="3578" to-port="1" />
		<edge from-layer="3576" from-port="0" to-layer="3578" to-port="2" />
		<edge from-layer="3577" from-port="0" to-layer="3578" to-port="3" />
		<edge from-layer="3578" from-port="4" to-layer="3579" to-port="0" />
		<edge from-layer="3579" from-port="2" to-layer="3581" to-port="0" />
		<edge from-layer="3580" from-port="0" to-layer="3581" to-port="1" />
		<edge from-layer="3581" from-port="2" to-layer="3598" to-port="2" />
		<edge from-layer="3582" from-port="1" to-layer="3586" to-port="0" />
		<edge from-layer="3583" from-port="0" to-layer="3586" to-port="1" />
		<edge from-layer="3584" from-port="0" to-layer="3586" to-port="2" />
		<edge from-layer="3585" from-port="0" to-layer="3586" to-port="3" />
		<edge from-layer="3586" from-port="4" to-layer="3587" to-port="0" />
		<edge from-layer="3587" from-port="2" to-layer="3589" to-port="0" />
		<edge from-layer="3588" from-port="0" to-layer="3589" to-port="1" />
		<edge from-layer="3589" from-port="2" to-layer="3598" to-port="3" />
		<edge from-layer="3590" from-port="1" to-layer="3594" to-port="0" />
		<edge from-layer="3591" from-port="0" to-layer="3594" to-port="1" />
		<edge from-layer="3592" from-port="0" to-layer="3594" to-port="2" />
		<edge from-layer="3593" from-port="0" to-layer="3594" to-port="3" />
		<edge from-layer="3594" from-port="4" to-layer="3595" to-port="0" />
		<edge from-layer="3595" from-port="2" to-layer="3597" to-port="0" />
		<edge from-layer="3596" from-port="0" to-layer="3597" to-port="1" />
		<edge from-layer="3597" from-port="2" to-layer="3598" to-port="4" />
		<edge from-layer="3598" from-port="5" to-layer="3599" to-port="2" />
		<edge from-layer="3599" from-port="3" to-layer="3600" to-port="0" />
	</edges>
	<rt_info>
		<MO_version value="2024.5.0-17288-7975fa5da0c-refs/pull/3856/head" />
		<Runtime_version value="2024.5.0-17288-7975fa5da0c-refs/pull/3856/head" />
		<conversion_parameters>
			<framework value="tf" />
			<input value="image_arrays" />
			<input_model value="DIR/efficientdet-d0_frozen.pb" />
			<input_shape value="[1, 512, 512, 3]" />
			<is_python_api_used value="False" />
			<layout value="image_arrays(NHWC)" />
			<model_name value="efficientdet-d0-tf" />
			<output_dir value="/home/arash/Thesis/public/efficientdet-d0-tf/FP16" />
			<reverse_input_channels value="True" />
			<transformations_config value="DIR/automl_efficientdet.json" />
		</conversion_parameters>
		<legacy_frontend value="True" />
		<nncf>
			<friendly_names_were_updated value="True" />
			<quantization>
				<advanced_parameters value="{}" />
				<fast_bias_correction value="True" />
				<ignored_scope value="None" />
				<model_type value="None" />
				<preset value="performance" />
				<subset_size value="5000" />
				<target_device value="CPU" />
			</quantization>
		</nncf>
	</rt_info>
</net>
